Vitis-ai/Compiler/MultLabel_model_API2/compiler/quantized_model/quantized_model_v3.pt (torch_old, 124120 bytes, 40 tensors)

module_1.weight f4 [8, 3, 5, 5]
0	0xbd080000	-0.033203125
1	0x3c200000	0.009765625
2	0xbdd80000	-0.10546875
3	0x3d600000	0.0546875
4	0xbdbc0000	-0.091796875
5	0xbd700000	-0.05859375
6	0x3d280000	0.041015625
7	0x3dd40000	0.103515625
8	0x3df00000	0.1171875
9	0x3dbc0000	0.091796875
10	0xbdd80000	-0.10546875
11	0xbd280000	-0.041015625
12	0x3d880000	0.06640625
13	0xbcb00000	-0.021484375
14	0x3d480000	0.048828125
15	0x3d400000	0.046875
16	0x3d300000	0.04296875
17	0x3de80000	0.11328125
18	0x3de00000	0.109375
19	0x3db00000	0.0859375
20	0x3c800000	0.015625
21	0xbd400000	-0.046875
22	0x3de00000	0.109375
23	0xbbc00000	-0.005859375
24	0x3d780000	0.060546875
25	0xbd780000	-0.060546875
26	0x3c400000	0.01171875
27	0xbdb80000	-0.08984375
28	0x3d9c0000	0.076171875
29	0xbda40000	-0.080078125
30	0xbd200000	-0.0390625
31	0x3d100000	0.03515625
32	0x3db00000	0.0859375
33	0xbda00000	-0.078125
34	0xbd500000	-0.05078125
35	0xbd500000	-0.05078125
36	0xbd300000	-0.04296875
37	0xbdb40000	-0.087890625
38	0x3d580000	0.052734375
39	0x3dac0000	0.083984375
40	0x3d8c0000	0.068359375
41	0x3d600000	0.0546875
42	0x3d600000	0.0546875
43	0xbd000000	-0.03125
44	0x3d200000	0.0390625
45	0xbd500000	-0.05078125
46	0x3d780000	0.060546875
47	0x3ddc0000	0.107421875
48	0xbd300000	-0.04296875
49	0x3d880000	0.06640625
50	0xbd080000	-0.033203125
51	0x3c600000	0.013671875
52	0xbbc00000	-0.005859375
53	0x3dc80000	0.09765625
54	0x3d800000	0.0625
55	0x00000000	0.0
56	0xbd680000	-0.056640625
57	0xbd900000	-0.0703125
58	0x3df40000	0.119140625
59	0x3d500000	0.05078125
60	0x3df40000	0.119140625
61	0xbd000000	-0.03125
62	0x3d580000	0.052734375
63	0xbd680000	-0.056640625
64	0xbb800000	-0.00390625
65	0x3d080000	0.033203125
66	0xbd9c0000	-0.076171875
67	0x3c800000	0.015625
68	0xbd100000	-0.03515625
69	0xbb000000	-0.001953125
70	0x3df00000	0.1171875
71	0xbd8c0000	-0.068359375
72	0x3c900000	0.017578125
73	0xbd280000	-0.041015625
74	0xbd940000	-0.072265625
75	0xbd9c0000	-0.076171875
76	0x3da80000	0.08203125
77	0x3c000000	0.0078125
78	0xbc200000	-0.009765625
79	0xbdbc0000	-0.091796875
80	0x3cd00000	0.025390625
81	0x3d900000	0.0703125
82	0x3dbc0000	0.091796875
83	0xbd840000	-0.064453125
84	0xbce00000	-0.02734375
85	0xbd840000	-0.064453125
86	0x3da40000	0.080078125
87	0x3d080000	0.033203125
88	0xbdc80000	-0.09765625
89	0x3de40000	0.111328125
90	0x3dd00000	0.1015625
91	0xbd900000	-0.0703125
92	0x3e020000	0.12695312
93	0xbc000000	-0.0078125
94	0x3db40000	0.087890625
95	0xbdbc0000	-0.091796875
96	0xbd900000	-0.0703125
97	0xbb000000	-0.001953125
98	0x3d080000	0.033203125
99	0xbc000000	-0.0078125
100	0x3d500000	0.05078125
101	0xbd180000	-0.037109375
102	0xbd980000	-0.07421875
103	0xbd580000	-0.052734375
104	0xbc400000	-0.01171875
105	0xbd180000	-0.037109375
106	0x3dc00000	0.09375
107	0xbdf40000	-0.119140625
108	0x3c400000	0.01171875
109	0xbd580000	-0.052734375
110	0xbbc00000	-0.005859375
111	0xbd780000	-0.060546875
112	0xbd800000	-0.0625
113	0x3d840000	0.064453125
114	0xbd500000	-0.05078125
115	0xbdbc0000	-0.091796875
116	0xbc900000	-0.017578125
117	0x3ca00000	0.01953125
118	0x3d400000	0.046875
119	0x3d400000	0.046875
120	0xbcf00000	-0.029296875
121	0x3d000000	0.03125
122	0xbdfc0000	-0.123046875
123	0x3d200000	0.0390625
124	0xbb800000	-0.00390625
125	0xbd840000	-0.064453125
126	0xbdbc0000	-0.091796875
127	0xbd500000	-0.05078125
128	0x3d500000	0.05078125
129	0xbd480000	-0.048828125
130	0x3db40000	0.087890625
131	0xbcc00000	-0.0234375
132	0x3c800000	0.015625
133	0x3d9c0000	0.076171875
134	0xbdc80000	-0.09765625
135	0xbd680000	-0.056640625
136	0xbc800000	-0.015625
137	0xbd700000	-0.05859375
138	0xbda00000	-0.078125
139	0xbdac0000	-0.083984375
140	0xbd100000	-0.03515625
141	0x3c000000	0.0078125
142	0x3dd40000	0.103515625
143	0x3dd80000	0.10546875
144	0x3d900000	0.0703125
145	0x3d080000	0.033203125
146	0x3bc00000	0.005859375
147	0xbbc00000	-0.005859375
148	0x3d600000	0.0546875
149	0xbc800000	-0.015625
150	0x3cf00000	0.029296875
151	0x3dd00000	0.1015625
152	0x3c800000	0.015625
153	0xbb800000	-0.00390625
154	0xbde40000	-0.111328125
155	0xbc400000	-0.01171875
156	0xbd600000	-0.0546875
157	0xbd280000	-0.041015625
158	0xbd840000	-0.064453125
159	0x3cc00000	0.0234375
160	0xbde80000	-0.11328125
161	0x3d9c0000	0.076171875
162	0xbda00000	-0.078125
163	0x3b000000	0.001953125
164	0x3dc00000	0.09375
165	0x3dac0000	0.083984375
166	0xbd880000	-0.06640625
167	0x3d880000	0.06640625
168	0xbc000000	-0.0078125
169	0x3cc00000	0.0234375
170	0x3db80000	0.08984375
171	0x3b000000	0.001953125
172	0x3d880000	0.06640625
173	0xbc200000	-0.009765625
174	0xbd680000	-0.056640625
175	0x3d900000	0.0703125
176	0x3d500000	0.05078125
177	0x3dac0000	0.083984375
178	0x3ddc0000	0.107421875
179	0xbca00000	-0.01953125
180	0xbcd00000	-0.025390625
181	0x3c000000	0.0078125
182	0xbd980000	-0.07421875
183	0x3cb00000	0.021484375
184	0x3cb00000	0.021484375
185	0xbdc80000	-0.09765625
186	0xbc400000	-0.01171875
187	0x3ca00000	0.01953125
188	0x3d680000	0.056640625
189	0xbca00000	-0.01953125
190	0x3dac0000	0.083984375
191	0xbdac0000	-0.083984375
192	0xbbc00000	-0.005859375
193	0x3d780000	0.060546875
194	0xbd480000	-0.048828125
195	0x3d280000	0.041015625
196	0x3dbc0000	0.091796875
197	0xbbc00000	-0.005859375
198	0xbb800000	-0.00390625
199	0x3e060000	0.13085938
200	0x3cd00000	0.025390625
201	0xbb000000	-0.001953125
202	0xbd300000	-0.04296875
203	0x3d480000	0.048828125
204	0x3dd80000	0.10546875
205	0x3d880000	0.06640625
206	0xbd940000	-0.072265625
207	0x3dc80000	0.09765625
208	0x3d400000	0.046875
209	0x3dc80000	0.09765625
210	0xbd480000	-0.048828125
211	0x3e080000	0.1328125
212	0xbd880000	-0.06640625
213	0x3c000000	0.0078125
214	0x3e000000	0.125
215	0xbd080000	-0.033203125
216	0x3d280000	0.041015625
217	0xbd100000	-0.03515625
218	0x3e060000	0.13085938
219	0x3dfc0000	0.123046875
220	0x3d080000	0.033203125
221	0x3c000000	0.0078125
222	0xbd980000	-0.07421875
223	0x3d600000	0.0546875
224	0xbc000000	-0.0078125
225	0x3b000000	0.001953125
226	0xbd080000	-0.033203125
227	0x3d900000	0.0703125
228	0xbdcc0000	-0.099609375
229	0x3da00000	0.078125
230	0x3ce00000	0.02734375
231	0xbd800000	-0.0625
232	0xbdac0000	-0.083984375
233	0x3b000000	0.001953125
234	0x3cb00000	0.021484375
235	0xbd580000	-0.052734375
236	0xbd580000	-0.052734375
237	0x3da40000	0.080078125
238	0x3d900000	0.0703125
239	0xbdf40000	-0.119140625
240	0x3d180000	0.037109375
241	0xbdf80000	-0.12109375
242	0xbde40000	-0.111328125
243	0xbddc0000	-0.107421875
244	0x3d400000	0.046875
245	0xbdf80000	-0.12109375
246	0xbdb00000	-0.0859375
247	0xbd180000	-0.037109375
248	0xbb800000	-0.00390625
249	0xbdb80000	-0.08984375
250	0xbd500000	-0.05078125
251	0xbcf00000	-0.029296875
252	0x3cf00000	0.029296875
253	0x3d980000	0.07421875
254	0xbcc00000	-0.0234375
255	0xbc800000	-0.015625

module_1.bias f4 [8]
0	0xbd1c0000	-0.038085938
1	0x3df40000	0.119140625
2	0xbdca0000	-0.09863281
3	0xbda40000	-0.080078125
4	0x3d8e0000	0.06933594
5	0x3d600000	0.0546875
6	0x3d640000	0.055664062
7	0x3d4c0000	0.049804688

module_3.weight f4 [8]
0	0x40800000	4.0
1	0x42100000	36.0
2	0x40800000	4.0
3	0x439c0000	312.0
4	0x40800000	4.0
5	0x41a00000	20.0
6	0x42b00000	88.0
7	0x42300000	44.0

module_3.bias f4 [8]
0	0xbfcc0000	-1.59375
1	0xbe900000	-0.28125
2	0xc00c0000	-2.1875
3	0x3d000000	0.03125
4	0xc02a0000	-2.65625
5	0xbf900000	-1.125
6	0xbd800000	-0.0625
7	0xbe200000	-0.15625

module_3.running_mean f4 [8]
0	0x00000000	0.0
1	0x00000000	0.0
2	0x00000000	0.0
3	0x00000000	0.0
4	0x00000000	0.0
5	0x00000000	0.0
6	0x00000000	0.0
7	0x00000000	0.0

module_3.running_var f4 [8]
0	0x3f800000	1.0
1	0x3f800000	1.0
2	0x3f800000	1.0
3	0x3f800000	1.0
4	0x3f800000	1.0
5	0x3f800000	1.0
6	0x3f800000	1.0
7	0x3f800000	1.0

module_5.weight f4 [14, 8, 1, 1]
0	0xbe480000	-0.1953125
1	0x3db80000	0.08984375
2	0x3e400000	0.1875
3	0x3e280000	0.1640625
4	0xbe9a0000	-0.30078125
5	0xbe200000	-0.15625
6	0xbc800000	-0.015625
7	0xbe7c0000	-0.24609375
8	0x3e900000	0.28125
9	0xbe380000	-0.1796875
10	0x3e5c0000	0.21484375
11	0x3e640000	0.22265625
12	0x3df80000	0.12109375
13	0x3d880000	0.06640625
14	0xbe140000	-0.14453125
15	0xbd980000	-0.07421875
16	0x3e940000	0.2890625
17	0xbe6c0000	-0.23046875
18	0xbe4c0000	-0.19921875
19	0x3ea00000	0.3125
20	0xbc800000	-0.015625
21	0x3e3c0000	0.18359375
22	0x3e9e0000	0.30859375
23	0xbda80000	-0.08203125
24	0x3e3c0000	0.18359375
25	0x3b800000	0.00390625
26	0xbe580000	-0.2109375
27	0x3e960000	0.29296875
28	0xbe3c0000	-0.18359375
29	0xbde00000	-0.109375
30	0xbe680000	-0.2265625
31	0xbdb00000	-0.0859375
32	0x3ea60000	0.32421875
33	0xbe9a0000	-0.30078125
34	0xbd980000	-0.07421875
35	0xbeba0000	-0.36328125
36	0x3e0c0000	0.13671875
37	0xbe600000	-0.21875
38	0x3e980000	0.296875
39	0x3e540000	0.20703125
40	0x3e2c0000	0.16796875
41	0xbe9e0000	-0.30859375
42	0x3d980000	0.07421875
43	0x3e540000	0.20703125
44	0xbd300000	-0.04296875
45	0x3e440000	0.19140625
46	0x3eb00000	0.34375
47	0xbe940000	-0.2890625
48	0xbe080000	-0.1328125
49	0xbd700000	-0.05859375
50	0x3e0c0000	0.13671875
51	0x3d300000	0.04296875
52	0x3ea00000	0.3125
53	0x3eba0000	0.36328125
54	0x3d000000	0.03125
55	0x3de00000	0.109375
56	0xbe4c0000	-0.19921875
57	0x3e9a0000	0.30078125
58	0x3c000000	0.0078125
59	0xbd200000	-0.0390625
60	0xbe880000	-0.265625
61	0xbd800000	-0.0625
62	0x3e340000	0.17578125
63	0xbe680000	-0.2265625
64	0x3e8a0000	0.26953125
65	0xbe640000	-0.22265625
66	0xbcc00000	-0.0234375
67	0xbea60000	-0.32421875
68	0x3e880000	0.265625
69	0x3da80000	0.08203125
70	0xbe700000	-0.234375
71	0xbe380000	-0.1796875
72	0x3e340000	0.17578125
73	0xbdb80000	-0.08984375
74	0xbe400000	-0.1875
75	0xbd980000	-0.07421875
76	0x3e9e0000	0.30859375
77	0xbca00000	-0.01953125
78	0xbd900000	-0.0703125
79	0xbe6c0000	-0.23046875
80	0x3e080000	0.1328125
81	0xbde00000	-0.109375
82	0xbdd80000	-0.10546875
83	0xbeac0000	-0.3359375
84	0xbe8e0000	-0.27734375
85	0xbe8a0000	-0.26953125
86	0xbe500000	-0.203125
87	0x3dc00000	0.09375
88	0xbea60000	-0.32421875
89	0xbe380000	-0.1796875
90	0x3e980000	0.296875
91	0x3e300000	0.171875
92	0xbe480000	-0.1953125
93	0x3dd00000	0.1015625
94	0x3d980000	0.07421875
95	0xbe5c0000	-0.21484375
96	0x3e4c0000	0.19921875
97	0x3c000000	0.0078125
98	0x3e8a0000	0.26953125
99	0x3e3c0000	0.18359375
100	0xbd200000	-0.0390625
101	0x3d980000	0.07421875
102	0x3ea60000	0.32421875
103	0xbe1c0000	-0.15234375
104	0xbc000000	-0.0078125
105	0x00000000	0.0
106	0x3e880000	0.265625
107	0xbe980000	-0.296875
108	0xbea60000	-0.32421875
109	0x3db00000	0.0859375
110	0x3e500000	0.203125
111	0x3b800000	0.00390625

module_5.bias f4 [14]
0	0xbd500000	-0.05078125
1	0x3e340000	0.17578125
2	0x3db00000	0.0859375
3	0xbeb60000	-0.35546875
4	0x3cc00000	0.0234375
5	0xbe600000	-0.21875
6	0x3ea20000	0.31640625
7	0xbe9a0000	-0.30078125
8	0x3d880000	0.06640625
9	0x3e880000	0.265625
10	0xbea40000	-0.3203125
11	0xbd100000	-0.03515625
12	0x3e1c0000	0.15234375
13	0xbe5c0000	-0.21484375

module_7.weight f4 [14, 14, 3, 3]
0	0x3d740000	0.059570312
1	0x3d600000	0.0546875
2	0xbcb00000	-0.021484375
3	0x3d180000	0.037109375
4	0xba800000	-0.0009765625
5	0x3dc20000	0.09472656
6	0xbd820000	-0.06347656
7	0xbcb80000	-0.022460938
8	0xbd940000	-0.072265625
9	0x3cb00000	0.021484375
10	0xbd7c0000	-0.061523438
11	0xbd240000	-0.040039062
12	0xbd400000	-0.046875
13	0x3d920000	0.07128906
14	0x3d1c0000	0.038085938
15	0x3d980000	0.07421875
16	0x3d980000	0.07421875
17	0xbd800000	-0.0625
18	0xbca80000	-0.020507812
19	0xbd480000	-0.048828125
20	0xbc880000	-0.016601562
21	0xbda20000	-0.07910156
22	0x3c600000	0.013671875
23	0xbdc20000	-0.09472656
24	0xbc000000	-0.0078125
25	0x3d580000	0.052734375
26	0xbd8e0000	-0.06933594
27	0x3d700000	0.05859375
28	0x3cd80000	0.026367188
29	0x3d840000	0.064453125
30	0xbd680000	-0.056640625
31	0xbde40000	-0.111328125
32	0xbd140000	-0.036132812
33	0x3d540000	0.051757812
34	0x3cb00000	0.021484375
35	0xbd640000	-0.055664062
36	0xbd280000	-0.041015625
37	0xbdca0000	-0.09863281
38	0xbd440000	-0.047851562
39	0x3cc80000	0.024414062
40	0x3d960000	0.07324219
41	0xbc900000	-0.017578125
42	0xbd7c0000	-0.061523438
43	0x3c800000	0.015625
44	0x3d940000	0.072265625
45	0x3d300000	0.04296875
46	0xbcf80000	-0.030273438
47	0x3c700000	0.0146484375
48	0xbc400000	-0.01171875
49	0xbc200000	-0.009765625
50	0x3d000000	0.03125
51	0xbd240000	-0.040039062
52	0x3d280000	0.041015625
53	0x3c300000	0.0107421875
54	0x3dc00000	0.09375
55	0x3cc00000	0.0234375
56	0x3d980000	0.07421875
57	0xbbc00000	-0.005859375
58	0x3a800000	0.0009765625
59	0x3d500000	0.05078125
60	0x3d7c0000	0.061523438
61	0x3cf80000	0.030273438
62	0x3cc80000	0.024414062
63	0x3c300000	0.0107421875
64	0xbda80000	-0.08203125
65	0xbd0c0000	-0.034179688
66	0x3dc60000	0.09667969
67	0x3ba00000	0.0048828125
68	0xbb800000	-0.00390625
69	0xbc300000	-0.0107421875
70	0x3d7c0000	0.061523438
71	0xbda20000	-0.07910156
72	0x3ca80000	0.020507812
73	0xbd8e0000	-0.06933594
74	0xbd820000	-0.06347656
75	0x3d8e0000	0.06933594
76	0x3c880000	0.016601562
77	0x3b000000	0.001953125
78	0xbc000000	-0.0078125
79	0x3c700000	0.0146484375
80	0x3c000000	0.0078125
81	0x3d960000	0.07324219
82	0x3d860000	0.06542969
83	0xbd4c0000	-0.049804688
84	0xbcd00000	-0.025390625
85	0xbd700000	-0.05859375
86	0x3d740000	0.059570312
87	0x3c900000	0.017578125
88	0x3cf80000	0.030273438
89	0x3d040000	0.032226562
90	0xbd080000	-0.033203125
91	0xbc300000	-0.0107421875
92	0x3c300000	0.0107421875
93	0xbd180000	-0.037109375
94	0xbd820000	-0.06347656
95	0x3d820000	0.06347656
96	0x3d6c0000	0.057617188
97	0xbdf60000	-0.12011719
98	0xbd680000	-0.056640625
99	0x3d3c0000	0.045898438
100	0x3cd00000	0.025390625
101	0x3b400000	0.0029296875
102	0xbce80000	-0.028320312
103	0x3c100000	0.0087890625
104	0xbd300000	-0.04296875
105	0xbd700000	-0.05859375
106	0x3d7c0000	0.061523438
107	0xbd500000	-0.05078125
108	0xbd640000	-0.055664062
109	0x3d980000	0.07421875
110	0x3d080000	0.033203125
111	0xbd380000	-0.044921875
112	0x3c500000	0.0126953125
113	0xbd240000	-0.040039062
114	0xbc000000	-0.0078125
115	0xbd3c0000	-0.045898438
116	0x3dd40000	0.103515625
117	0x3d580000	0.052734375
118	0xbba00000	-0.0048828125
119	0x3c400000	0.01171875
120	0x3c600000	0.013671875
121	0x3c100000	0.0087890625
122	0xbd480000	-0.048828125
123	0x3d9a0000	0.07519531
124	0xbc500000	-0.0126953125
125	0x3c300000	0.0107421875
126	0xbda80000	-0.08203125
127	0x3d6c0000	0.057617188
128	0x3da00000	0.078125
129	0xbd900000	-0.0703125
130	0xbd0c0000	-0.034179688
131	0x3d860000	0.06542969
132	0x3dd40000	0.103515625
133	0xbd400000	-0.046875
134	0xbba00000	-0.0048828125
135	0xbd480000	-0.048828125
136	0xbd440000	-0.047851562
137	0x3b800000	0.00390625
138	0xbcb00000	-0.021484375
139	0xbd880000	-0.06640625
140	0xbb400000	-0.0029296875
141	0x3d400000	0.046875
142	0xbd4c0000	-0.049804688
143	0xba800000	-0.0009765625
144	0xbcc80000	-0.024414062
145	0x3d8c0000	0.068359375
146	0x3c600000	0.013671875
147	0x3d1c0000	0.038085938
148	0x3daa0000	0.08300781
149	0xba800000	-0.0009765625
150	0x3d300000	0.04296875
151	0x3c000000	0.0078125
152	0x3d940000	0.072265625
153	0x3d840000	0.064453125
154	0xbd200000	-0.0390625
155	0x3d7c0000	0.061523438
156	0x3c800000	0.015625
157	0x3db80000	0.08984375
158	0xbcc80000	-0.024414062
159	0xbca00000	-0.01953125
160	0x3d840000	0.064453125
161	0xbdec0000	-0.115234375
162	0x3dd40000	0.103515625
163	0xbdb00000	-0.0859375
164	0x3dbc0000	0.091796875
165	0xbda40000	-0.080078125
166	0x3d680000	0.056640625
167	0x3cb00000	0.021484375
168	0xba800000	-0.0009765625
169	0xbc700000	-0.0146484375
170	0x3d6c0000	0.057617188
171	0xbd880000	-0.06640625
172	0xbd480000	-0.048828125
173	0xbd440000	-0.047851562
174	0x3c900000	0.017578125
175	0xbd960000	-0.07324219
176	0xbdb20000	-0.08691406
177	0xbc600000	-0.013671875
178	0x3ce00000	0.02734375
179	0x3c980000	0.018554688
180	0x3cb00000	0.021484375
181	0x3c100000	0.0087890625
182	0x00000000	0.0
183	0x3dae0000	0.08496094
184	0x3b000000	0.001953125
185	0x3be00000	0.0068359375
186	0x3bc00000	0.005859375
187	0x3daa0000	0.08300781
188	0x3cc00000	0.0234375
189	0xbd140000	-0.036132812
190	0x3c100000	0.0087890625
191	0xbca00000	-0.01953125
192	0x3d200000	0.0390625
193	0xbce00000	-0.02734375
194	0xbdce0000	-0.10058594
195	0x3d8e0000	0.06933594
196	0xbdc00000	-0.09375
197	0x3dc00000	0.09375
198	0x3dc60000	0.09667969
199	0x3daa0000	0.08300781
200	0x3cc80000	0.024414062
201	0x3c600000	0.013671875
202	0x3d4c0000	0.049804688
203	0xbd960000	-0.07324219
204	0xbd440000	-0.047851562
205	0xbcd80000	-0.026367188
206	0xbd200000	-0.0390625
207	0xbd640000	-0.055664062
208	0xbcc80000	-0.024414062
209	0xbca80000	-0.020507812
210	0x3a800000	0.0009765625
211	0x3d300000	0.04296875
212	0x3dd40000	0.103515625
213	0xbdaa0000	-0.08300781
214	0x3b400000	0.0029296875
215	0x3d840000	0.064453125
216	0xbc100000	-0.0087890625
217	0xbc600000	-0.013671875
218	0xbd9c0000	-0.076171875
219	0xbcb00000	-0.021484375
220	0xbdc00000	-0.09375
221	0x3c880000	0.016601562
222	0xbcd00000	-0.025390625
223	0xbd1c0000	-0.038085938
224	0xbdd00000	-0.1015625
225	0xbd400000	-0.046875
226	0x3cd00000	0.025390625
227	0xbc980000	-0.018554688
228	0x3c100000	0.0087890625
229	0x3c500000	0.0126953125
230	0x3de40000	0.111328125
231	0x3d9a0000	0.07519531
232	0x3db00000	0.0859375
233	0xbb400000	-0.0029296875
234	0xbb800000	-0.00390625
235	0x3da60000	0.08105469
236	0x3d840000	0.064453125
237	0xbb800000	-0.00390625
238	0x3cb00000	0.021484375
239	0x3dac0000	0.083984375
240	0x3d1c0000	0.038085938
241	0x3d7c0000	0.061523438
242	0xbd340000	-0.043945312
243	0xbda80000	-0.08203125
244	0x3d300000	0.04296875
245	0xbd540000	-0.051757812
246	0x3ba00000	0.0048828125
247	0x3dba0000	0.09082031
248	0xbcd80000	-0.026367188
249	0x3c900000	0.017578125
250	0xbd040000	-0.032226562
251	0x3dfe0000	0.12402344
252	0x3d820000	0.06347656
253	0xbcc00000	-0.0234375
254	0xbd580000	-0.052734375
255	0xbd100000	-0.03515625

module_7.bias f4 [14]
0	0x3cf80000	0.030273438
1	0xbd280000	-0.041015625
2	0xbdb40000	-0.087890625
3	0xbd780000	-0.060546875
4	0x3c980000	0.018554688
5	0x3c500000	0.0126953125
6	0x3d180000	0.037109375
7	0xbd8a0000	-0.06738281
8	0xbc400000	-0.01171875
9	0x3c100000	0.0087890625
10	0x3c600000	0.013671875
11	0xbc500000	-0.0126953125
12	0xbde80000	-0.11328125
13	0x3d9a0000	0.07519531

module_9.weight f4 [14]
0	0x41000000	8.0
1	0x40800000	4.0
2	0x41a00000	20.0
3	0x40800000	4.0
4	0x42100000	36.0
5	0x41a00000	20.0
6	0x40800000	4.0
7	0x43980000	304.0
8	0x41000000	8.0
9	0x40800000	4.0
10	0x41000000	8.0
11	0x43860000	268.0
12	0x40800000	4.0
13	0x41e00000	28.0

module_9.bias f4 [14]
0	0xbfba0000	-1.453125
1	0xbf740000	-0.953125
2	0xbda00000	-0.078125
3	0xbe500000	-0.203125
4	0xbe000000	-0.125
5	0xbe880000	-0.265625
6	0xbe500000	-0.203125
7	0xbd400000	-0.046875
8	0xbf440000	-0.765625
9	0xbf3c0000	-0.734375
10	0xbe300000	-0.171875
11	0xbd000000	-0.03125
12	0xbe000000	-0.125
13	0xbde00000	-0.109375

module_9.running_mean f4 [14]
0	0x00000000	0.0
1	0x00000000	0.0
2	0x00000000	0.0
3	0x00000000	0.0
4	0x00000000	0.0
5	0x00000000	0.0
6	0x00000000	0.0
7	0x00000000	0.0
8	0x00000000	0.0
9	0x00000000	0.0
10	0x00000000	0.0
11	0x00000000	0.0
12	0x00000000	0.0
13	0x00000000	0.0

module_9.running_var f4 [14]
0	0x3f800000	1.0
1	0x3f800000	1.0
2	0x3f800000	1.0
3	0x3f800000	1.0
4	0x3f800000	1.0
5	0x3f800000	1.0
6	0x3f800000	1.0
7	0x3f800000	1.0
8	0x3f800000	1.0
9	0x3f800000	1.0
10	0x3f800000	1.0
11	0x3f800000	1.0
12	0x3f800000	1.0
13	0x3f800000	1.0

module_11.weight f4 [44, 14, 1, 1]
0	0x3e600000	0.21875
1	0x3e440000	0.19140625
2	0xbd300000	-0.04296875
3	0xbdf00000	-0.1171875
4	0xbe300000	-0.171875
5	0xbe040000	-0.12890625
6	0xbd900000	-0.0703125
7	0xbc400000	-0.01171875
8	0x3e680000	0.2265625
9	0x3d980000	0.07421875
10	0x3e480000	0.1953125
11	0xbe100000	-0.140625
12	0x3e680000	0.2265625
13	0xbe860000	-0.26171875
14	0x3e6c0000	0.23046875
15	0x3d600000	0.0546875
16	0x3e580000	0.2109375
17	0x3d900000	0.0703125
18	0xbe1c0000	-0.15234375
19	0x3e640000	0.22265625
20	0x3e400000	0.1875
21	0xbde00000	-0.109375
22	0xbe040000	-0.12890625
23	0xbe400000	-0.1875
24	0x3d400000	0.046875
25	0xbe6c0000	-0.23046875
26	0x3d200000	0.0390625
27	0x3df80000	0.12109375
28	0x3ca00000	0.01953125
29	0xbe800000	-0.25
30	0xbd980000	-0.07421875
31	0x3e380000	0.1796875
32	0x3dc80000	0.09765625
33	0xbe640000	-0.22265625
34	0x3dd00000	0.1015625
35	0x3e340000	0.17578125
36	0x3d880000	0.06640625
37	0xbe1c0000	-0.15234375
38	0xbd200000	-0.0390625
39	0xbdd80000	-0.10546875
40	0xbe1c0000	-0.15234375
41	0x00000000	0.0
42	0xbe180000	-0.1484375
43	0xbd980000	-0.07421875
44	0x3e700000	0.234375
45	0xbda80000	-0.08203125
46	0xbdd80000	-0.10546875
47	0xbe300000	-0.171875
48	0x3d900000	0.0703125
49	0x3d800000	0.0625
50	0x3dc00000	0.09375
51	0x3e300000	0.171875
52	0x3df00000	0.1171875
53	0x3e000000	0.125
54	0x3df00000	0.1171875
55	0xbe1c0000	-0.15234375
56	0x3e880000	0.265625
57	0x3e580000	0.2109375
58	0x3e800000	0.25
59	0x3e3c0000	0.18359375
60	0xbce00000	-0.02734375
61	0xbdc00000	-0.09375
62	0xbe700000	-0.234375
63	0x3e7c0000	0.24609375
64	0x3e840000	0.2578125
65	0xbe5c0000	-0.21484375
66	0x3dd00000	0.1015625
67	0x3e180000	0.1484375
68	0xbdf80000	-0.12109375
69	0xbe080000	-0.1328125
70	0x3e740000	0.23828125
71	0xbd100000	-0.03515625
72	0xbe500000	-0.203125
73	0x3e100000	0.140625
74	0x3cc00000	0.0234375
75	0x3e240000	0.16015625
76	0x3e440000	0.19140625
77	0x3d600000	0.0546875
78	0x3e7c0000	0.24609375
79	0xbe880000	-0.265625
80	0xbd800000	-0.0625
81	0xbdb00000	-0.0859375
82	0x3e300000	0.171875
83	0xbe4c0000	-0.19921875
84	0x3d100000	0.03515625
85	0xbdc00000	-0.09375
86	0xbe820000	-0.25390625
87	0xbe180000	-0.1484375
88	0x3e400000	0.1875
89	0xbe300000	-0.171875
90	0x3e100000	0.140625
91	0x3e180000	0.1484375
92	0xbc400000	-0.01171875
93	0x3e800000	0.25
94	0xbe820000	-0.25390625
95	0xbe000000	-0.125
96	0x3e600000	0.21875
97	0x3db80000	0.08984375
98	0xbb800000	-0.00390625
99	0xbdc00000	-0.09375
100	0x3db80000	0.08984375
101	0xbe400000	-0.1875
102	0x3d300000	0.04296875
103	0x3cc00000	0.0234375
104	0xbc800000	-0.015625
105	0x3e400000	0.1875
106	0x3e280000	0.1640625
107	0x3db80000	0.08984375
108	0x3de00000	0.109375
109	0xbd800000	-0.0625
110	0xbe000000	-0.125
111	0x3e180000	0.1484375
112	0x3e820000	0.25390625
113	0x3e800000	0.25
114	0xbdd00000	-0.1015625
115	0x3e340000	0.17578125
116	0x3d400000	0.046875
117	0xbcc00000	-0.0234375
118	0xbdc00000	-0.09375
119	0x3da80000	0.08203125
120	0x3c800000	0.015625
121	0x3e580000	0.2109375
122	0x3e8a0000	0.26953125
123	0x3e740000	0.23828125
124	0x3d980000	0.07421875
125	0xbe180000	-0.1484375
126	0x3cc00000	0.0234375
127	0xbe780000	-0.2421875
128	0x3e640000	0.22265625
129	0x3d800000	0.0625
130	0x3e380000	0.1796875
131	0x3dc00000	0.09375
132	0x3c400000	0.01171875
133	0xbe640000	-0.22265625
134	0x3c400000	0.01171875
135	0xbdd00000	-0.1015625
136	0xbd800000	-0.0625
137	0xbd500000	-0.05078125
138	0x3d880000	0.06640625
139	0xbe8c0000	-0.2734375
140	0xbc800000	-0.015625
141	0xbde80000	-0.11328125
142	0xbe820000	-0.25390625
143	0x3e440000	0.19140625
144	0x3e680000	0.2265625
145	0xbe040000	-0.12890625
146	0x3e740000	0.23828125
147	0x3e280000	0.1640625
148	0xbe180000	-0.1484375
149	0xbd400000	-0.046875
150	0xbdf80000	-0.12109375
151	0x3e8a0000	0.26953125
152	0x3e280000	0.1640625
153	0xbe040000	-0.12890625
154	0xbe1c0000	-0.15234375
155	0x3e8c0000	0.2734375
156	0x3e040000	0.12890625
157	0x3e5c0000	0.21484375
158	0x3e680000	0.2265625
159	0x3e5c0000	0.21484375
160	0x3d600000	0.0546875
161	0xbd100000	-0.03515625
162	0x3e640000	0.22265625
163	0x3e820000	0.25390625
164	0x3dc00000	0.09375
165	0x3e540000	0.20703125
166	0xbe8a0000	-0.26953125
167	0xbdd80000	-0.10546875
168	0xbe300000	-0.171875
169	0x3e240000	0.16015625
170	0x3d880000	0.06640625
171	0xbd600000	-0.0546875
172	0xbe600000	-0.21875
173	0xbd880000	-0.06640625
174	0x3d300000	0.04296875
175	0xbdd80000	-0.10546875
176	0xbe7c0000	-0.24609375
177	0xbe480000	-0.1953125
178	0x3e140000	0.14453125
179	0xbe800000	-0.25
180	0xbe800000	-0.25
181	0xbe180000	-0.1484375
182	0xbe600000	-0.21875
183	0xbe580000	-0.2109375
184	0xbe0c0000	-0.13671875
185	0xbe440000	-0.19140625
186	0xbcc00000	-0.0234375
187	0x3e200000	0.15625
188	0xbe6c0000	-0.23046875
189	0xbce00000	-0.02734375
190	0xbdb00000	-0.0859375
191	0x3e300000	0.171875
192	0x3e3c0000	0.18359375
193	0x3e5c0000	0.21484375
194	0x3e740000	0.23828125
195	0x3e500000	0.203125
196	0xbd100000	-0.03515625
197	0xbe440000	-0.19140625
198	0x3df00000	0.1171875
199	0xbe0c0000	-0.13671875
200	0x3e6c0000	0.23046875
201	0xbdc80000	-0.09765625
202	0xbd900000	-0.0703125
203	0xbe4c0000	-0.19921875
204	0xbc000000	-0.0078125
205	0x3dc80000	0.09765625
206	0x3ce00000	0.02734375
207	0x3d880000	0.06640625
208	0x3e080000	0.1328125
209	0xbdd80000	-0.10546875
210	0xbdc00000	-0.09375
211	0xbd200000	-0.0390625
212	0xbcc00000	-0.0234375
213	0xbd880000	-0.06640625
214	0xbdb80000	-0.08984375
215	0xbe540000	-0.20703125
216	0xbe440000	-0.19140625
217	0xbd600000	-0.0546875
218	0x3ce00000	0.02734375
219	0xbe300000	-0.171875
220	0x3ce00000	0.02734375
221	0x3e280000	0.1640625
222	0xbe800000	-0.25
223	0xbd980000	-0.07421875
224	0x3b800000	0.00390625
225	0x3e280000	0.1640625
226	0x3de80000	0.11328125
227	0xbda80000	-0.08203125
228	0x00000000	0.0
229	0x3e940000	0.2890625
230	0xbdf80000	-0.12109375
231	0xbe040000	-0.12890625
232	0xbe180000	-0.1484375
233	0x3b800000	0.00390625
234	0xbe600000	-0.21875
235	0xbd300000	-0.04296875
236	0x3e280000	0.1640625
237	0x3e680000	0.2265625
238	0x3e740000	0.23828125
239	0xbe500000	-0.203125
240	0x3e2c0000	0.16796875
241	0xbe480000	-0.1953125
242	0xbe380000	-0.1796875
243	0xbe140000	-0.14453125
244	0x3df80000	0.12109375
245	0xbe1c0000	-0.15234375
246	0xbde80000	-0.11328125
247	0x3e580000	0.2109375
248	0xbd900000	-0.0703125
249	0xbe700000	-0.234375
250	0xbdf00000	-0.1171875
251	0xbd880000	-0.06640625
252	0x3e680000	0.2265625
253	0x3d900000	0.0703125
254	0xbe500000	-0.203125
255	0x3d000000	0.03125

module_11.bias f4 [44]
0	0x3d900000	0.0703125
1	0x3cd00000	0.025390625
2	0xbcb00000	-0.021484375
3	0x3df00000	0.1171875
4	0xbc900000	-0.017578125
5	0xbd700000	-0.05859375
6	0xbde80000	-0.11328125
7	0xbe380000	-0.1796875
8	0xbd300000	-0.04296875
9	0x3e6a0000	0.22851562
10	0xbe5e0000	-0.21679688
11	0xbe7a0000	-0.24414062
12	0x3e220000	0.15820312
13	0xbe6e0000	-0.23242188
14	0xbdc40000	-0.095703125
15	0xbe4c0000	-0.19921875
16	0x3e180000	0.1484375
17	0xbd300000	-0.04296875
18	0xbd9c0000	-0.076171875
19	0x3e180000	0.1484375
20	0x3e360000	0.17773438
21	0xbdd00000	-0.1015625
22	0xbc600000	-0.013671875
23	0x3e760000	0.24023438
24	0x3e660000	0.22460938
25	0x3cc00000	0.0234375
26	0x3d700000	0.05859375
27	0xbe4c0000	-0.19921875
28	0x3e340000	0.17578125
29	0xbda80000	-0.08203125
30	0x3df40000	0.119140625
31	0xbd380000	-0.044921875
32	0xbe780000	-0.2421875
33	0xbd700000	-0.05859375
34	0xbdf00000	-0.1171875
35	0x3e000000	0.125
36	0xbe580000	-0.2109375
37	0x3d980000	0.07421875
38	0xbe360000	-0.17773438
39	0x3e160000	0.14648438
40	0x3e3c0000	0.18359375
41	0x3d380000	0.044921875
42	0x3e5e0000	0.21679688
43	0x3d680000	0.056640625

module_13.weight f4 [44, 44, 3, 3]
0	0xbcd00000	-0.025390625
1	0x3d5c0000	0.053710938
2	0x3cf80000	0.030273438
3	0xbc800000	-0.015625
4	0xbd3c0000	-0.045898438
5	0xbd240000	-0.040039062
6	0x3d800000	0.0625
7	0xbca00000	-0.01953125
8	0x3c500000	0.0126953125
9	0x3d0c0000	0.034179688
10	0x3d0c0000	0.034179688
11	0x3a800000	0.0009765625
12	0x3c200000	0.009765625
13	0x3d4c0000	0.049804688
14	0x3ca00000	0.01953125
15	0x3cb00000	0.021484375
16	0xbce80000	-0.028320312
17	0xbd280000	-0.041015625
18	0xbc200000	-0.009765625
19	0xbc700000	-0.0146484375
20	0xbd380000	-0.044921875
21	0xbc900000	-0.017578125
22	0x3c800000	0.015625
23	0xbc400000	-0.01171875
24	0x3d140000	0.036132812
25	0x3c200000	0.009765625
26	0xbba00000	-0.0048828125
27	0x3d8a0000	0.06738281
28	0xbcb80000	-0.022460938
29	0xbd140000	-0.036132812
30	0xbd240000	-0.040039062
31	0x3d100000	0.03515625
32	0xbd680000	-0.056640625
33	0xbc880000	-0.016601562
34	0x3d100000	0.03515625
35	0xbbe00000	-0.0068359375
36	0x3d0c0000	0.034179688
37	0x3c600000	0.013671875
38	0xbc200000	-0.009765625
39	0x3cc80000	0.024414062
40	0xbc500000	-0.0126953125
41	0xbcc80000	-0.024414062
42	0x3d480000	0.048828125
43	0x3be00000	0.0068359375
44	0xbcb00000	-0.021484375
45	0xbcc80000	-0.024414062
46	0xbc900000	-0.017578125
47	0x3c000000	0.0078125
48	0x3cf80000	0.030273438
49	0xbcc80000	-0.024414062
50	0xbb800000	-0.00390625
51	0xbca80000	-0.020507812
52	0xbd200000	-0.0390625
53	0x3cc80000	0.024414062
54	0x3c100000	0.0087890625
55	0xbb000000	-0.001953125
56	0xbcf00000	-0.029296875
57	0xbc900000	-0.017578125
58	0x3cb80000	0.022460938
59	0xbc880000	-0.016601562
60	0xbd040000	-0.032226562
61	0xbd880000	-0.06640625
62	0x3d4c0000	0.049804688
63	0x3c800000	0.015625
64	0xbcf00000	-0.029296875
65	0xbcb80000	-0.022460938
66	0x3d540000	0.051757812
67	0x3d9e0000	0.07714844
68	0x3c100000	0.0087890625
69	0xbc900000	-0.017578125
70	0xbd580000	-0.052734375
71	0x3a800000	0.0009765625
72	0x3d100000	0.03515625
73	0xbc100000	-0.0087890625
74	0xbca00000	-0.01953125
75	0xbc980000	-0.018554688
76	0xbd780000	-0.060546875
77	0xbc900000	-0.017578125
78	0x3d000000	0.03125
79	0x3c300000	0.0107421875
80	0x3c900000	0.017578125
81	0x3c300000	0.0107421875
82	0xbc800000	-0.015625
83	0x3cf00000	0.029296875
84	0xbcd00000	-0.025390625
85	0x3d200000	0.0390625
86	0xbcc00000	-0.0234375
87	0xbc200000	-0.009765625
88	0x3d280000	0.041015625
89	0xbd300000	-0.04296875
90	0xbbc00000	-0.005859375
91	0xbc000000	-0.0078125
92	0xbd080000	-0.033203125
93	0xbcc80000	-0.024414062
94	0xbd2c0000	-0.041992188
95	0xbd240000	-0.040039062
96	0x3ce00000	0.02734375
97	0xbba00000	-0.0048828125
98	0x3d000000	0.03125
99	0x3d2c0000	0.041992188
100	0x3d7c0000	0.061523438
101	0xbcd00000	-0.025390625
102	0x00000000	0.0
103	0xbc100000	-0.0087890625
104	0x3c980000	0.018554688
105	0xbd080000	-0.033203125
106	0xbd3c0000	-0.045898438
107	0xbbc00000	-0.005859375
108	0xbc600000	-0.013671875
109	0x3d860000	0.06542969
110	0xbd600000	-0.0546875
111	0xbc800000	-0.015625
112	0x3d8a0000	0.06738281
113	0x3c980000	0.018554688
114	0x3ca00000	0.01953125
115	0x3d200000	0.0390625
116	0x3b800000	0.00390625
117	0x3d940000	0.072265625
118	0xbd340000	-0.043945312
119	0xbbc00000	-0.005859375
120	0x3d000000	0.03125
121	0x3cb00000	0.021484375
122	0xbb000000	-0.001953125
123	0x3c200000	0.009765625
124	0xbc700000	-0.0146484375
125	0x3c880000	0.016601562
126	0xbbe00000	-0.0068359375
127	0xbc980000	-0.018554688
128	0xbd040000	-0.032226562
129	0x3d5c0000	0.053710938
130	0x3d5c0000	0.053710938
131	0xbd180000	-0.037109375
132	0x3ce00000	0.02734375
133	0xbd100000	-0.03515625
134	0xbcf80000	-0.030273438
135	0x3d440000	0.047851562
136	0x3c980000	0.018554688
137	0xbcd00000	-0.025390625
138	0x3d440000	0.047851562
139	0x3d500000	0.05078125
140	0xba800000	-0.0009765625
141	0x3d840000	0.064453125
142	0x3b000000	0.001953125
143	0xbd3c0000	-0.045898438
144	0x3d100000	0.03515625
145	0x3b000000	0.001953125
146	0x3b400000	0.0029296875
147	0x3d8c0000	0.068359375
148	0xbc300000	-0.0107421875
149	0xbd7c0000	-0.061523438
150	0xbd500000	-0.05078125
151	0xbd480000	-0.048828125
152	0xbc980000	-0.018554688
153	0x3c300000	0.0107421875
154	0x3c500000	0.0126953125
155	0x3cb80000	0.022460938
156	0xbc200000	-0.009765625
157	0x3d380000	0.044921875
158	0xbd640000	-0.055664062
159	0x3cb00000	0.021484375
160	0x3d8a0000	0.06738281
161	0x3c500000	0.0126953125
162	0xbcd00000	-0.025390625
163	0xbca00000	-0.01953125
164	0xbc500000	-0.0126953125
165	0x3d240000	0.040039062
166	0xbc880000	-0.016601562
167	0x3c000000	0.0078125
168	0x3c700000	0.0146484375
169	0xbd480000	-0.048828125
170	0xbd400000	-0.046875
171	0xbcf00000	-0.029296875
172	0x3d080000	0.033203125
173	0xbd4c0000	-0.049804688
174	0xbd740000	-0.059570312
175	0x3d240000	0.040039062
176	0x3d100000	0.03515625
177	0x3cc80000	0.024414062
178	0x3c500000	0.0126953125
179	0x3d280000	0.041015625
180	0x3da60000	0.08105469
181	0x3d2c0000	0.041992188
182	0x3c000000	0.0078125
183	0x3c500000	0.0126953125
184	0x3da40000	0.080078125
185	0xbc000000	-0.0078125
186	0x3d300000	0.04296875
187	0xbd180000	-0.037109375
188	0xbca00000	-0.01953125
189	0x3d340000	0.043945312
190	0xbc400000	-0.01171875
191	0x3c400000	0.01171875
192	0x3ca00000	0.01953125
193	0xbd280000	-0.041015625
194	0xbb800000	-0.00390625
195	0x3ce80000	0.028320312
196	0xbd480000	-0.048828125
197	0x3bc00000	0.005859375
198	0x00000000	0.0
199	0xbcc80000	-0.024414062
200	0xba800000	-0.0009765625
201	0x3d200000	0.0390625
202	0xbd300000	-0.04296875
203	0xbc100000	-0.0087890625
204	0x3c800000	0.015625
205	0x3be00000	0.0068359375
206	0x3d080000	0.033203125
207	0xbd180000	-0.037109375
208	0xbcd80000	-0.026367188
209	0x3c300000	0.0107421875
210	0x3d080000	0.033203125
211	0xbd100000	-0.03515625
212	0x3d780000	0.060546875
213	0xbd000000	-0.03125
214	0xbc880000	-0.016601562
215	0xbc200000	-0.009765625
216	0xbcf80000	-0.030273438
217	0xbc700000	-0.0146484375
218	0xbd340000	-0.043945312
219	0x3d200000	0.0390625
220	0xbb800000	-0.00390625
221	0x3c980000	0.018554688
222	0x3cd80000	0.026367188
223	0x3ca00000	0.01953125
224	0x3d1c0000	0.038085938
225	0xbc000000	-0.0078125
226	0x3d6c0000	0.057617188
227	0xbd780000	-0.060546875
228	0xbcf80000	-0.030273438
229	0x3d960000	0.07324219
230	0x3b800000	0.00390625
231	0xbd2c0000	-0.041992188
232	0x3d040000	0.032226562
233	0xbc200000	-0.009765625
234	0x3b000000	0.001953125
235	0x3b400000	0.0029296875
236	0xbb000000	-0.001953125
237	0xbb000000	-0.001953125
238	0xbca00000	-0.01953125
239	0xbd080000	-0.033203125
240	0xbd200000	-0.0390625
241	0x3cf80000	0.030273438
242	0x3d140000	0.036132812
243	0x3b800000	0.00390625
244	0xbd600000	-0.0546875
245	0xbd4c0000	-0.049804688
246	0xbd0c0000	-0.034179688
247	0x3c500000	0.0126953125
248	0x3c800000	0.015625
249	0xbd100000	-0.03515625
250	0x3a800000	0.0009765625
251	0xbd400000	-0.046875
252	0x3c300000	0.0107421875
253	0xbd0c0000	-0.034179688
254	0xbcd80000	-0.026367188
255	0xbd140000	-0.036132812

module_13.bias f4 [44]
0	0xbcc00000	-0.0234375
1	0x3da20000	0.07910156
2	0xbbe00000	-0.0068359375
3	0xbcd80000	-0.026367188
4	0x00000000	0.0
5	0xbd0c0000	-0.034179688
6	0x3cb00000	0.021484375
7	0xbda00000	-0.078125
8	0xbb000000	-0.001953125
9	0x3ce00000	0.02734375
10	0xbbe00000	-0.0068359375
11	0xbc500000	-0.0126953125
12	0x00000000	0.0
13	0x3cd80000	0.026367188
14	0x3d180000	0.037109375
15	0xbd640000	-0.055664062
16	0x3c980000	0.018554688
17	0xbd440000	-0.047851562
18	0x3d400000	0.046875
19	0x3ca80000	0.020507812
20	0xbd400000	-0.046875
21	0x3ca00000	0.01953125
22	0x3c980000	0.018554688
23	0xbcd80000	-0.026367188
24	0x3c600000	0.013671875
25	0xbc000000	-0.0078125
26	0xbbc00000	-0.005859375
27	0x3c500000	0.0126953125
28	0x3b800000	0.00390625
29	0xbc500000	-0.0126953125
30	0x3ca00000	0.01953125
31	0x3c800000	0.015625
32	0x3d3c0000	0.045898438
33	0x3d500000	0.05078125
34	0xbd000000	-0.03125
35	0x3ba00000	0.0048828125
36	0xbcd80000	-0.026367188
37	0x3cd00000	0.025390625
38	0x3d580000	0.052734375
39	0xbd240000	-0.040039062
40	0xbc300000	-0.0107421875
41	0xbd140000	-0.036132812
42	0xbd920000	-0.07128906
43	0x3c980000	0.018554688

module_15.weight f4 [44]
0	0x3fd00000	1.625
1	0x3f900000	1.125
2	0x40000000	2.0
3	0x40080000	2.125
4	0x40580000	3.375
5	0x40c40000	6.125
6	0x41240000	10.25
7	0x40c40000	6.125
8	0x3fb00000	1.375
9	0x3f800000	1.0
10	0x40840000	4.125
11	0x3fb00000	1.375
12	0x40b80000	5.75
13	0x40700000	3.75
14	0x3ff00000	1.875
15	0x40700000	3.75
16	0x40680000	3.625
17	0x40100000	2.25
18	0x3f800000	1.0
19	0x40680000	3.625
20	0x40200000	2.5
21	0x3fb00000	1.375
22	0x40200000	2.5
23	0x40200000	2.5
24	0x3f800000	1.0
25	0x3fc00000	1.5
26	0x3f900000	1.125
27	0x3ff00000	1.875
28	0x3f600000	0.875
29	0x40a40000	5.125
30	0x3f900000	1.125
31	0x40600000	3.5
32	0x3f800000	1.0
33	0x40080000	2.125
34	0x40100000	2.25
35	0x3fd00000	1.625
36	0x3fb00000	1.375
37	0x40cc0000	6.375
38	0x3f600000	0.875
39	0x3fb00000	1.375
40	0x40200000	2.5
41	0x40200000	2.5
42	0x40000000	2.0
43	0x40600000	3.5

module_15.bias f4 [44]
0	0xbed00000	-0.40625
1	0xbf120000	-0.5703125
2	0xbec40000	-0.3828125
3	0xbeb00000	-0.34375
4	0xbe380000	-0.1796875
5	0xbe080000	-0.1328125
6	0xbd600000	-0.0546875
7	0xbda00000	-0.078125
8	0xbeec0000	-0.4609375
9	0xbf320000	-0.6953125
10	0xbe100000	-0.140625
11	0xbf0c0000	-0.546875
12	0xbeec0000	-0.4609375
13	0xbe940000	-0.2890625
14	0xbf260000	-0.6484375
15	0xbebc0000	-0.3671875
16	0xbe680000	-0.2265625
17	0xbe500000	-0.203125
18	0xbf200000	-0.625
19	0xbf340000	-0.703125
20	0xbe480000	-0.1953125
21	0xbe600000	-0.21875
22	0xbf2a0000	-0.6640625
23	0xbe900000	-0.28125
24	0xbf120000	-0.5703125
25	0xbee40000	-0.4453125
26	0xbec40000	-0.3828125
27	0xbec80000	-0.390625
28	0xbef00000	-0.46875
29	0xbe080000	-0.1328125
30	0xbf520000	-0.8203125
31	0xbf200000	-0.625
32	0xbf000000	-0.5
33	0xbec00000	-0.375
34	0xbf2c0000	-0.671875
35	0xbf140000	-0.578125
36	0xbf520000	-0.8203125
37	0xbf3a0000	-0.7265625
38	0xbef40000	-0.4765625
39	0xbf360000	-0.7109375
40	0xbf700000	-0.9375
41	0xbe480000	-0.1953125
42	0xbe9c0000	-0.3046875
43	0xbe400000	-0.1875

module_15.running_mean f4 [44]
0	0x00000000	0.0
1	0x00000000	0.0
2	0x00000000	0.0
3	0x00000000	0.0
4	0x00000000	0.0
5	0x00000000	0.0
6	0x00000000	0.0
7	0x00000000	0.0
8	0x00000000	0.0
9	0x00000000	0.0
10	0x00000000	0.0
11	0x00000000	0.0
12	0x00000000	0.0
13	0x00000000	0.0
14	0x00000000	0.0
15	0x00000000	0.0
16	0x00000000	0.0
17	0x00000000	0.0
18	0x00000000	0.0
19	0x00000000	0.0
20	0x00000000	0.0
21	0x00000000	0.0
22	0x00000000	0.0
23	0x00000000	0.0
24	0x00000000	0.0
25	0x00000000	0.0
26	0x00000000	0.0
27	0x00000000	0.0
28	0x00000000	0.0
29	0x00000000	0.0
30	0x00000000	0.0
31	0x00000000	0.0
32	0x00000000	0.0
33	0x00000000	0.0
34	0x00000000	0.0
35	0x00000000	0.0
36	0x00000000	0.0
37	0x00000000	0.0
38	0x00000000	0.0
39	0x00000000	0.0
40	0x00000000	0.0
41	0x00000000	0.0
42	0x00000000	0.0
43	0x00000000	0.0

module_15.running_var f4 [44]
0	0x3f800000	1.0
1	0x3f800000	1.0
2	0x3f800000	1.0
3	0x3f800000	1.0
4	0x3f800000	1.0
5	0x3f800000	1.0
6	0x3f800000	1.0
7	0x3f800000	1.0
8	0x3f800000	1.0
9	0x3f800000	1.0
10	0x3f800000	1.0
11	0x3f800000	1.0
12	0x3f800000	1.0
13	0x3f800000	1.0
14	0x3f800000	1.0
15	0x3f800000	1.0
16	0x3f800000	1.0
17	0x3f800000	1.0
18	0x3f800000	1.0
19	0x3f800000	1.0
20	0x3f800000	1.0
21	0x3f800000	1.0
22	0x3f800000	1.0
23	0x3f800000	1.0
24	0x3f800000	1.0
25	0x3f800000	1.0
26	0x3f800000	1.0
27	0x3f800000	1.0
28	0x3f800000	1.0
29	0x3f800000	1.0
30	0x3f800000	1.0
31	0x3f800000	1.0
32	0x3f800000	1.0
33	0x3f800000	1.0
34	0x3f800000	1.0
35	0x3f800000	1.0
36	0x3f800000	1.0
37	0x3f800000	1.0
38	0x3f800000	1.0
39	0x3f800000	1.0
40	0x3f800000	1.0
41	0x3f800000	1.0
42	0x3f800000	1.0
43	0x3f800000	1.0

module_17.weight f4 [20, 44, 1, 1]
0	0x3dcc0000	0.099609375
1	0xbd280000	-0.041015625
2	0xbda80000	-0.08203125
3	0x3d080000	0.033203125
4	0x3ca00000	0.01953125
5	0xbe0c0000	-0.13671875
6	0x3d180000	0.037109375
7	0xbd880000	-0.06640625
8	0xbd080000	-0.033203125
9	0xbd980000	-0.07421875
10	0xbd300000	-0.04296875
11	0xbdf80000	-0.12109375
12	0xbdc80000	-0.09765625
13	0xbdb80000	-0.08984375
14	0x3dd00000	0.1015625
15	0xbd400000	-0.046875
16	0xbddc0000	-0.107421875
17	0xbcf00000	-0.029296875
18	0x3de40000	0.111328125
19	0xbd700000	-0.05859375
20	0xbdfc0000	-0.123046875
21	0x3d900000	0.0703125
22	0xbd880000	-0.06640625
23	0x3e100000	0.140625
24	0x3d500000	0.05078125
25	0x3d800000	0.0625
26	0xbd900000	-0.0703125
27	0xbe120000	-0.14257812
28	0x3d480000	0.048828125
29	0x3dd40000	0.103515625
30	0xbdc00000	-0.09375
31	0xbd000000	-0.03125
32	0x3b800000	0.00390625
33	0xbd580000	-0.052734375
34	0xbd680000	-0.056640625
35	0x3dac0000	0.083984375
36	0xbd700000	-0.05859375
37	0x3d9c0000	0.076171875
38	0xbde80000	-0.11328125
39	0x3d840000	0.064453125
40	0x3d780000	0.060546875
41	0x3e240000	0.16015625
42	0xbde80000	-0.11328125
43	0x3e0c0000	0.13671875
44	0xbd700000	-0.05859375
45	0x3de80000	0.11328125
46	0xbd800000	-0.0625
47	0xbe100000	-0.140625
48	0xbd480000	-0.048828125
49	0x3dd80000	0.10546875
50	0x3d380000	0.044921875
51	0x3d480000	0.048828125
52	0xbe140000	-0.14453125
53	0x3d580000	0.052734375
54	0x3c800000	0.015625
55	0x3db80000	0.08984375
56	0xbdb40000	-0.087890625
57	0xbdec0000	-0.115234375
58	0xbc000000	-0.0078125
59	0xbc400000	-0.01171875
60	0x3de40000	0.111328125
61	0x3dcc0000	0.099609375
62	0xbdac0000	-0.083984375
63	0xbd600000	-0.0546875
64	0xbb800000	-0.00390625
65	0x3dbc0000	0.091796875
66	0x3c600000	0.013671875
67	0xbe100000	-0.140625
68	0x3e060000	0.13085938
69	0xbe120000	-0.14257812
70	0x3d8c0000	0.068359375
71	0xbdf00000	-0.1171875
72	0x3ca00000	0.01953125
73	0x3d700000	0.05859375
74	0x3dec0000	0.115234375
75	0xbe0a0000	-0.13476562
76	0x3e080000	0.1328125
77	0x3c800000	0.015625
78	0xbda40000	-0.080078125
79	0x3e080000	0.1328125
80	0xbd880000	-0.06640625
81	0xbdf80000	-0.12109375
82	0x3d580000	0.052734375
83	0x3c200000	0.009765625
84	0x3dc00000	0.09375
85	0xbe000000	-0.125
86	0x3e020000	0.12695312
87	0xbde40000	-0.111328125
88	0xbc900000	-0.017578125
89	0xbd900000	-0.0703125
90	0xbc900000	-0.017578125
91	0xbd200000	-0.0390625
92	0x3dcc0000	0.099609375
93	0xbdc40000	-0.095703125
94	0xbe0c0000	-0.13671875
95	0xbcb00000	-0.021484375
96	0xbc400000	-0.01171875
97	0x3d680000	0.056640625
98	0xbe060000	-0.13085938
99	0x3d380000	0.044921875
100	0x3e0e0000	0.13867188
101	0xbd500000	-0.05078125
102	0xbd700000	-0.05859375
103	0xbdcc0000	-0.099609375
104	0xbe1a0000	-0.15039062
105	0x3e0e0000	0.13867188
106	0xbb800000	-0.00390625
107	0x3e040000	0.12890625
108	0xbc000000	-0.0078125
109	0x3df80000	0.12109375
110	0xbcc00000	-0.0234375
111	0xbc600000	-0.013671875
112	0xbdd00000	-0.1015625
113	0x3d780000	0.060546875
114	0xbc200000	-0.009765625
115	0x3c000000	0.0078125
116	0x3cb00000	0.021484375
117	0x3e240000	0.16015625
118	0xbe000000	-0.125
119	0x3e140000	0.14453125
120	0x3dd80000	0.10546875
121	0x3ce00000	0.02734375
122	0x3dc00000	0.09375
123	0xbcb00000	-0.021484375
124	0x3dd80000	0.10546875
125	0xbcf00000	-0.029296875
126	0x3df40000	0.119140625
127	0xbb000000	-0.001953125
128	0xbc000000	-0.0078125
129	0xbdd80000	-0.10546875
130	0x3e280000	0.1640625
131	0xbd700000	-0.05859375
132	0xbdd40000	-0.103515625
133	0xbd100000	-0.03515625
134	0x3cb00000	0.021484375
135	0x3d180000	0.037109375
136	0x3da40000	0.080078125
137	0xbdfc0000	-0.123046875
138	0x3dcc0000	0.099609375
139	0xbd180000	-0.037109375
140	0x3d200000	0.0390625
141	0x00000000	0.0
142	0x3df80000	0.12109375
143	0x3d180000	0.037109375
144	0x3d200000	0.0390625
145	0xbb800000	-0.00390625
146	0xbde40000	-0.111328125
147	0x3dd80000	0.10546875
148	0xbdb80000	-0.08984375
149	0xbd800000	-0.0625
150	0xbde40000	-0.111328125
151	0x3d880000	0.06640625
152	0x3d980000	0.07421875
153	0x3cd00000	0.025390625
154	0x3b000000	0.001953125
155	0x3e000000	0.125
156	0x3de00000	0.109375
157	0x3d180000	0.037109375
158	0x3de40000	0.111328125
159	0x3c200000	0.009765625
160	0x3d8c0000	0.068359375
161	0x3dcc0000	0.099609375
162	0x3e120000	0.14257812
163	0x3dfc0000	0.123046875
164	0xbda80000	-0.08203125
165	0xbd000000	-0.03125
166	0xbdfc0000	-0.123046875
167	0x3e080000	0.1328125
168	0x3e180000	0.1484375
169	0xbdbc0000	-0.091796875
170	0x3b000000	0.001953125
171	0x3e340000	0.17578125
172	0x3dfc0000	0.123046875
173	0xbd400000	-0.046875
174	0x3e1a0000	0.15039062
175	0x3e120000	0.14257812
176	0x3d480000	0.048828125
177	0x3c400000	0.01171875
178	0x3cc00000	0.0234375
179	0xbdac0000	-0.083984375
180	0xbca00000	-0.01953125
181	0x3d080000	0.033203125
182	0xbcd00000	-0.025390625
183	0x3d280000	0.041015625
184	0x3ddc0000	0.107421875
185	0x3c900000	0.017578125
186	0xbdc00000	-0.09375
187	0xbd000000	-0.03125
188	0xbdac0000	-0.083984375
189	0xbb800000	-0.00390625
190	0xbd8c0000	-0.068359375
191	0xbd600000	-0.0546875
192	0x3e040000	0.12890625
193	0xbe060000	-0.13085938
194	0x3d880000	0.06640625
195	0x3c600000	0.013671875
196	0xbe100000	-0.140625
197	0xbddc0000	-0.107421875
198	0x3d900000	0.0703125
199	0xbd200000	-0.0390625
200	0xbd600000	-0.0546875
201	0xbcd00000	-0.025390625
202	0xbd380000	-0.044921875
203	0x3dcc0000	0.099609375
204	0xbdd00000	-0.1015625
205	0x3d800000	0.0625
206	0x3d9c0000	0.076171875
207	0xbe0e0000	-0.13867188
208	0xbd080000	-0.033203125
209	0xbe140000	-0.14453125
210	0x3e100000	0.140625
211	0x3c000000	0.0078125
212	0x3d900000	0.0703125
213	0x3e140000	0.14453125
214	0xbd000000	-0.03125
215	0x3df00000	0.1171875
216	0xbe220000	-0.15820312
217	0x3e420000	0.18945312
218	0x3e160000	0.14648438
219	0xbb000000	-0.001953125
220	0x3cf00000	0.029296875
221	0xbc400000	-0.01171875
222	0xbe0a0000	-0.13476562
223	0x3d940000	0.072265625
224	0x3dd00000	0.1015625
225	0xbdd40000	-0.103515625
226	0x3e080000	0.1328125
227	0x3e100000	0.140625
228	0xbe160000	-0.14648438
229	0xbd300000	-0.04296875
230	0x3de40000	0.111328125
231	0x3ce00000	0.02734375
232	0xbdd00000	-0.1015625
233	0x3e1e0000	0.15429688
234	0xbc600000	-0.013671875
235	0xbde40000	-0.111328125
236	0xbdcc0000	-0.099609375
237	0xbd500000	-0.05078125
238	0x3c900000	0.017578125
239	0x3d400000	0.046875
240	0x3dbc0000	0.091796875
241	0xbc600000	-0.013671875
242	0xbdd00000	-0.1015625
243	0xbd600000	-0.0546875
244	0xbcf00000	-0.029296875
245	0xbdc00000	-0.09375
246	0xbdf80000	-0.12109375
247	0xbc000000	-0.0078125
248	0xbe1a0000	-0.15039062
249	0x3d400000	0.046875
250	0x3dcc0000	0.099609375
251	0xbd180000	-0.037109375
252	0xbe100000	-0.140625
253	0xbda40000	-0.080078125
254	0xbc000000	-0.0078125
255	0xbdec0000	-0.115234375

module_17.bias f4 [20]
0	0x3d380000	0.044921875
1	0xbdd80000	-0.10546875
2	0x3dd00000	0.1015625
3	0xbc400000	-0.01171875
4	0xbd180000	-0.037109375
5	0xbd500000	-0.05078125
6	0xbc000000	-0.0078125
7	0xbce00000	-0.02734375
8	0xbd400000	-0.046875
9	0x3da00000	0.078125
10	0x3d980000	0.07421875
11	0xbdb40000	-0.087890625
12	0xbd200000	-0.0390625
13	0xbc400000	-0.01171875
14	0x3cf00000	0.029296875
15	0x3e1a0000	0.15039062
16	0x3cd00000	0.025390625
17	0xbe0c0000	-0.13671875
18	0xbe040000	-0.12890625
19	0xbd280000	-0.041015625
