Vitis-ai/Quantizer/Classification_model_API2/quantized/param.pth (torch_old, 120232 bytes, 38 tensors)

module_1.weight f4 [8, 3, 5, 5]
0	0xbdd00000	-0.1015625
1	0x3de40000	0.111328125
2	0xbcd80000	-0.026367188
3	0x3d680000	0.056640625
4	0xbcb80000	-0.022460938
5	0xbd980000	-0.07421875
6	0x3d0c0000	0.034179688
7	0x3d8e0000	0.06933594
8	0x3d340000	0.043945312
9	0x3d820000	0.06347656
10	0x3d400000	0.046875
11	0xbba00000	-0.0048828125
12	0x3d800000	0.0625
13	0xbd3c0000	-0.045898438
14	0x3d4c0000	0.049804688
15	0x3cd00000	0.025390625
16	0xbdb80000	-0.08984375
17	0x3ce00000	0.02734375
18	0x3c300000	0.0107421875
19	0xbd3c0000	-0.045898438
20	0xbd500000	-0.05078125
21	0x3d6c0000	0.057617188
22	0x3ca80000	0.020507812
23	0xbd300000	-0.04296875
24	0x3cb00000	0.021484375
25	0x3de80000	0.11328125
26	0x3dac0000	0.083984375
27	0xbd900000	-0.0703125
28	0xbddc0000	-0.107421875
29	0x3d500000	0.05078125
30	0xbb400000	-0.0029296875
31	0xbc200000	-0.009765625
32	0x3d600000	0.0546875
33	0xbde60000	-0.11230469
34	0x3d580000	0.052734375
35	0xbdca0000	-0.09863281
36	0x3dc60000	0.09667969
37	0xbdca0000	-0.09863281
38	0xbdbe0000	-0.09277344
39	0xbcb80000	-0.022460938
40	0xbc900000	-0.017578125
41	0xbda40000	-0.080078125
42	0xbb400000	-0.0029296875
43	0xbd200000	-0.0390625
44	0xbd7c0000	-0.061523438
45	0xbd5c0000	-0.053710938
46	0xbcb80000	-0.022460938
47	0xbd700000	-0.05859375
48	0x3de60000	0.11230469
49	0x3da80000	0.08203125
50	0x3dac0000	0.083984375
51	0x3c900000	0.017578125
52	0x3d920000	0.07128906
53	0xbdc00000	-0.09375
54	0x3be00000	0.0068359375
55	0x3ce80000	0.028320312
56	0x3d2c0000	0.041992188
57	0x3d340000	0.043945312
58	0xbde00000	-0.109375
59	0x3c980000	0.018554688
60	0x3c800000	0.015625
61	0xbd5c0000	-0.053710938
62	0xbdb20000	-0.08691406
63	0xbd3c0000	-0.045898438
64	0xbc700000	-0.0146484375
65	0xbd140000	-0.036132812
66	0xbcb00000	-0.021484375
67	0x3ce00000	0.02734375
68	0xbd5c0000	-0.053710938
69	0x3d3c0000	0.045898438
70	0x3dae0000	0.08496094
71	0x3db80000	0.08984375
72	0x3de20000	0.11035156
73	0x3d600000	0.0546875
74	0xbd380000	-0.044921875
75	0xbda40000	-0.080078125
76	0xbdc20000	-0.09472656
77	0xbdb40000	-0.087890625
78	0xbddc0000	-0.107421875
79	0x3d500000	0.05078125
80	0x3de60000	0.11230469
81	0xbd6c0000	-0.057617188
82	0x3d1c0000	0.038085938
83	0x3dd00000	0.1015625
84	0xbd600000	-0.0546875
85	0x3c900000	0.017578125
86	0xbdec0000	-0.115234375
87	0x3d8c0000	0.068359375
88	0x3d980000	0.07421875
89	0x3d600000	0.0546875
90	0x3da60000	0.08105469
91	0xbd740000	-0.059570312
92	0xbd180000	-0.037109375
93	0xbd1c0000	-0.038085938
94	0xbd9a0000	-0.07519531
95	0xbb000000	-0.001953125
96	0xbcc00000	-0.0234375
97	0xbd540000	-0.051757812
98	0x3dc00000	0.09375
99	0x3d920000	0.07128906
100	0xbdac0000	-0.083984375
101	0x3cd80000	0.026367188
102	0x3d5c0000	0.053710938
103	0x3d300000	0.04296875
104	0x3de20000	0.11035156
105	0x3dae0000	0.08496094
106	0x3d300000	0.04296875
107	0x3c300000	0.0107421875
108	0x3cd80000	0.026367188
109	0x3de60000	0.11230469
110	0x3d780000	0.060546875
111	0xbdd00000	-0.1015625
112	0x3db80000	0.08984375
113	0xbd7c0000	-0.061523438
114	0xbce80000	-0.028320312
115	0x3d940000	0.072265625
116	0xbd8a0000	-0.06738281
117	0x3dac0000	0.083984375
118	0x3d0c0000	0.034179688
119	0xbde00000	-0.109375
120	0xbdce0000	-0.10058594
121	0xbd8c0000	-0.068359375
122	0xbd920000	-0.07128906
123	0xbdd40000	-0.103515625
124	0xbdc00000	-0.09375
125	0x3d8e0000	0.06933594
126	0xbc400000	-0.01171875
127	0xbd2c0000	-0.041992188
128	0xbcc80000	-0.024414062
129	0xbce80000	-0.028320312
130	0x3dba0000	0.09082031
131	0xbda60000	-0.08105469
132	0xbd040000	-0.032226562
133	0xbdd80000	-0.10546875
134	0xbdca0000	-0.09863281
135	0x3d980000	0.07421875
136	0xbdde0000	-0.10839844
137	0xbdc40000	-0.095703125
138	0x3d080000	0.033203125
139	0x3de00000	0.109375
140	0x3cb80000	0.022460938
141	0xbdd60000	-0.10449219
142	0x3d3c0000	0.045898438
143	0x3d4c0000	0.049804688
144	0xbd860000	-0.06542969
145	0xbc800000	-0.015625
146	0x3dc00000	0.09375
147	0xbdbe0000	-0.09277344
148	0xbdac0000	-0.083984375
149	0x3dae0000	0.08496094
150	0x3ca00000	0.01953125
151	0xbdc80000	-0.09765625
152	0x3d0c0000	0.034179688
153	0x3d700000	0.05859375
154	0x3d440000	0.047851562
155	0x3dee0000	0.11621094
156	0xbd340000	-0.043945312
157	0xbb000000	-0.001953125
158	0xbdac0000	-0.083984375
159	0x3d500000	0.05078125
160	0xbd100000	-0.03515625
161	0x3dbc0000	0.091796875
162	0x3c600000	0.013671875
163	0x3dc60000	0.09667969
164	0xbdcc0000	-0.099609375
165	0x3d100000	0.03515625
166	0xbdda0000	-0.10644531
167	0x3d4c0000	0.049804688
168	0x3db80000	0.08984375
169	0x3d900000	0.0703125
170	0x3d000000	0.03125
171	0xbd280000	-0.041015625
172	0xbc100000	-0.0087890625
173	0x3d740000	0.059570312
174	0x3dc40000	0.095703125
175	0xba800000	-0.0009765625
176	0x3de60000	0.11230469
177	0xbd880000	-0.06640625
178	0x3de20000	0.11035156
179	0xbde40000	-0.111328125
180	0x3d500000	0.05078125
181	0x3cd00000	0.025390625
182	0xbdcc0000	-0.099609375
183	0xbdc80000	-0.09765625
184	0xbdb00000	-0.0859375
185	0xbd480000	-0.048828125
186	0x3db40000	0.087890625
187	0xbdac0000	-0.083984375
188	0xbdb60000	-0.08886719
189	0xbd540000	-0.051757812
190	0x3d9e0000	0.07714844
191	0xbdda0000	-0.10644531
192	0xbdd60000	-0.10449219
193	0xbda20000	-0.07910156
194	0xbd680000	-0.056640625
195	0xbd640000	-0.055664062
196	0x3d400000	0.046875
197	0xbd8c0000	-0.068359375
198	0x3cc80000	0.024414062
199	0xbd240000	-0.040039062
200	0xbde00000	-0.109375
201	0x3db80000	0.08984375
202	0x3d480000	0.048828125
203	0xbd440000	-0.047851562
204	0xbdae0000	-0.08496094
205	0x3d960000	0.07324219
206	0xbcd80000	-0.026367188
207	0xbcb80000	-0.022460938
208	0x3be00000	0.0068359375
209	0xbc880000	-0.016601562
210	0x3d9c0000	0.076171875
211	0xbc200000	-0.009765625
212	0x3b400000	0.0029296875
213	0x3c900000	0.017578125
214	0x3c100000	0.0087890625
215	0xbd680000	-0.056640625
216	0xbda40000	-0.080078125
217	0x3d980000	0.07421875
218	0xbb000000	-0.001953125
219	0x3c700000	0.0146484375
220	0xbd800000	-0.0625
221	0x3dd80000	0.10546875
222	0xbdc80000	-0.09765625
223	0xbdba0000	-0.09082031
224	0x3c880000	0.016601562
225	0xba800000	-0.0009765625
226	0xbc000000	-0.0078125
227	0x3d540000	0.051757812
228	0xbd400000	-0.046875
229	0x3dc60000	0.09667969
230	0x3d200000	0.0390625
231	0xbdba0000	-0.09082031
232	0x3d8a0000	0.06738281
233	0xbd240000	-0.040039062
234	0x3d900000	0.0703125
235	0xbd080000	-0.033203125
236	0xbb400000	-0.0029296875
237	0xbd140000	-0.036132812
238	0x3c100000	0.0087890625
239	0x3d040000	0.032226562
240	0x3dda0000	0.10644531
241	0xbdbc0000	-0.091796875
242	0xbd840000	-0.064453125
243	0x3dc00000	0.09375
244	0xbca00000	-0.01953125
245	0xbdbe0000	-0.09277344
246	0x3be00000	0.0068359375
247	0x3a800000	0.0009765625
248	0x3d540000	0.051757812
249	0x3dae0000	0.08496094
250	0x3d380000	0.044921875
251	0xbbe00000	-0.0068359375
252	0x3d8c0000	0.068359375
253	0x3d540000	0.051757812
254	0xbcd00000	-0.025390625
255	0xbd2c0000	-0.041992188

module_1.bias f4 [8]
0	0x3b800000	0.00390625
1	0xbde60000	-0.11230469
2	0x3d9c0000	0.076171875
3	0xbd500000	-0.05078125
4	0xbdb60000	-0.08886719
5	0x3db00000	0.0859375
6	0x3cd00000	0.025390625
7	0xbb800000	-0.00390625

module_3.weight f4 [8]
0	0x41900000	18.0
1	0x432c0000	172.0
2	0x42100000	36.0
3	0x40c00000	6.0
4	0x42600000	56.0
5	0x41400000	12.0
6	0x41b00000	22.0
7	0x42c00000	96.0

module_3.bias f4 [8]
0	0xbf9c0000	-1.21875
1	0x00000000	0.0
2	0xbe800000	-0.25
3	0xbfd00000	-1.625
4	0xbed00000	-0.40625
5	0xc0220000	-2.53125
6	0xbf080000	-0.53125
7	0xbe000000	-0.125

module_3.running_mean f4 [8]
0	0x00000000	0.0
1	0x00000000	0.0
2	0x00000000	0.0
3	0x00000000	0.0
4	0x00000000	0.0
5	0x00000000	0.0
6	0x00000000	0.0
7	0x00000000	0.0

module_3.running_var f4 [8]
0	0x3f800000	1.0
1	0x3f800000	1.0
2	0x3f800000	1.0
3	0x3f800000	1.0
4	0x3f800000	1.0
5	0x3f800000	1.0
6	0x3f800000	1.0
7	0x3f800000	1.0

module_5.weight f4 [14, 8, 3, 3]
0	0xbdac0000	-0.083984375
1	0xbdca0000	-0.09863281
2	0x3dd80000	0.10546875
3	0xbd8a0000	-0.06738281
4	0xbdce0000	-0.10058594
5	0xbd700000	-0.05859375
6	0x3d5c0000	0.053710938
7	0x3db20000	0.08691406
8	0xbd0c0000	-0.034179688
9	0x3d040000	0.032226562
10	0xbc980000	-0.018554688
11	0xbd9a0000	-0.07519531
12	0xbdb20000	-0.08691406
13	0x3d940000	0.072265625
14	0x3d580000	0.052734375
15	0x3dc60000	0.09667969
16	0xbd820000	-0.06347656
17	0xbdb20000	-0.08691406
18	0xbdb40000	-0.087890625
19	0xbb800000	-0.00390625
20	0xbc700000	-0.0146484375
21	0xbd180000	-0.037109375
22	0x3d9a0000	0.07519531
23	0x3dac0000	0.083984375
24	0x3dee0000	0.11621094
25	0x3d9c0000	0.076171875
26	0xbd480000	-0.048828125
27	0xbce80000	-0.028320312
28	0x3d1c0000	0.038085938
29	0x3d8c0000	0.068359375
30	0xbb000000	-0.001953125
31	0x3d8e0000	0.06933594
32	0xbd740000	-0.059570312
33	0xbd100000	-0.03515625
34	0xbcc80000	-0.024414062
35	0x3d540000	0.051757812
36	0x3dca0000	0.09863281
37	0x3df60000	0.12011719
38	0xbd1c0000	-0.038085938
39	0x3c000000	0.0078125
40	0x3dcc0000	0.099609375
41	0x3d280000	0.041015625
42	0xbd8e0000	-0.06933594
43	0x3d480000	0.048828125
44	0x3d000000	0.03125
45	0x3c100000	0.0087890625
46	0xbd400000	-0.046875
47	0xbd1c0000	-0.038085938
48	0x3c200000	0.009765625
49	0xbd380000	-0.044921875
50	0x3daa0000	0.08300781
51	0xbb800000	-0.00390625
52	0xbdf20000	-0.11816406
53	0xbd960000	-0.07324219
54	0x3d960000	0.07324219
55	0xbd240000	-0.040039062
56	0xbda40000	-0.080078125
57	0x3d8c0000	0.068359375
58	0x3d7c0000	0.061523438
59	0xbd840000	-0.064453125
60	0x3d940000	0.072265625
61	0xbd440000	-0.047851562
62	0x3db40000	0.087890625
63	0xbc300000	-0.0107421875
64	0xbcd80000	-0.026367188
65	0xbd980000	-0.07421875
66	0x3dca0000	0.09863281
67	0x3b000000	0.001953125
68	0x3d480000	0.048828125
69	0xbda20000	-0.07910156
70	0xbd780000	-0.060546875
71	0xbc980000	-0.018554688
72	0x3ca80000	0.020507812
73	0xbc600000	-0.013671875
74	0xbdf80000	-0.12109375
75	0xbdbc0000	-0.091796875
76	0x3d5c0000	0.053710938
77	0x3d440000	0.047851562
78	0xbdd20000	-0.10253906
79	0x3d920000	0.07128906
80	0xbc880000	-0.016601562
81	0xbba00000	-0.0048828125
82	0x3d960000	0.07324219
83	0x3dde0000	0.10839844
84	0xbdd40000	-0.103515625
85	0x3c400000	0.01171875
86	0x3cb80000	0.022460938
87	0x3d680000	0.056640625
88	0x3ca00000	0.01953125
89	0x3d600000	0.0546875
90	0xbd1c0000	-0.038085938
91	0x3daa0000	0.08300781
92	0xbda60000	-0.08105469
93	0xbc200000	-0.009765625
94	0x3df40000	0.119140625
95	0xbd240000	-0.040039062
96	0xbdac0000	-0.083984375
97	0xbdf80000	-0.12109375
98	0xbc880000	-0.016601562
99	0x3d1c0000	0.038085938
100	0x3d8e0000	0.06933594
101	0xbdc40000	-0.095703125
102	0x3d800000	0.0625
103	0xbda80000	-0.08203125
104	0xbdcc0000	-0.099609375
105	0xbd8c0000	-0.068359375
106	0xbda00000	-0.078125
107	0x3d140000	0.036132812
108	0xbdf20000	-0.11816406
109	0x3b000000	0.001953125
110	0xbddc0000	-0.107421875
111	0xbdc00000	-0.09375
112	0x3dd20000	0.10253906
113	0xbd880000	-0.06640625
114	0x3dca0000	0.09863281
115	0xbdd60000	-0.10449219
116	0x3de80000	0.11328125
117	0xbde80000	-0.11328125
118	0x3d280000	0.041015625
119	0x3ddc0000	0.107421875
120	0xbcf80000	-0.030273438
121	0xbd140000	-0.036132812
122	0xbd480000	-0.048828125
123	0xbdf00000	-0.1171875
124	0xbd600000	-0.0546875
125	0x3da20000	0.07910156
126	0xbdee0000	-0.11621094
127	0xbdd40000	-0.103515625
128	0x3dc20000	0.09472656
129	0xbd980000	-0.07421875
130	0xbd580000	-0.052734375
131	0x3d8c0000	0.068359375
132	0x3dbe0000	0.09277344
133	0x3b400000	0.0029296875
134	0xbd9c0000	-0.076171875
135	0xbd380000	-0.044921875
136	0xbcf00000	-0.029296875
137	0xbdb20000	-0.08691406
138	0xbd700000	-0.05859375
139	0x3d8c0000	0.068359375
140	0xbc880000	-0.016601562
141	0x3d3c0000	0.045898438
142	0xbd9a0000	-0.07519531
143	0xbbc00000	-0.005859375
144	0x3dd80000	0.10546875
145	0x3db80000	0.08984375
146	0xbdba0000	-0.09082031
147	0xbd380000	-0.044921875
148	0xba800000	-0.0009765625
149	0x3d700000	0.05859375
150	0x3d9e0000	0.07714844
151	0x3da40000	0.080078125
152	0x3db80000	0.08984375
153	0x3d820000	0.06347656
154	0xbcf00000	-0.029296875
155	0xbd440000	-0.047851562
156	0x3d9c0000	0.076171875
157	0x3dce0000	0.10058594
158	0x3cf80000	0.030273438
159	0xbc200000	-0.009765625
160	0xbd380000	-0.044921875
161	0xbe000000	-0.125
162	0x3d140000	0.036132812
163	0xbdc60000	-0.09667969
164	0xbde60000	-0.11230469
165	0x3d680000	0.056640625
166	0xbca00000	-0.01953125
167	0xbbe00000	-0.0068359375
168	0xbc600000	-0.013671875
169	0x3d600000	0.0546875
170	0xbdd20000	-0.10253906
171	0xbbc00000	-0.005859375
172	0xbd040000	-0.032226562
173	0xbd8e0000	-0.06933594
174	0x3b400000	0.0029296875
175	0x3b000000	0.001953125
176	0x3d000000	0.03125
177	0x3d4c0000	0.049804688
178	0x3d920000	0.07128906
179	0x3da20000	0.07910156
180	0xbd3c0000	-0.045898438
181	0x3dd20000	0.10253906
182	0xbc900000	-0.017578125
183	0x3dba0000	0.09082031
184	0xbdb20000	-0.08691406
185	0x3d900000	0.0703125
186	0xbd960000	-0.07324219
187	0x00000000	0.0
188	0xbd600000	-0.0546875
189	0x3db20000	0.08691406
190	0xbdbe0000	-0.09277344
191	0xbdb40000	-0.087890625
192	0xbd680000	-0.056640625
193	0x3dee0000	0.11621094
194	0x3df00000	0.1171875
195	0xbda80000	-0.08203125
196	0x3cd00000	0.025390625
197	0xbd500000	-0.05078125
198	0x3de20000	0.11035156
199	0x3dc80000	0.09765625
200	0xbd580000	-0.052734375
201	0x3dc00000	0.09375
202	0x3d1c0000	0.038085938
203	0xbdda0000	-0.10644531
204	0x3c900000	0.017578125
205	0xbd920000	-0.07128906
206	0x3d480000	0.048828125
207	0x3cd80000	0.026367188
208	0xbda40000	-0.080078125
209	0x3d820000	0.06347656
210	0xbd4c0000	-0.049804688
211	0xbdca0000	-0.09863281
212	0x3da60000	0.08105469
213	0xbd980000	-0.07421875
214	0x3cd80000	0.026367188
215	0x3d9c0000	0.076171875
216	0xbca00000	-0.01953125
217	0x3d900000	0.0703125
218	0x3cf00000	0.029296875
219	0xbc500000	-0.0126953125
220	0x3d040000	0.032226562
221	0x3d200000	0.0390625
222	0x3cd00000	0.025390625
223	0xbbe00000	-0.0068359375
224	0xbdee0000	-0.11621094
225	0xbc980000	-0.018554688
226	0xbd700000	-0.05859375
227	0x3d100000	0.03515625
228	0x3d540000	0.051757812
229	0xbcf80000	-0.030273438
230	0x3dc20000	0.09472656
231	0x3d5c0000	0.053710938
232	0xbcb80000	-0.022460938
233	0x3de00000	0.109375
234	0x3dc00000	0.09375
235	0xbc400000	-0.01171875
236	0xbdc00000	-0.09375
237	0x3db00000	0.0859375
238	0x3d600000	0.0546875
239	0x3dc60000	0.09667969
240	0xbdde0000	-0.10839844
241	0xbc500000	-0.0126953125
242	0x3d9e0000	0.07714844
243	0xbd340000	-0.043945312
244	0xbd400000	-0.046875
245	0x3de40000	0.111328125
246	0x3dd20000	0.10253906
247	0x3d500000	0.05078125
248	0xbd3c0000	-0.045898438
249	0xbc980000	-0.018554688
250	0x3d540000	0.051757812
251	0xbdd20000	-0.10253906
252	0xbc900000	-0.017578125
253	0xbd300000	-0.04296875
254	0xbd140000	-0.036132812
255	0x3d480000	0.048828125

module_5.bias f4 [14]
0	0x3d100000	0.03515625
1	0xbda00000	-0.078125
2	0xbdee0000	-0.11621094
3	0xbd900000	-0.0703125
4	0x3df00000	0.1171875
5	0x3d180000	0.037109375
6	0x3d080000	0.033203125
7	0x3cf80000	0.030273438
8	0xbc200000	-0.009765625
9	0xbdd20000	-0.10253906
10	0x3d840000	0.064453125
11	0x3dda0000	0.10644531
12	0x3d900000	0.0703125
13	0xbdd80000	-0.10546875

module_7.weight f4 [14]
0	0x40300000	2.75
1	0x40820000	4.0625
2	0x40080000	2.125
3	0x3fe80000	1.8125
4	0x402c0000	2.6875
5	0x40600000	3.5
6	0x40240000	2.5625
7	0x400c0000	2.1875
8	0x401c0000	2.4375
9	0x40240000	2.5625
10	0x40440000	3.0625
11	0x3ff00000	1.875
12	0x40080000	2.125
13	0x40680000	3.625

module_7.bias f4 [14]
0	0xbf200000	-0.625
1	0xbf0a0000	-0.5390625
2	0xbedc0000	-0.4296875
3	0xbed40000	-0.4140625
4	0xbf640000	-0.890625
5	0xbf320000	-0.6953125
6	0xbf2e0000	-0.6796875
7	0xbec40000	-0.3828125
8	0xbef80000	-0.484375
9	0xbf440000	-0.765625
10	0xbf240000	-0.640625
11	0xbf080000	-0.53125
12	0xbf160000	-0.5859375
13	0xbee00000	-0.4375

module_7.running_mean f4 [14]
0	0x00000000	0.0
1	0x00000000	0.0
2	0x00000000	0.0
3	0x00000000	0.0
4	0x00000000	0.0
5	0x00000000	0.0
6	0x00000000	0.0
7	0x00000000	0.0
8	0x00000000	0.0
9	0x00000000	0.0
10	0x00000000	0.0
11	0x00000000	0.0
12	0x00000000	0.0
13	0x00000000	0.0

module_7.running_var f4 [14]
0	0x3f800000	1.0
1	0x3f800000	1.0
2	0x3f800000	1.0
3	0x3f800000	1.0
4	0x3f800000	1.0
5	0x3f800000	1.0
6	0x3f800000	1.0
7	0x3f800000	1.0
8	0x3f800000	1.0
9	0x3f800000	1.0
10	0x3f800000	1.0
11	0x3f800000	1.0
12	0x3f800000	1.0
13	0x3f800000	1.0

module_9.weight f4 [44, 14, 1, 1]
0	0x3e700000	0.234375
1	0xbe200000	-0.15625
2	0xbde80000	-0.11328125
3	0xbd980000	-0.07421875
4	0xbdc00000	-0.09375
5	0x3e240000	0.16015625
6	0x3c400000	0.01171875
7	0x3df80000	0.12109375
8	0xbde00000	-0.109375
9	0xbe480000	-0.1953125
10	0x00000000	0.0
11	0xbe740000	-0.23828125
12	0xbdf00000	-0.1171875
13	0x3e700000	0.234375
14	0xbe860000	-0.26171875
15	0x3db80000	0.08984375
16	0x3d100000	0.03515625
17	0xbe6c0000	-0.23046875
18	0xbe780000	-0.2421875
19	0xbc000000	-0.0078125
20	0x3d500000	0.05078125
21	0x3e640000	0.22265625
22	0xbe740000	-0.23828125
23	0x3e740000	0.23828125
24	0x3e6c0000	0.23046875
25	0x3e680000	0.2265625
26	0x3df00000	0.1171875
27	0xbe3c0000	-0.18359375
28	0x3c800000	0.015625
29	0x3e880000	0.265625
30	0xbe860000	-0.26171875
31	0x3e300000	0.171875
32	0xbe240000	-0.16015625
33	0x3e040000	0.12890625
34	0x3df80000	0.12109375
35	0xbe820000	-0.25390625
36	0x3d700000	0.05859375
37	0x3de80000	0.11328125
38	0x3b800000	0.00390625
39	0xbe680000	-0.2265625
40	0x3e400000	0.1875
41	0xbe860000	-0.26171875
42	0x3ca00000	0.01953125
43	0xbe740000	-0.23828125
44	0x3e3c0000	0.18359375
45	0xbe480000	-0.1953125
46	0x3de00000	0.109375
47	0xbe2c0000	-0.16796875
48	0x3e080000	0.1328125
49	0xbd600000	-0.0546875
50	0x00000000	0.0
51	0x3dd00000	0.1015625
52	0xbe820000	-0.25390625
53	0xbe840000	-0.2578125
54	0x3e280000	0.1640625
55	0xbe500000	-0.203125
56	0x3e480000	0.1953125
57	0xbe3c0000	-0.18359375
58	0x3e500000	0.203125
59	0xbe860000	-0.26171875
60	0x3e820000	0.25390625
61	0xbd100000	-0.03515625
62	0x3e380000	0.1796875
63	0x3d700000	0.05859375
64	0x3e040000	0.12890625
65	0x3de00000	0.109375
66	0x3e1c0000	0.15234375
67	0xbd500000	-0.05078125
68	0xbe340000	-0.17578125
69	0x3e6c0000	0.23046875
70	0xbda80000	-0.08203125
71	0xbe440000	-0.19140625
72	0x3e5c0000	0.21484375
73	0x3e100000	0.140625
74	0x3e100000	0.140625
75	0xbe800000	-0.25
76	0x3e3c0000	0.18359375
77	0xbe380000	-0.1796875
78	0x3e800000	0.25
79	0xbd600000	-0.0546875
80	0x3e820000	0.25390625
81	0x3e7c0000	0.24609375
82	0xbd700000	-0.05859375
83	0x3c000000	0.0078125
84	0x3d500000	0.05078125
85	0xbde00000	-0.109375
86	0x3e880000	0.265625
87	0xbd600000	-0.0546875
88	0x3e3c0000	0.18359375
89	0x3e080000	0.1328125
90	0x3e340000	0.17578125
91	0x3da80000	0.08203125
92	0xbe2c0000	-0.16796875
93	0xbe740000	-0.23828125
94	0xbc000000	-0.0078125
95	0x3e480000	0.1953125
96	0x3e740000	0.23828125
97	0x3d800000	0.0625
98	0xbde00000	-0.109375
99	0xbe040000	-0.12890625
100	0xbd100000	-0.03515625
101	0x3e200000	0.15625
102	0x3e380000	0.1796875
103	0x3d800000	0.0625
104	0x3da80000	0.08203125
105	0xbdb80000	-0.08984375
106	0x3e140000	0.14453125
107	0xbe5c0000	-0.21484375
108	0x3dd00000	0.1015625
109	0xbd880000	-0.06640625
110	0xbe140000	-0.14453125
111	0xbe600000	-0.21875
112	0x3d100000	0.03515625
113	0xbdc80000	-0.09765625
114	0xbe6c0000	-0.23046875
115	0x3e7c0000	0.24609375
116	0xbe600000	-0.21875
117	0xbe2c0000	-0.16796875
118	0x3dd80000	0.10546875
119	0xbe6c0000	-0.23046875
120	0xbe700000	-0.234375
121	0x3de00000	0.109375
122	0xbc800000	-0.015625
123	0xbe860000	-0.26171875
124	0xbd400000	-0.046875
125	0x3dd00000	0.1015625
126	0x3d800000	0.0625
127	0x3e840000	0.2578125
128	0xbdf80000	-0.12109375
129	0x3e820000	0.25390625
130	0x3e2c0000	0.16796875
131	0xbe000000	-0.125
132	0xbe440000	-0.19140625
133	0xbdc00000	-0.09375
134	0x3dc00000	0.09375
135	0xbe180000	-0.1484375
136	0x3e600000	0.21875
137	0x3d800000	0.0625
138	0x3d500000	0.05078125
139	0xbd900000	-0.0703125
140	0x3e840000	0.2578125
141	0x3d100000	0.03515625
142	0xbe300000	-0.171875
143	0xbe000000	-0.125
144	0xbe380000	-0.1796875
145	0xbd300000	-0.04296875
146	0xbe400000	-0.1875
147	0xbe180000	-0.1484375
148	0x3dd00000	0.1015625
149	0x3db00000	0.0859375
150	0xbe180000	-0.1484375
151	0x3df80000	0.12109375
152	0xbd800000	-0.0625
153	0x3b800000	0.00390625
154	0x3d600000	0.0546875
155	0xbd300000	-0.04296875
156	0x3d600000	0.0546875
157	0x3d980000	0.07421875
158	0xbe480000	-0.1953125
159	0xbe400000	-0.1875
160	0xbe1c0000	-0.15234375
161	0x3df80000	0.12109375
162	0x3c400000	0.01171875
163	0xbd700000	-0.05859375
164	0xbe440000	-0.19140625
165	0x3e280000	0.1640625
166	0xbd400000	-0.046875
167	0x3d900000	0.0703125
168	0x3e800000	0.25
169	0xbd100000	-0.03515625
170	0xbdc00000	-0.09375
171	0x3e500000	0.203125
172	0x3e540000	0.20703125
173	0xbe700000	-0.234375
174	0x3d900000	0.0703125
175	0xbe780000	-0.2421875
176	0x3e300000	0.171875
177	0xbe4c0000	-0.19921875
178	0xbe860000	-0.26171875
179	0xbde00000	-0.109375
180	0xbc000000	-0.0078125
181	0x3e680000	0.2265625
182	0xbe200000	-0.15625
183	0x3e580000	0.2109375
184	0x3c800000	0.015625
185	0xbd100000	-0.03515625
186	0x3de00000	0.109375
187	0x3e400000	0.1875
188	0xbe1c0000	-0.15234375
189	0xbd000000	-0.03125
190	0xbdb80000	-0.08984375
191	0x3dd00000	0.1015625
192	0x3b800000	0.00390625
193	0xbde80000	-0.11328125
194	0xbd700000	-0.05859375
195	0xbe700000	-0.234375
196	0x3e640000	0.22265625
197	0x3e6c0000	0.23046875
198	0x3dc80000	0.09765625
199	0xbe100000	-0.140625
200	0x3db80000	0.08984375
201	0xbc800000	-0.015625
202	0xbe640000	-0.22265625
203	0x3e180000	0.1484375
204	0x3da00000	0.078125
205	0x3d700000	0.05859375
206	0xbe280000	-0.1640625
207	0x3e840000	0.2578125
208	0x3df80000	0.12109375
209	0xbcc00000	-0.0234375
210	0xbe5c0000	-0.21484375
211	0xbe600000	-0.21875
212	0x3e800000	0.25
213	0x3e1c0000	0.15234375
214	0xbe700000	-0.234375
215	0x3db80000	0.08984375
216	0x3e740000	0.23828125
217	0x3d200000	0.0390625
218	0xbe480000	-0.1953125
219	0xbe0c0000	-0.13671875
220	0x3cc00000	0.0234375
221	0xbe240000	-0.16015625
222	0x3e600000	0.21875
223	0x3e140000	0.14453125
224	0x3e100000	0.140625
225	0xbe820000	-0.25390625
226	0x3db80000	0.08984375
227	0x3d400000	0.046875
228	0xbe580000	-0.2109375
229	0x3c400000	0.01171875
230	0x3e840000	0.2578125
231	0xbe540000	-0.20703125
232	0xbe200000	-0.15625
233	0xbe780000	-0.2421875
234	0x3e740000	0.23828125
235	0x3c800000	0.015625
236	0xbc400000	-0.01171875
237	0x3e280000	0.1640625
238	0xbd600000	-0.0546875
239	0x3e4c0000	0.19921875
240	0xbdc00000	-0.09375
241	0x3e5c0000	0.21484375
242	0xbe580000	-0.2109375
243	0x3e600000	0.21875
244	0x3e500000	0.203125
245	0x3e780000	0.2421875
246	0x3b800000	0.00390625
247	0x3cc00000	0.0234375
248	0xbda00000	-0.078125
249	0xbdc80000	-0.09765625
250	0x3d600000	0.0546875
251	0x3dc00000	0.09375
252	0x3d800000	0.0625
253	0xbdf00000	-0.1171875
254	0x3e7c0000	0.24609375
255	0x3e200000	0.15625

module_9.bias f4 [44]
0	0x3c800000	0.015625
1	0xbe2c0000	-0.16796875
2	0xbc800000	-0.015625
3	0xbe7c0000	-0.24609375
4	0xbe200000	-0.15625
5	0x3e440000	0.19140625
6	0xbdc80000	-0.09765625
7	0x3e200000	0.15625
8	0xbe4c0000	-0.19921875
9	0xbda00000	-0.078125
10	0x3d300000	0.04296875
11	0xbe4c0000	-0.19921875
12	0x3e640000	0.22265625
13	0x3da80000	0.08203125
14	0xbd400000	-0.046875
15	0x3d000000	0.03125
16	0x3e880000	0.265625
17	0x3df80000	0.12109375
18	0xbe580000	-0.2109375
19	0x3d980000	0.07421875
20	0x3c000000	0.0078125
21	0x3e340000	0.17578125
22	0x3e380000	0.1796875
23	0x3db80000	0.08984375
24	0xbe700000	-0.234375
25	0xbe480000	-0.1953125
26	0xbd500000	-0.05078125
27	0xbe200000	-0.15625
28	0x3e480000	0.1953125
29	0xbe1c0000	-0.15234375
30	0xbe860000	-0.26171875
31	0x3e480000	0.1953125
32	0xbe2c0000	-0.16796875
33	0x3df00000	0.1171875
34	0xbe600000	-0.21875
35	0xbe640000	-0.22265625
36	0x3d900000	0.0703125
37	0xbe860000	-0.26171875
38	0x3e2c0000	0.16796875
39	0xbd700000	-0.05859375
40	0xbdf00000	-0.1171875
41	0x3b800000	0.00390625
42	0xbe860000	-0.26171875
43	0xbe5c0000	-0.21484375

module_11.weight f4 [44, 44, 3, 3]
0	0xbce40000	-0.027832031
1	0xbc300000	-0.0107421875
2	0x3cd80000	0.026367188
3	0xbcac0000	-0.020996094
4	0xbba00000	-0.0048828125
5	0xbbf00000	-0.0073242188
6	0xbac00000	-0.0014648438
7	0xbca00000	-0.01953125
8	0x3d240000	0.040039062
9	0xbcb40000	-0.021972656
10	0xbd480000	-0.048828125
11	0xbc400000	-0.01171875
12	0x3c180000	0.009277344
13	0x3d240000	0.040039062
14	0xbbd00000	-0.0063476562
15	0x3ce80000	0.028320312
16	0x3cb00000	0.021484375
17	0x3d4c0000	0.049804688
18	0x3c940000	0.018066406
19	0x3ce80000	0.028320312
20	0xbc500000	-0.0126953125
21	0x3c8c0000	0.017089844
22	0x3b400000	0.0029296875
23	0x3cf80000	0.030273438
24	0xbc800000	-0.015625
25	0x3d2c0000	0.041992188
26	0x3d5c0000	0.053710938
27	0x3d2a0000	0.041503906
28	0x3cf00000	0.029296875
29	0x3ba00000	0.0048828125
30	0x3c8c0000	0.017089844
31	0x3d4c0000	0.049804688
32	0x3b800000	0.00390625
33	0xbcb40000	-0.021972656
34	0x3d000000	0.03125
35	0x3c800000	0.015625
36	0xbbe00000	-0.0068359375
37	0x3c900000	0.017578125
38	0x3d340000	0.043945312
39	0xbcf40000	-0.029785156
40	0xbcec0000	-0.028808594
41	0x3cb40000	0.021972656
42	0xbd160000	-0.036621094
43	0xbd080000	-0.033203125
44	0xbcb80000	-0.022460938
45	0x3a800000	0.0009765625
46	0x3d4c0000	0.049804688
47	0xbac00000	-0.0014648438
48	0x3c780000	0.015136719
49	0xbb800000	-0.00390625
50	0x3d300000	0.04296875
51	0xbb900000	-0.0043945312
52	0xbd200000	-0.0390625
53	0x3c900000	0.017578125
54	0x3be00000	0.0068359375
55	0x3c600000	0.013671875
56	0x3d500000	0.05078125
57	0xbb800000	-0.00390625
58	0x3c780000	0.015136719
59	0xbc9c0000	-0.019042969
60	0xbc800000	-0.015625
61	0x3d300000	0.04296875
62	0x3d2a0000	0.041503906
63	0x3c080000	0.008300781
64	0xbd000000	-0.03125
65	0xbc700000	-0.0146484375
66	0xbd540000	-0.051757812
67	0x3d2e0000	0.04248047
68	0xbb000000	-0.001953125
69	0xbcd40000	-0.025878906
70	0xbc940000	-0.018066406
71	0xbc400000	-0.01171875
72	0xbbf00000	-0.0073242188
73	0xbd160000	-0.036621094
74	0xbccc0000	-0.024902344
75	0xbc000000	-0.0078125
76	0x3d160000	0.036621094
77	0xbd080000	-0.033203125
78	0xbcbc0000	-0.022949219
79	0xbc980000	-0.018554688
80	0xbcb00000	-0.021484375
81	0x3b000000	0.001953125
82	0x3cd80000	0.026367188
83	0x3d2a0000	0.041503906
84	0xbd240000	-0.040039062
85	0x3d280000	0.041015625
86	0xbd0e0000	-0.03466797
87	0xbd1e0000	-0.03857422
88	0x3bf00000	0.0073242188
89	0x3ce40000	0.027832031
90	0x3c200000	0.009765625
91	0x3a000000	0.00048828125
92	0xbd080000	-0.033203125
93	0x3ce40000	0.027832031
94	0xbd020000	-0.03173828
95	0xbd0c0000	-0.034179688
96	0xbd260000	-0.040527344
97	0x3d140000	0.036132812
98	0x3c9c0000	0.019042969
99	0x3cec0000	0.028808594
100	0x3a800000	0.0009765625
101	0xbd1e0000	-0.03857422
102	0xbd340000	-0.043945312
103	0x3cf40000	0.029785156
104	0x3b000000	0.001953125
105	0x3c580000	0.013183594
106	0x3d240000	0.040039062
107	0xbcf80000	-0.030273438
108	0x3bf00000	0.0073242188
109	0x3d640000	0.055664062
110	0xbd000000	-0.03125
111	0x3b400000	0.0029296875
112	0x3cd80000	0.026367188
113	0xbcd00000	-0.025390625
114	0x3ca00000	0.01953125
115	0xbd2e0000	-0.04248047
116	0x3d3c0000	0.045898438
117	0x3cb80000	0.022460938
118	0x3c980000	0.018554688
119	0x3d000000	0.03125
120	0x3d400000	0.046875
121	0xbd3a0000	-0.045410156
122	0xbd140000	-0.036132812
123	0x3c980000	0.018554688
124	0xbc8c0000	-0.017089844
125	0xbc900000	-0.017578125
126	0xbccc0000	-0.024902344
127	0xbc500000	-0.0126953125
128	0x3d1e0000	0.03857422
129	0xbc800000	-0.015625
130	0xbc700000	-0.0146484375
131	0xbd380000	-0.044921875
132	0xbc880000	-0.016601562
133	0x3c940000	0.018066406
134	0x3cf80000	0.030273438
135	0x3c080000	0.008300781
136	0x3d1e0000	0.03857422
137	0xbbb00000	-0.0053710938
138	0xbd340000	-0.043945312
139	0xbc780000	-0.015136719
140	0xbd460000	-0.048339844
141	0xbd300000	-0.04296875
142	0x3d040000	0.032226562
143	0xbd100000	-0.03515625
144	0x3cbc0000	0.022949219
145	0x3cc80000	0.024414062
146	0xbc800000	-0.015625
147	0xbd220000	-0.03955078
148	0xbd2e0000	-0.04248047
149	0xbb000000	-0.001953125
150	0x3cb40000	0.021972656
151	0xbcd40000	-0.025878906
152	0xba800000	-0.0009765625
153	0x3d2a0000	0.041503906
154	0xbd400000	-0.046875
155	0xbd440000	-0.047851562
156	0x3c9c0000	0.019042969
157	0x3c980000	0.018554688
158	0xbc840000	-0.016113281
159	0xbc800000	-0.015625
160	0xbd200000	-0.0390625
161	0x3bc00000	0.005859375
162	0xbc100000	-0.0087890625
163	0xbd040000	-0.032226562
164	0xbc600000	-0.013671875
165	0xbd180000	-0.037109375
166	0xbd260000	-0.040527344
167	0x3cc80000	0.024414062
168	0x3cbc0000	0.022949219
169	0x3cf00000	0.029296875
170	0x3c680000	0.014160156
171	0x3cf40000	0.029785156
172	0x3d200000	0.0390625
173	0xbc880000	-0.016601562
174	0xbbc00000	-0.005859375
175	0x3d260000	0.040527344
176	0x3d300000	0.04296875
177	0xbbc00000	-0.005859375
178	0xbd540000	-0.051757812
179	0x3b200000	0.0024414062
180	0x3d000000	0.03125
181	0x3c900000	0.017578125
182	0xbd080000	-0.033203125
183	0x3d2c0000	0.041992188
184	0xbd3a0000	-0.045410156
185	0x3c100000	0.0087890625
186	0x3c700000	0.0146484375
187	0xbc800000	-0.015625
188	0xbd380000	-0.044921875
189	0x3d400000	0.046875
190	0xbbf00000	-0.0073242188
191	0x3d200000	0.0390625
192	0x3d360000	0.044433594
193	0xba000000	-0.00048828125
194	0x3d080000	0.033203125
195	0x3d000000	0.03125
196	0xbb600000	-0.0034179688
197	0xbd2c0000	-0.041992188
198	0xbd160000	-0.036621094
199	0x3d2e0000	0.04248047
200	0xbd160000	-0.036621094
201	0xbd000000	-0.03125
202	0xbc000000	-0.0078125
203	0x3cac0000	0.020996094
204	0x3d500000	0.05078125
205	0x3c980000	0.018554688
206	0xbc480000	-0.012207031
207	0xbca80000	-0.020507812
208	0x3cb00000	0.021484375
209	0xbd380000	-0.044921875
210	0x3cf40000	0.029785156
211	0x3ccc0000	0.024902344
212	0xbcc00000	-0.0234375
213	0x3d360000	0.044433594
214	0xbcd40000	-0.025878906
215	0xbc000000	-0.0078125
216	0xba800000	-0.0009765625
217	0x3d0a0000	0.033691406
218	0xbd160000	-0.036621094
219	0x3d280000	0.041015625
220	0xbb400000	-0.0029296875
221	0xbc480000	-0.012207031
222	0x3c8c0000	0.017089844
223	0x3d2e0000	0.04248047
224	0xbcc80000	-0.024414062
225	0xbcf00000	-0.029296875
226	0xbd020000	-0.03173828
227	0xbd4a0000	-0.049316406
228	0xbcc80000	-0.024414062
229	0xbcb40000	-0.021972656
230	0xbcbc0000	-0.022949219
231	0xbd5e0000	-0.05419922
232	0xbcbc0000	-0.022949219
233	0xbbb00000	-0.0053710938
234	0xbd140000	-0.036132812
235	0x00000000	0.0
236	0xbd500000	-0.05078125
237	0x3ce80000	0.028320312
238	0xbc600000	-0.013671875
239	0x3d200000	0.0390625
240	0x3c940000	0.018066406
241	0xbca00000	-0.01953125
242	0xbb400000	-0.0029296875
243	0x3d540000	0.051757812
244	0xbb200000	-0.0024414062
245	0x3ce00000	0.02734375
246	0xbd300000	-0.04296875
247	0xbbe00000	-0.0068359375
248	0xbc700000	-0.0146484375
249	0xbb800000	-0.00390625
250	0xbb400000	-0.0029296875
251	0x3d100000	0.03515625
252	0xbc580000	-0.013183594
253	0xbd2e0000	-0.04248047
254	0xbc840000	-0.016113281
255	0xbce00000	-0.02734375

module_11.bias f4 [44]
0	0x3d0a0000	0.033691406
1	0x00000000	0.0
2	0x3cc00000	0.0234375
3	0x3a000000	0.00048828125
4	0xbcbc0000	-0.022949219
5	0x3a800000	0.0009765625
6	0xbd180000	-0.037109375
7	0x3d180000	0.037109375
8	0xbd460000	-0.048339844
9	0xbc500000	-0.0126953125
10	0x3d1e0000	0.03857422
11	0xbd3c0000	-0.045898438
12	0xbcb00000	-0.021484375
13	0x3d060000	0.032714844
14	0x3c800000	0.015625
15	0xbc800000	-0.015625
16	0xbd5a0000	-0.053222656
17	0x3d560000	0.052246094
18	0xbd1e0000	-0.03857422
19	0xbca80000	-0.020507812
20	0xbd360000	-0.044433594
21	0xbcd40000	-0.025878906
22	0xbce80000	-0.028320312
23	0x3c8c0000	0.017089844
24	0xbc000000	-0.0078125
25	0x3d1e0000	0.03857422
26	0xbc900000	-0.017578125
27	0x3b000000	0.001953125
28	0xbb600000	-0.0034179688
29	0xbd2c0000	-0.041992188
30	0x3d3c0000	0.045898438
31	0xbd260000	-0.040527344
32	0x3ca80000	0.020507812
33	0xbb900000	-0.0043945312
34	0x3c380000	0.011230469
35	0xbc940000	-0.018066406
36	0xbd0e0000	-0.03466797
37	0xbcd40000	-0.025878906
38	0x3c200000	0.009765625
39	0xbc940000	-0.018066406
40	0x3c840000	0.016113281
41	0xbccc0000	-0.024902344
42	0x3c100000	0.0087890625
43	0xbc900000	-0.017578125

module_13.weight f4 [44]
0	0x41500000	13.0
1	0x40500000	3.25
2	0x40700000	3.75
3	0x40a00000	5.0
4	0x41580000	13.5
5	0x40400000	3.0
6	0x41580000	13.5
7	0x40700000	3.75
8	0x419e0000	19.75
9	0x40e80000	7.25
10	0x40600000	3.5
11	0x41840000	16.5
12	0x41180000	9.5
13	0x40900000	4.5
14	0x412c0000	10.75
15	0x40500000	3.25
16	0x41840000	16.5
17	0x40e00000	7.0
18	0x40a00000	5.0
19	0x40a80000	5.25
20	0x40d00000	6.5
21	0x414c0000	12.75
22	0x40900000	4.5
23	0x40d00000	6.5
24	0x40d80000	6.75
25	0x40600000	3.5
26	0x41340000	11.25
27	0x40000000	2.0
28	0x40700000	3.75
29	0x41800000	16.0
30	0x40500000	3.25
31	0x40a80000	5.25
32	0x40000000	2.0
33	0x40c00000	6.0
34	0x40800000	4.0
35	0x41240000	10.25
36	0x414c0000	12.75
37	0x40880000	4.25
38	0x40f80000	7.75
39	0x40700000	3.75
40	0x41280000	10.5
41	0x411c0000	9.75
42	0x40800000	4.0
43	0x40a00000	5.0

module_13.bias f4 [44]
0	0xbf080000	-0.53125
1	0xbfaa0000	-1.328125
2	0xbf980000	-1.1875
3	0xbed00000	-0.40625
4	0xbe200000	-0.15625
5	0xbf100000	-0.5625
6	0xbe200000	-0.15625
7	0xbf340000	-0.703125
8	0xbde00000	-0.109375
9	0xbee80000	-0.453125
10	0xbf440000	-0.765625
11	0xbf480000	-0.78125
12	0xbf000000	-0.5
13	0xbf440000	-0.765625
14	0xbee00000	-0.4375
15	0xbf000000	-0.5
16	0xbf000000	-0.5
17	0xbf5c0000	-0.859375
18	0xbf280000	-0.65625
19	0xbf180000	-0.59375
20	0xbf3c0000	-0.734375
21	0xbe000000	-0.125
22	0xbf7c0000	-0.984375
23	0xbeb00000	-0.34375
24	0xbe900000	-0.28125
25	0xbf140000	-0.578125
26	0xbeb80000	-0.359375
27	0xbf440000	-0.765625
28	0xbf400000	-0.75
29	0xbdc00000	-0.09375
30	0xbed80000	-0.421875
31	0xbe900000	-0.28125
32	0xbf680000	-0.90625
33	0xbf340000	-0.703125
34	0xbf100000	-0.5625
35	0xbee00000	-0.4375
36	0xbe600000	-0.21875
37	0xbed80000	-0.421875
38	0xbf340000	-0.703125
39	0xbf2c0000	-0.671875
40	0xbec80000	-0.390625
41	0xbf2c0000	-0.671875
42	0xbf740000	-0.953125
43	0xbf040000	-0.515625

module_13.running_mean f4 [44]
0	0x00000000	0.0
1	0x00000000	0.0
2	0x00000000	0.0
3	0x00000000	0.0
4	0x00000000	0.0
5	0x00000000	0.0
6	0x00000000	0.0
7	0x00000000	0.0
8	0x00000000	0.0
9	0x00000000	0.0
10	0x00000000	0.0
11	0x00000000	0.0
12	0x00000000	0.0
13	0x00000000	0.0
14	0x00000000	0.0
15	0x00000000	0.0
16	0x00000000	0.0
17	0x00000000	0.0
18	0x00000000	0.0
19	0x00000000	0.0
20	0x00000000	0.0
21	0x00000000	0.0
22	0x00000000	0.0
23	0x00000000	0.0
24	0x00000000	0.0
25	0x00000000	0.0
26	0x00000000	0.0
27	0x00000000	0.0
28	0x00000000	0.0
29	0x00000000	0.0
30	0x00000000	0.0
31	0x00000000	0.0
32	0x00000000	0.0
33	0x00000000	0.0
34	0x00000000	0.0
35	0x00000000	0.0
36	0x00000000	0.0
37	0x00000000	0.0
38	0x00000000	0.0
39	0x00000000	0.0
40	0x00000000	0.0
41	0x00000000	0.0
42	0x00000000	0.0
43	0x00000000	0.0

module_13.running_var f4 [44]
0	0x3f800000	1.0
1	0x3f800000	1.0
2	0x3f800000	1.0
3	0x3f800000	1.0
4	0x3f800000	1.0
5	0x3f800000	1.0
6	0x3f800000	1.0
7	0x3f800000	1.0
8	0x3f800000	1.0
9	0x3f800000	1.0
10	0x3f800000	1.0
11	0x3f800000	1.0
12	0x3f800000	1.0
13	0x3f800000	1.0
14	0x3f800000	1.0
15	0x3f800000	1.0
16	0x3f800000	1.0
17	0x3f800000	1.0
18	0x3f800000	1.0
19	0x3f800000	1.0
20	0x3f800000	1.0
21	0x3f800000	1.0
22	0x3f800000	1.0
23	0x3f800000	1.0
24	0x3f800000	1.0
25	0x3f800000	1.0
26	0x3f800000	1.0
27	0x3f800000	1.0
28	0x3f800000	1.0
29	0x3f800000	1.0
30	0x3f800000	1.0
31	0x3f800000	1.0
32	0x3f800000	1.0
33	0x3f800000	1.0
34	0x3f800000	1.0
35	0x3f800000	1.0
36	0x3f800000	1.0
37	0x3f800000	1.0
38	0x3f800000	1.0
39	0x3f800000	1.0
40	0x3f800000	1.0
41	0x3f800000	1.0
42	0x3f800000	1.0
43	0x3f800000	1.0

module_15.weight f4 [20, 44, 1, 1]
0	0xbde80000	-0.11328125
1	0x3dd80000	0.10546875
2	0xbdec0000	-0.115234375
3	0xbd000000	-0.03125
4	0x3de00000	0.109375
5	0x3e120000	0.14257812
6	0x3d580000	0.052734375
7	0x3df40000	0.119140625
8	0xbd200000	-0.0390625
9	0xbd280000	-0.041015625
10	0xbdc00000	-0.09375
11	0x3d600000	0.0546875
12	0xbde40000	-0.111328125
13	0x3d000000	0.03125
14	0xbcf00000	-0.029296875
15	0xbe060000	-0.13085938
16	0x3e0a0000	0.13476562
17	0x3e0c0000	0.13671875
18	0x3df00000	0.1171875
19	0x3c800000	0.015625
20	0x3cb00000	0.021484375
21	0xbe180000	-0.1484375
22	0xbd700000	-0.05859375
23	0x3d300000	0.04296875
24	0xbdac0000	-0.083984375
25	0xbdc40000	-0.095703125
26	0x3df00000	0.1171875
27	0xbd900000	-0.0703125
28	0xbdfc0000	-0.123046875
29	0xbe080000	-0.1328125
30	0x3c000000	0.0078125
31	0xbcb00000	-0.021484375
32	0x3d940000	0.072265625
33	0xbe180000	-0.1484375
34	0xbe160000	-0.14648438
35	0x3e000000	0.125
36	0x3df40000	0.119140625
37	0xbe0a0000	-0.13476562
38	0x3d080000	0.033203125
39	0xbdb80000	-0.08984375
40	0x3d780000	0.060546875
41	0xbdec0000	-0.115234375
42	0x3cb00000	0.021484375
43	0xbe1a0000	-0.15039062
44	0x3c600000	0.013671875
45	0xbcd00000	-0.025390625
46	0xbe0a0000	-0.13476562
47	0x3e120000	0.14257812
48	0xbcf00000	-0.029296875
49	0xbdc40000	-0.095703125
50	0x3b800000	0.00390625
51	0xbc400000	-0.01171875
52	0x3b000000	0.001953125
53	0xbdd00000	-0.1015625
54	0xbd000000	-0.03125
55	0x3d900000	0.0703125
56	0xbd500000	-0.05078125
57	0x3cb00000	0.021484375
58	0xbd000000	-0.03125
59	0x3d300000	0.04296875
60	0x3d500000	0.05078125
61	0x3d500000	0.05078125
62	0x3df80000	0.12109375
63	0xbdf40000	-0.119140625
64	0xbcc00000	-0.0234375
65	0x3d880000	0.06640625
66	0x3bc00000	0.005859375
67	0x3b800000	0.00390625
68	0x3d480000	0.048828125
69	0x3d8c0000	0.068359375
70	0xbe120000	-0.14257812
71	0x3d900000	0.0703125
72	0x3dc00000	0.09375
73	0xbc900000	-0.017578125
74	0xbd280000	-0.041015625
75	0xbc400000	-0.01171875
76	0xbd880000	-0.06640625
77	0x3d080000	0.033203125
78	0xbd300000	-0.04296875
79	0xbc200000	-0.009765625
80	0x3e140000	0.14453125
81	0xbb800000	-0.00390625
82	0x3d940000	0.072265625
83	0xbc000000	-0.0078125
84	0x3d300000	0.04296875
85	0xbdb40000	-0.087890625
86	0xbd700000	-0.05859375
87	0xbd9c0000	-0.076171875
88	0xbddc0000	-0.107421875
89	0xbdac0000	-0.083984375
90	0xbe100000	-0.140625
91	0xbd900000	-0.0703125
92	0xbda80000	-0.08203125
93	0xbc200000	-0.009765625
94	0xbdf40000	-0.119140625
95	0xbdf00000	-0.1171875
96	0xbd200000	-0.0390625
97	0xbddc0000	-0.107421875
98	0x3e140000	0.14453125
99	0xbdf00000	-0.1171875
100	0xbdbc0000	-0.091796875
101	0x3de40000	0.111328125
102	0xbcb00000	-0.021484375
103	0x3d680000	0.056640625
104	0xbdd00000	-0.1015625
105	0xbdac0000	-0.083984375
106	0xbda80000	-0.08203125
107	0xbdc80000	-0.09765625
108	0xbbc00000	-0.005859375
109	0x3dd40000	0.103515625
110	0x3d580000	0.052734375
111	0x3db00000	0.0859375
112	0xbda40000	-0.080078125
113	0x3e020000	0.12695312
114	0x3dd80000	0.10546875
115	0x3dd40000	0.103515625
116	0x3d8c0000	0.068359375
117	0x3bc00000	0.005859375
118	0xbd200000	-0.0390625
119	0x3df80000	0.12109375
120	0xbe080000	-0.1328125
121	0xbdd40000	-0.103515625
122	0xbd8c0000	-0.068359375
123	0x3c400000	0.01171875
124	0xbc800000	-0.015625
125	0x3d700000	0.05859375
126	0xbcb00000	-0.021484375
127	0xbdf80000	-0.12109375
128	0x3dac0000	0.083984375
129	0xbd700000	-0.05859375
130	0x3e120000	0.14257812
131	0xbd480000	-0.048828125
132	0x3da80000	0.08203125
133	0x3c400000	0.01171875
134	0xbdfc0000	-0.123046875
135	0xbd680000	-0.056640625
136	0x3b800000	0.00390625
137	0x3d500000	0.05078125
138	0x3dac0000	0.083984375
139	0xbc000000	-0.0078125
140	0xbd100000	-0.03515625
141	0xbdac0000	-0.083984375
142	0xbdec0000	-0.115234375
143	0xbda00000	-0.078125
144	0xbde00000	-0.109375
145	0xbe060000	-0.13085938
146	0xbc600000	-0.013671875
147	0x3ce00000	0.02734375
148	0x3df80000	0.12109375
149	0x3d000000	0.03125
150	0x3dd40000	0.103515625
151	0xbdac0000	-0.083984375
152	0x3d380000	0.044921875
153	0xbe100000	-0.140625
154	0xbdf40000	-0.119140625
155	0xbd300000	-0.04296875
156	0xbd300000	-0.04296875
157	0x3d080000	0.033203125
158	0x3d780000	0.060546875
159	0xbda00000	-0.078125
160	0x3e180000	0.1484375
161	0x3ce00000	0.02734375
162	0xbde00000	-0.109375
163	0x3ddc0000	0.107421875
164	0x3cd00000	0.025390625
165	0x3e080000	0.1328125
166	0xbde00000	-0.109375
167	0xbde40000	-0.111328125
168	0x3db00000	0.0859375
169	0xbdcc0000	-0.099609375
170	0xbcb00000	-0.021484375
171	0xbd100000	-0.03515625
172	0xbc900000	-0.017578125
173	0xbde40000	-0.111328125
174	0xbde00000	-0.109375
175	0x3cf00000	0.029296875
176	0xbd9c0000	-0.076171875
177	0x3dbc0000	0.091796875
178	0x3df00000	0.1171875
179	0x00000000	0.0
180	0xbd700000	-0.05859375
181	0xbdc40000	-0.095703125
182	0x3ce00000	0.02734375
183	0xbd080000	-0.033203125
184	0x3d780000	0.060546875
185	0x3c400000	0.01171875
186	0xbda40000	-0.080078125
187	0xbe0a0000	-0.13476562
188	0x3dd40000	0.103515625
189	0x3ca00000	0.01953125
190	0xbe000000	-0.125
191	0x3d940000	0.072265625
192	0x3dc80000	0.09765625
193	0xbdb40000	-0.087890625
194	0xbca00000	-0.01953125
195	0xbdf80000	-0.12109375
196	0xbd580000	-0.052734375
197	0x3d9c0000	0.076171875
198	0xbda40000	-0.080078125
199	0xbd580000	-0.052734375
200	0xbd8c0000	-0.068359375
201	0x3d980000	0.07421875
202	0xbdc80000	-0.09765625
203	0xbb800000	-0.00390625
204	0xbe160000	-0.14648438
205	0x3c400000	0.01171875
206	0x3d380000	0.044921875
207	0xbdf00000	-0.1171875
208	0x3d180000	0.037109375
209	0x3e120000	0.14257812
210	0xbe0a0000	-0.13476562
211	0xbda80000	-0.08203125
212	0x3d840000	0.064453125
213	0xbd380000	-0.044921875
214	0xbe1a0000	-0.15039062
215	0x3d940000	0.072265625
216	0xbde40000	-0.111328125
217	0xbc900000	-0.017578125
218	0xbe000000	-0.125
219	0x3e0c0000	0.13671875
220	0xbdb00000	-0.0859375
221	0xbdcc0000	-0.099609375
222	0x3d980000	0.07421875
223	0x3d300000	0.04296875
224	0x3df80000	0.12109375
225	0x3d940000	0.072265625
226	0xbc900000	-0.017578125
227	0x3d280000	0.041015625
228	0xbdc80000	-0.09765625
229	0xbd300000	-0.04296875
230	0x3db00000	0.0859375
231	0x3cc00000	0.0234375
232	0x3cc00000	0.0234375
233	0x3dd40000	0.103515625
234	0x3e0a0000	0.13476562
235	0xbd680000	-0.056640625
236	0x3e000000	0.125
237	0xbd580000	-0.052734375
238	0xbe140000	-0.14453125
239	0x3cb00000	0.021484375
240	0x3e000000	0.125
241	0x3d880000	0.06640625
242	0xbda80000	-0.08203125
243	0xbdc80000	-0.09765625
244	0xbcd00000	-0.025390625
245	0xbd8c0000	-0.068359375
246	0x3e160000	0.14648438
247	0x3db80000	0.08984375
248	0xbd280000	-0.041015625
249	0xbce00000	-0.02734375
250	0xbcc00000	-0.0234375
251	0x3dc80000	0.09765625
252	0x3d8c0000	0.068359375
253	0xbe120000	-0.14257812
254	0x3c000000	0.0078125
255	0xbe020000	-0.12695312

module_15.bias f4 [20]
0	0x3db00000	0.0859375
1	0xbde40000	-0.111328125
2	0x3c900000	0.017578125
3	0xbd500000	-0.05078125
4	0xbdb00000	-0.0859375
5	0xbd300000	-0.04296875
6	0x3de00000	0.109375
7	0x3c000000	0.0078125
8	0x3d480000	0.048828125
9	0xbd980000	-0.07421875
10	0x3e120000	0.14257812
11	0x3c200000	0.009765625
12	0xbde80000	-0.11328125
13	0xbdf00000	-0.1171875
14	0xbe020000	-0.12695312
15	0x3d480000	0.048828125
16	0x3c400000	0.01171875
17	0xbcc00000	-0.0234375
18	0xbe0c0000	-0.13671875
19	0x3df80000	0.12109375

module_17.weight f4 [20, 20, 3, 3]
0	0x3b800000	0.00390625
1	0x3c700000	0.0146484375
2	0x3be00000	0.0068359375
3	0xbce00000	-0.02734375
4	0xbd740000	-0.059570312
5	0x3b800000	0.00390625
6	0x3d960000	0.07324219
7	0xbd400000	-0.046875
8	0xbd400000	-0.046875
9	0x3cb00000	0.021484375
10	0x3d700000	0.05859375
11	0x3d440000	0.047851562
12	0xbc300000	-0.0107421875
13	0xbc800000	-0.015625
14	0x3c880000	0.016601562
15	0xbd3c0000	-0.045898438
16	0xbd6c0000	-0.057617188
17	0xbd700000	-0.05859375
18	0xbd780000	-0.060546875
19	0x3d5c0000	0.053710938
20	0x3d8a0000	0.06738281
21	0x3d820000	0.06347656
22	0x3d0c0000	0.034179688
23	0xba800000	-0.0009765625
24	0xbcb80000	-0.022460938
25	0x3b400000	0.0029296875
26	0xbc600000	-0.013671875
27	0xbc100000	-0.0087890625
28	0xbd900000	-0.0703125
29	0x3d860000	0.06542969
30	0xbd7c0000	-0.061523438
31	0x3d780000	0.060546875
32	0x3d8c0000	0.068359375
33	0xbc900000	-0.017578125
34	0xbd640000	-0.055664062
35	0x3c100000	0.0087890625
36	0xbd860000	-0.06542969
37	0xbb000000	-0.001953125
38	0x3d860000	0.06542969
39	0xbd200000	-0.0390625
40	0xbd2c0000	-0.041992188
41	0xbd820000	-0.06347656
42	0x3d380000	0.044921875
43	0xbd4c0000	-0.049804688
44	0x3d8c0000	0.068359375
45	0x3d780000	0.060546875
46	0x3cc80000	0.024414062
47	0x3d140000	0.036132812
48	0xbd200000	-0.0390625
49	0xbd680000	-0.056640625
50	0xbd740000	-0.059570312
51	0x3cf80000	0.030273438
52	0xbd440000	-0.047851562
53	0x3c700000	0.0146484375
54	0x3c100000	0.0087890625
55	0xbd180000	-0.037109375
56	0x3d820000	0.06347656
57	0xbd040000	-0.032226562
58	0x3c500000	0.0126953125
59	0x3bc00000	0.005859375
60	0x3bc00000	0.005859375
61	0x3c300000	0.0107421875
62	0xbc880000	-0.016601562
63	0x3cf00000	0.029296875
64	0xbcc00000	-0.0234375
65	0xbd960000	-0.07324219
66	0x3cc80000	0.024414062
67	0x3d640000	0.055664062
68	0x3c500000	0.0126953125
69	0xbbc00000	-0.005859375
70	0xbd3c0000	-0.045898438
71	0x3bc00000	0.005859375
72	0x3cb80000	0.022460938
73	0xbc980000	-0.018554688
74	0x3ca80000	0.020507812
75	0x3cb80000	0.022460938
76	0xbd8a0000	-0.06738281
77	0xbca80000	-0.020507812
78	0xbd100000	-0.03515625
79	0x3d5c0000	0.053710938
80	0x3cf00000	0.029296875
81	0xbc500000	-0.0126953125
82	0x3cb80000	0.022460938
83	0xbd0c0000	-0.034179688
84	0xbc100000	-0.0087890625
85	0x3d500000	0.05078125
86	0x3d640000	0.055664062
87	0x3d400000	0.046875
88	0xbda60000	-0.08105469
89	0x3c700000	0.0146484375
90	0x3c600000	0.013671875
91	0x3d240000	0.040039062
92	0x3d840000	0.064453125
93	0xbd300000	-0.04296875
94	0xbd180000	-0.037109375
95	0x3c400000	0.01171875
96	0x3d880000	0.06640625
97	0xbc000000	-0.0078125
98	0xbd860000	-0.06542969
99	0xbd640000	-0.055664062
100	0x3d800000	0.0625
101	0xbd1c0000	-0.038085938
102	0xbd780000	-0.060546875
103	0x3b400000	0.0029296875
104	0x3cf80000	0.030273438
105	0x3cb00000	0.021484375
106	0x3d380000	0.044921875
107	0x3c900000	0.017578125
108	0x3c500000	0.0126953125
109	0x3cd00000	0.025390625
110	0x3d380000	0.044921875
111	0xbbc00000	-0.005859375
112	0x3cc00000	0.0234375
113	0x3c700000	0.0146484375
114	0xbc600000	-0.013671875
115	0xbd3c0000	-0.045898438
116	0x3d700000	0.05859375
117	0x3ca00000	0.01953125
118	0x3d180000	0.037109375
119	0xbc100000	-0.0087890625
120	0xbd9a0000	-0.07519531
121	0x3d6c0000	0.057617188
122	0xbcf80000	-0.030273438
123	0x3cb80000	0.022460938
124	0x3ca80000	0.020507812
125	0x3d680000	0.056640625
126	0x3d400000	0.046875
127	0xbd2c0000	-0.041992188
128	0x3cf80000	0.030273438
129	0xbd700000	-0.05859375
130	0x3c800000	0.015625
131	0x3cd80000	0.026367188
132	0x3b800000	0.00390625
133	0x3d000000	0.03125
134	0x3d1c0000	0.038085938
135	0xbc800000	-0.015625
136	0xbd640000	-0.055664062
137	0xbb800000	-0.00390625
138	0x3ca00000	0.01953125
139	0xbb000000	-0.001953125
140	0x3d680000	0.056640625
141	0x3b400000	0.0029296875
142	0xbce80000	-0.028320312
143	0xbd180000	-0.037109375
144	0x3d400000	0.046875
145	0xbd900000	-0.0703125
146	0x3d9a0000	0.07519531
147	0xbc000000	-0.0078125
148	0xbd400000	-0.046875
149	0xbc300000	-0.0107421875
150	0xbda00000	-0.078125
151	0xbd340000	-0.043945312
152	0x3d140000	0.036132812
153	0xbd240000	-0.040039062
154	0x3cf80000	0.030273438
155	0xbd920000	-0.07128906
156	0xbca00000	-0.01953125
157	0xbd740000	-0.059570312
158	0x3d000000	0.03125
159	0xbd340000	-0.043945312
160	0xbd4c0000	-0.049804688
161	0x3d200000	0.0390625
162	0xbd1c0000	-0.038085938
163	0xbd8a0000	-0.06738281
164	0x3d040000	0.032226562
165	0x3b800000	0.00390625
166	0x3d5c0000	0.053710938
167	0xbd140000	-0.036132812
168	0x3a800000	0.0009765625
169	0x3c800000	0.015625
170	0x3d240000	0.040039062
171	0x3ba00000	0.0048828125
172	0xbd820000	-0.06347656
173	0xbce80000	-0.028320312
174	0x3d240000	0.040039062
175	0x3d540000	0.051757812
176	0xbd0c0000	-0.034179688
177	0x3c880000	0.016601562
178	0x3d400000	0.046875
179	0x3d300000	0.04296875
180	0xbc900000	-0.017578125
181	0x3d380000	0.044921875
182	0xbd240000	-0.040039062
183	0xbd8a0000	-0.06738281
184	0x3d800000	0.0625
185	0x3d600000	0.0546875
186	0x3ba00000	0.0048828125
187	0x3cf80000	0.030273438
188	0x3d5c0000	0.053710938
189	0xbd040000	-0.032226562
190	0x3cd80000	0.026367188
191	0xbc880000	-0.016601562
192	0x3d240000	0.040039062
193	0x3b400000	0.0029296875
194	0x3d3c0000	0.045898438
195	0x3d7c0000	0.061523438
196	0x3d080000	0.033203125
197	0xbd280000	-0.041015625
198	0x3cc00000	0.0234375
199	0x3cd80000	0.026367188
200	0xbd800000	-0.0625
201	0x3d3c0000	0.045898438
202	0xbcb00000	-0.021484375
203	0x3cd00000	0.025390625
204	0xbd200000	-0.0390625
205	0xbd340000	-0.043945312
206	0x3d400000	0.046875
207	0x3d8e0000	0.06933594
208	0x3c980000	0.018554688
209	0x3d680000	0.056640625
210	0xbbe00000	-0.0068359375
211	0xbd8a0000	-0.06738281
212	0x3d040000	0.032226562
213	0xbc980000	-0.018554688
214	0xbc900000	-0.017578125
215	0x3c400000	0.01171875
216	0x3d740000	0.059570312
217	0xbc800000	-0.015625
218	0xbcb80000	-0.022460938
219	0x3c900000	0.017578125
220	0xbbe00000	-0.0068359375
221	0x3ce00000	0.02734375
222	0x3d780000	0.060546875
223	0xbd280000	-0.041015625
224	0x3cf80000	0.030273438
225	0x3d380000	0.044921875
226	0xbd6c0000	-0.057617188
227	0x3cd00000	0.025390625
228	0x3d780000	0.060546875
229	0x3d860000	0.06542969
230	0x3c100000	0.0087890625
231	0xbca80000	-0.020507812
232	0xbd280000	-0.041015625
233	0x3d740000	0.059570312
234	0xbb400000	-0.0029296875
235	0x3cc80000	0.024414062
236	0x3d860000	0.06542969
237	0xbd8e0000	-0.06933594
238	0x3d200000	0.0390625
239	0x3cc80000	0.024414062
240	0xbda00000	-0.078125
241	0x3d600000	0.0546875
242	0xbbe00000	-0.0068359375
243	0x3c400000	0.01171875
244	0xbd5c0000	-0.053710938
245	0xbd080000	-0.033203125
246	0xbc800000	-0.015625
247	0x3d340000	0.043945312
248	0xbcd00000	-0.025390625
249	0xbd440000	-0.047851562
250	0xbbc00000	-0.005859375
251	0xbd040000	-0.032226562
252	0xbce80000	-0.028320312
253	0x3daa0000	0.08300781
254	0x3c300000	0.0107421875
255	0xbbe00000	-0.0068359375

module_17.bias f4 [20]
0	0xbc800000	-0.015625
1	0x3ba00000	0.0048828125
2	0x3d5c0000	0.053710938
3	0xbc700000	-0.0146484375
4	0xbbc00000	-0.005859375
5	0xbd860000	-0.06542969
6	0xbbe00000	-0.0068359375
7	0x3d9e0000	0.07714844
8	0xbcd80000	-0.026367188
9	0x3cf00000	0.029296875
10	0x3d680000	0.056640625
11	0x3d640000	0.055664062
12	0x3d780000	0.060546875
13	0xba800000	-0.0009765625
14	0xbd800000	-0.0625
15	0xbd300000	-0.04296875
16	0x3d280000	0.041015625
17	0xbd040000	-0.032226562
18	0xbc200000	-0.009765625
19	0x3d400000	0.046875

module_19.weight f4 [20]
0	0x41480000	12.5
1	0x40c00000	6.0
2	0x40900000	4.5
3	0x40d00000	6.5
4	0x40800000	4.0
5	0x40d00000	6.5
6	0x41000000	8.0
7	0x40200000	2.5
8	0x40d00000	6.5
9	0x40c00000	6.0
10	0x41100000	9.0
11	0x40a00000	5.0
12	0x40a00000	5.0
13	0x423e0000	47.5
14	0x40f00000	7.5
15	0x419c0000	19.5
16	0x40800000	4.0
17	0x41300000	11.0
18	0x40b00000	5.5
19	0x40c00000	6.0

module_19.bias f4 [20]
0	0xbea80000	-0.328125
1	0xbf2c0000	-0.671875
2	0xbf1c0000	-0.609375
3	0xbeb00000	-0.34375
4	0xbf340000	-0.703125
5	0xbf240000	-0.640625
6	0xbf0c0000	-0.546875
7	0xbf740000	-0.953125
8	0xbf0c0000	-0.546875
9	0xbf000000	-0.5
10	0xbf2c0000	-0.671875
11	0xbf820000	-1.015625
12	0xbf200000	-0.625
13	0xbd800000	-0.0625
14	0xbeb80000	-0.359375
15	0xbe300000	-0.171875
16	0xbfee0000	-1.859375
17	0xbf140000	-0.578125
18	0xbf100000	-0.5625
19	0xbf640000	-0.890625
