modelv1/ClassifiedModel_v3.pt (torch_old, 120643 bytes, 38 tensors)

layer1.0.weight f4 [8, 3, 5, 5]
0	0x3d04e56e	0.032445364
1	0xbdbb7591	-0.091532834
2	0xbd8edb82	-0.069754615
3	0xbd9119a1	-0.070849665
4	0xbd1c2c2d	-0.038128067
5	0x3d9174cd	0.07102356
6	0xbd76998b	-0.060205024
7	0xbdd841f1	-0.10559452
8	0x3d431d5f	0.047635432
9	0xbd7e814d	-0.06213503
10	0x3dbdaa62	0.092610136
11	0xbd426066	-0.047455214
12	0xbcb4a98d	-0.022053504
13	0xbdd5fb37	-0.10448306
14	0x3d3034a3	0.04301895
15	0x3d40a885	0.047035713
16	0xbda1d9ea	-0.07902892
17	0xbd78dba0	-0.060756326
18	0xbdbd0058	-0.09228581
19	0xbdad30b0	-0.08456552
20	0xbd24aede	-0.04020583
21	0xbcd6c81b	-0.026218465
22	0xbd2251ad	-0.039628673
23	0xbdc52ee8	-0.09628087
24	0x3daa54af	0.08316933
25	0x3d8599ae	0.06523453
26	0xbc3fdb44	-0.011709992
27	0xbde3e457	-0.11127537
28	0xbbd1d1e0	-0.006403193
29	0x3d447bcc	0.047969624
30	0xbdea6ce7	-0.11446553
31	0x3da977f8	0.08274835
32	0xbdb770d3	-0.089570664
33	0x3d4d6aaf	0.05015057
34	0xbd6da319	-0.05801687
35	0x3d78ad81	0.06071234
36	0xbda7ffb8	-0.08203071
37	0xbddfff3a	-0.109373525
38	0xbd9a195c	-0.07524368
39	0xbd847c16	-0.0646898
40	0xbc2cf5e1	-0.010556669
41	0xbd5d3375	-0.05400415
42	0x3d9930c5	0.07480005
43	0xbce5b60b	-0.028040906
44	0xbd874ffa	-0.06607051
45	0xbdef0f9a	-0.11672898
46	0x3daadaf6	0.08342545
47	0xbdb52c47	-0.08846336
48	0x3db1d598	0.08683318
49	0xbdffd115	-0.12491051
50	0xbd8d6656	-0.06904285
51	0x3d3e5222	0.046465047
52	0x3b7e2100	0.0038776994
53	0xbda3a2ca	-0.07990034
54	0x3cdbc650	0.026827961
55	0x3db06658	0.086132705
56	0xbd7bf327	-0.061511185
57	0x3cdf640c	0.027269386
58	0xbd581731	-0.052756492
59	0x3ce2b0d2	0.027672205
60	0xbd5318fb	-0.051537495
61	0xbe00d372	-0.1258066
62	0x3cbc5c1c	0.02299314
63	0xbdf9e854	-0.12202516
64	0xbbea07c7	-0.0071420404
65	0xbcd9293c	-0.02650892
66	0xbc812519	-0.01576476
67	0x3d32dab8	0.043665618
68	0x3cac76e3	0.021052783
69	0x3dbdb778	0.092635095
70	0xbd6dd521	-0.058064584
71	0xbda1fe42	-0.07909824
72	0xbd0659b9	-0.03280041
73	0xbb940225	-0.004516857
74	0xbd9a020f	-0.07519924
75	0x3db69b09	0.08916289
76	0xbd6cb46f	-0.057789262
77	0x3dc966ea	0.098340824
78	0xbdb0e415	-0.08637253
79	0xbda95550	-0.08268225
80	0x3d1abcd9	0.037777755
81	0xbcb8bc85	-0.02255083
82	0xbddb66ad	-0.10712943
83	0x3cd95379	0.02652906
84	0x3c5b7808	0.013395317
85	0xbe0887da	-0.13333073
86	0xbdc72096	-0.09723012
87	0xbdc3d632	-0.09562339
88	0xbc85bc5c	-0.016325168
89	0xbcaf5983	-0.021404987
90	0x3d8f398e	0.069933996
91	0xbe01361a	-0.12618294
92	0x3cbe4cb1	0.023229929
93	0x3d57f9e6	0.052728556
94	0xbda5a61b	-0.08088323
95	0xbda757e1	-0.081710584
96	0x3c322752	0.0108736325
97	0x3c184b2f	0.009295269
98	0x3c3d75c7	0.011563725
99	0xbb7d8346	-0.0038682981
100	0xbd607e4f	-0.054807957
101	0xbdbf20d9	-0.09332437
102	0xbd885966	-0.066576764
103	0xbd980f06	-0.074247405
104	0xbd9b6088	-0.07586771
105	0xbd17a573	-0.03702302
106	0x3d907ded	0.070552684
107	0x3dc45c37	0.09587901
108	0x3d1bba80	0.038019657
109	0x3d980921	0.07423616
110	0xbdaa83e1	-0.08325935
111	0xbdb28236	-0.08716242
112	0xbc731bdc	-0.014838185
113	0x3d0f21f8	0.034944504
114	0xbcc257db	-0.023723533
115	0xbc4d4f07	-0.012531049
116	0xbdc59052	-0.096466675
117	0xbddab4c5	-0.1067901
118	0xbd941709	-0.07230956
119	0x3d3d8bed	0.04627602
120	0xbc01213f	-0.007881462
121	0x3dbfc5a5	0.093638696
122	0x3cfd2c13	0.030904805
123	0x3d689bfa	0.056789376
124	0xbc0e4f92	-0.008685963
125	0x3dedce40	0.11611605
126	0x3d207009	0.039169345
127	0xbd6216da	-0.055197574
128	0x3d86acf5	0.06575958
129	0xbc939275	-0.018014172
130	0xbd5cf0f6	-0.053940736
131	0xbc358cfe	-0.011080978
132	0x3cfd17f8	0.030895218
133	0x3d2817c7	0.0410383
134	0xbcff4d53	-0.0311648
135	0x3dd2b87f	0.10289096
136	0xbde81247	-0.11331611
137	0x3c9e3aa9	0.01931508
138	0x3d31499b	0.043283086
139	0x3de302a4	0.11084488
140	0xbd2e5ef7	-0.042571034
141	0xbd2294fe	-0.03969287
142	0x3d2090b2	0.039200492
143	0x3d9f7f6f	0.07787978
144	0xbd93c7df	-0.07215857
145	0x3d91c43e	0.07117508
146	0x3c0094a6	0.007847941
147	0x3da1b79c	0.07896349
148	0xbc228a43	-0.0099206595
149	0x3dc20803	0.09474184
150	0x3cb6d8a6	0.022320103
151	0xbc47336a	-0.012158254
152	0x3d8afaab	0.06786092
153	0xbd1c6a29	-0.03818718
154	0xbd5485c1	-0.05188537
155	0xbcfef620	-0.03112322
156	0xbd1d6c34	-0.03843327
157	0xbd8fc08c	-0.07019147
158	0xbd80fc0d	-0.06298075
159	0xbcbd71cf	-0.023125557
160	0xbcb862ed	-0.022508109
161	0x3dde7ec9	0.10864026
162	0xbddf8b62	-0.10915257
163	0x3dce5b4e	0.10076009
164	0xbd80d941	-0.06291438
165	0xbcd29205	-0.025704393
166	0xbd5d0c59	-0.053966854
167	0xbd96be94	-0.07360569
168	0x3d7d8019	0.06188974
169	0x3decd7d8	0.115646064
170	0xbd7c6138	-0.061616153
171	0x3d7bddd3	0.061490845
172	0x3d99b646	0.07505469
173	0xbc6ec77e	-0.01457393
174	0x3dee5cdd	0.11638806
175	0x3d40093b	0.046883803
176	0xbc7a33b4	-0.015271116
177	0xbdd975e4	-0.10618189
178	0xbd25ea05	-0.04050638
179	0xbd8e8ebd	-0.06960819
180	0xbd395d94	-0.04525526
181	0x3d338eb9	0.043837283
182	0xbb5a0fed	-0.0033273653
183	0xbddbc803	-0.107315086
184	0xbd23a6a5	-0.039953846
185	0x3d1a659f	0.03769457
186	0x3db1d12d	0.08682475
187	0x3d36e1c0	0.044648886
188	0x3d7015d2	0.05861456
189	0x3cd8503e	0.02640545
190	0xbdaee30e	-0.08539401
191	0x3d6b7bf2	0.05749125
192	0xbdfbfd57	-0.1230418
193	0x3d939aa3	0.07207229
194	0x3dd66d2c	0.10470042
195	0x3d129c22	0.03579343
196	0xbda3c1c3	-0.079959415
197	0xbc4b6415	-0.012413998
198	0x3dd8764a	0.10569437
199	0x3c9fa60f	0.019488363
200	0x3dc309e0	0.09523368
201	0x3de1ed5a	0.11031599
202	0xbc0077e3	-0.007841083
203	0x3cbb63b1	0.022874685
204	0x3dd8ce3c	0.10586211
205	0x3d9157f1	0.070968516
206	0x3d97e48b	0.07416638
207	0xbd62eca2	-0.055401452
208	0x3c9bff2c	0.019042574
209	0x3cc28a69	0.02374764
210	0xbdaed043	-0.085358165
211	0x3db30c09	0.0874253
212	0xbd7a45c1	-0.06110168
213	0xbcbce630	-0.02305898
214	0x3c444e3a	0.011981541
215	0xbd35b807	-0.044364955
216	0xbd8a8eb6	-0.06765501
217	0x3d9b2d24	0.07576969
218	0x3db0b7fa	0.08628841
219	0xbcbd16fa	-0.023082245
220	0x3d9bd136	0.07608263
221	0xbcfaf2e7	-0.030633403
222	0xbdbee0a4	-0.093201905
223	0x3c8d6c31	0.017263504
224	0x3d013e51	0.03155357
225	0xbd361c28	-0.044460446
226	0xbdf6841e	-0.12036918
227	0x3c6a067c	0.014283773
228	0x3da9f8bd	0.08299396
229	0xbda014a7	-0.07816439
230	0xbd20da0f	-0.039270457
231	0xbc02e448	-0.007988997
232	0x3ba01c52	0.0048861885
233	0xbda7cdfa	-0.08193584
234	0xbce4212f	-0.027847854
235	0xbcdd58c3	-0.027019864
236	0xbc9ff709	-0.019526975
237	0x3d996100	0.074892044
238	0x3daefc42	0.08544208
239	0xbce66122	-0.028122488
240	0x3dcbae81	0.09945393
241	0x3ddecc1a	0.10878773
242	0xbd8d5a77	-0.069020204
243	0xbde4397e	-0.11143778
244	0xbdec910c	-0.11551103
245	0xbde6119c	-0.112338275
246	0xbde3be8e	-0.1112033
247	0x3c7cb3c7	0.015423722
248	0x3d8f9a72	0.0701188
249	0x3db15fa7	0.08660822
250	0xbd1d1f20	-0.03835976
251	0xbdd4c194	-0.103884846
252	0x3de1d695	0.110272564
253	0xbd572cb6	-0.052532874
254	0x3d813e99	0.06310768
255	0xbd86088e	-0.065446004

layer1.0.bias f4 [8]
0	0x3c7ab582	0.015302064
1	0x3dd621f3	0.10455694
2	0xba9cbe01	-0.0011958481
3	0xbd62b323	-0.05534662
4	0xbc7e3014	-0.015514392
5	0x3d1e4c6f	0.03864711
6	0x3d150b98	0.03638801
7	0x3ce1fef2	0.027587388

layer1.2.weight f4 [8]
0	0x3f7c0cef	0.98457235
1	0x3f797f83	0.9746019
2	0x3f7dae09	0.9909368
3	0x3f8267c1	1.0187913
4	0x3f81dfae	1.0146387
5	0x3f7f51fa	0.9973446
6	0x3f7d9c73	0.9906685
7	0x3f802eae	1.0014246

layer1.2.bias f4 [8]
0	0xbc5ec3d1	-0.013596491
1	0x3a05eead	0.0005109113
2	0x3c2ac294	0.010422368
3	0xba61ebe1	-0.00086182175
4	0x3c224811	0.009904877
5	0x3c33522d	0.010944885
6	0xbc779532	-0.0151112545
7	0xbc0dbbc9	-0.0086507285

layer1.2.running_mean f4 [8]
0	0x2aba76f9	3.312279e-13
1	0x3d7bba8f	0.061457213
2	0x3e93f119	0.2889488
3	0x3dd4a8bc	0.10383746
4	0x3cc4b37e	0.02401137
5	0x3f87e84c	1.0617766
6	0x3d34be2f	0.044126686
7	0x3eaf9f18	0.34301066

layer1.2.running_var f4 [8]
0	0x34d2c673	3.925994e-07
1	0x3b62d749	0.0034613183
2	0x3c44258a	0.011971841
3	0x3b8711bd	0.0041219876
4	0x3b699f6c	0.0035648001
5	0x3e25276f	0.16128324
6	0x3b9c09cb	0.0047619096
7	0x3c9f5661	0.019450368

layer2.0.weight f4 [14, 8, 3, 3]
0	0xbc9be061	-0.01902789
1	0xbd9db7b1	-0.07701052
2	0xbdc492d3	-0.09598317
3	0x3d83346c	0.06406483
4	0x3dbe56e9	0.092939205
5	0xbdb5b3be	-0.08872174
6	0x3dc4043e	0.09571122
7	0x3dedbe84	0.116086036
8	0xbd262730	-0.040564716
9	0xbda87508	-0.08225447
10	0x3c898b40	0.016790032
11	0x3dd80d49	0.10549409
12	0x3c31c8c1	0.010851086
13	0xbaf13c46	-0.0018404804
14	0x3da79020	0.081817865
15	0x3c572021	0.013130219
16	0xbdcc1e70	-0.09966743
17	0x3d21203a	0.039337374
18	0xbdd27f47	-0.102781825
19	0xbd9e189c	-0.077195376
20	0x3e03bc9a	0.12864915
21	0x3def277e	0.116774544
22	0xbd90f785	-0.070784606
23	0xbcd276d1	-0.025691422
24	0x3da7a959	0.081865974
25	0x3c1a76b6	0.009427717
26	0x3d05e7b4	0.032691672
27	0x3c9f36bc	0.01943528
28	0x3dab8231	0.083744414
29	0x3d3cfdee	0.046140604
30	0xbced7816	-0.028987925
31	0x3bd8e4a2	0.006619052
32	0x3dc2fc22	0.09520747
33	0xbd0d421e	-0.034486882
34	0x3c3a8ec8	0.011386581
35	0xbd592a90	-0.053019106
36	0xbabdbd54	-0.001447598
37	0x3de4a426	0.11164121
38	0xbdfe67d7	-0.1242215
39	0xbd7845c7	-0.06061342
40	0xbdc0642f	-0.093941085
41	0xbdae88db	-0.08522197
42	0xbd17d48d	-0.03706794
43	0xbdb2dbc1	-0.08733321
44	0x3db1109f	0.08645748
45	0xbb6fbad5	-0.0036579866
46	0x3dc1f811	0.09471143
47	0x3ad8ee3b	0.001655049
48	0xbd9d9a16	-0.07695405
49	0xbbfe68e6	-0.0077639697
50	0xbd88aa14	-0.06673065
51	0x3dabc82b	0.083877884
52	0xbda329ff	-0.079669945
53	0x3ba678e3	0.005080329
54	0x3cf757b7	0.030193193
55	0xba1d62b0	-0.000600378
56	0xbe002432	-0.12513807
57	0x3de62163	0.11236837
58	0xbca08abe	-0.019597407
59	0xbdd95c80	-0.10613346
60	0xbdb20f53	-0.08694329
61	0x3da61b9e	0.08110736
62	0x3d54a18f	0.051911887
63	0xbc902c71	-0.017599316
64	0x3db5da5e	0.08879541
65	0xbd96ded5	-0.073667206
66	0xbd3576df	-0.044302817
67	0x3d868be0	0.06569648
68	0xbc9aeb12	-0.018910918
69	0xbd08154e	-0.033223443
70	0xbd0b1c1e	-0.03396236
71	0x3cb95f95	0.022628585
72	0xbce5b448	-0.028040066
73	0xbd9d062a	-0.07667191
74	0xbc0e05cf	-0.008668377
75	0xbd994df6	-0.07485573
76	0xbd8781e9	-0.06616575
77	0xbdb183a3	-0.08667686
78	0x3de8628a	0.1134692
79	0xbceb491e	-0.028721388
80	0x3d266739	0.040625785
81	0x3dae11fe	0.084995255
82	0x3c41d815	0.011831303
83	0x3dbc8832	0.09205665
84	0x3ba69799	0.00508399
85	0x3cbe0ed1	0.023200424
86	0xbda3e177	-0.080019884
87	0xbd21539c	-0.039386377
88	0x3d8f127c	0.069859475
89	0x3ce299c4	0.027661212
90	0xbde9a0f9	-0.11407656
91	0xbb3f429c	-0.002918399
92	0x3dc6c871	0.097062
93	0x3d3e1be9	0.046413336
94	0xbcec3ad6	-0.028836649
95	0xbcebace5	-0.028768966
96	0x3d3c2d6e	0.045941763
97	0x3d26590c	0.040612265
98	0xbdab3f2d	-0.08361659
99	0x3c0f99de	0.008764712
100	0xbdbf43bf	-0.093390934
101	0x3d370c3e	0.04468941
102	0x3db13c18	0.0865404
103	0x3cbda0f6	0.023148041
104	0x3e014276	0.12623009
105	0x3d36005a	0.04443393
106	0x3d6001c6	0.05468919
107	0x3dc88456	0.09790866
108	0xbe0d8f65	-0.13824232
109	0xbac3f778	-0.0014951071
110	0xbded61fb	-0.11590954
111	0x3d5799b2	0.05263681
112	0x3d51346a	0.051075377
113	0x3c3db3fa	0.011578554
114	0xbc86c508	-0.016451374
115	0xbc4e6ca2	-0.012599142
116	0x3b86a1c1	0.004108638
117	0xbde30de3	-0.11086633
118	0xbd661039	-0.056167815
119	0xbcd8c6bf	-0.026461957
120	0xbdd62625	-0.10456494
121	0x3d9e6ba9	0.07735378
122	0x3d13e831	0.036110107
123	0xbbe16a7e	-0.00687915
124	0x3d32b02a	0.043625034
125	0xbd86670b	-0.06562623
126	0xbcfd94d7	-0.030954761
127	0x3d231b92	0.039821215
128	0xbd21b42b	-0.039478462
129	0x3a868c94	0.0010265284
130	0x3cb7bd2e	0.022429075
131	0x3d9167e0	0.07099891
132	0xbd649d64	-0.055814162
133	0xbe0c5ada	-0.13706532
134	0x3c8f51a1	0.017494978
135	0x3dba97ed	0.09111009
136	0xbdd3ce56	-0.1034209
137	0x3d7a9b3e	0.061183207
138	0x3c2e14e5	0.010625099
139	0xbc4dc918	-0.0125601515
140	0x3d064de8	0.03278914
141	0xbd39c384	-0.045352474
142	0xbd843269	-0.064549275
143	0xbe022e9c	-0.12713093
144	0xbce4ce9c	-0.02793055
145	0x3c191526	0.009343421
146	0xbcfdb710	-0.03097108
147	0x3d29f531	0.0414936
148	0x3d5ae40e	0.053440146
149	0xbd100429	-0.035160217
150	0xbd04e394	-0.032443598
151	0x3cee641c	0.02910047
152	0x3d0b90ce	0.034073643
153	0xbd1046ab	-0.035223644
154	0x3c24a5ef	0.010049327
155	0x3ca3792e	0.019955244
156	0xbd6751c5	-0.056474466
157	0x3dbc9f4d	0.09210072
158	0xbc162f27	-0.009166515
159	0xbd1b475c	-0.03790985
160	0x3adf5bb3	0.0017040878
161	0x3cd411b6	0.025887351
162	0x3d031896	0.03200587
163	0xbd746d01	-0.059674267
164	0x3da0b233	0.07846489
165	0x3dd878dd	0.10569928
166	0x3d9d2986	0.076739356
167	0xbbea8136	-0.0071565164
168	0x3aff7759	0.0019490524
169	0x3d8bd1c7	0.06827121
170	0xbd2f309a	-0.04277096
171	0xbd831092	-0.06399645
172	0xbd02e4ad	-0.031956363
173	0xbcc04188	-0.023468748
174	0xbc27834b	-0.010224174
175	0x3d2f79df	0.042840835
176	0x3c139cfa	0.009009594
177	0xbd5ef976	-0.054437123
178	0x3dc4c3a6	0.096076295
179	0xbd9d664c	-0.07685527
180	0xbd9ff260	-0.07809901
181	0xbc9f2cff	-0.019430635
182	0x3d7d4391	0.061832014
183	0x3dde6bd7	0.108604126
184	0x3da8827a	0.082280114
185	0xbdc03856	-0.09385745
186	0x3da17fe0	0.07885718
187	0xbdd759d6	-0.10515182
188	0xbca0b6cc	-0.019618414
189	0x3d4625e5	0.048375983
190	0xbd533b48	-0.051570207
191	0x3d567b95	0.05236395
192	0x3d6a453f	0.057194944
193	0x3d36a56c	0.044591352
194	0xbd93663e	-0.071972355
195	0x3df113d9	0.11771364
196	0xbd5908fe	-0.05298709
197	0x3d3a1c91	0.0454374
198	0xbd8a1cc5	-0.067437686
199	0xbd3d4254	-0.046205834
200	0xbd4cb7e1	-0.049980048
201	0x3c90dbe5	0.017682979
202	0x3b4a7af2	0.0030896035
203	0x3d91ff9f	0.07128834
204	0xbdc4536b	-0.09586223
205	0xbd27821e	-0.040895574
206	0xbde327d0	-0.11091578
207	0x3ba28b4f	0.0049604545
208	0xbd82d138	-0.063875616
209	0xbd2aa085	-0.04165699
210	0xbd8c476f	-0.068495624
211	0x3d8f53a5	0.06998376
212	0xbd5afb02	-0.053462036
213	0xbd954466	-0.072884366
214	0xbcda8860	-0.026676357
215	0xbd85f76e	-0.06541334
216	0x3d55bf04	0.05218412
217	0xbd6a2214	-0.057161406
218	0x3d50fc2f	0.05102175
219	0xbd80a2b1	-0.06281031
220	0x3ce5b523	0.028040474
221	0xbd30e3c8	-0.04318598
222	0xbd5d7a73	-0.054071855
223	0xbc053a8b	-0.0081316335
224	0x3e030283	0.12793927
225	0xbc7a7338	-0.015286259
226	0x3d9a97df	0.07548498
227	0x3bcd0dc2	0.0062577436
228	0x3c0f5324	0.00874785
229	0x3d7616a1	0.060080174
230	0x3d0d1a33	0.034448814
231	0x3bb07712	0.005385288
232	0x3d2cc519	0.042180154
233	0x3d768213	0.060182642
234	0x3db0fa47	0.086414866
235	0x3d87be2f	0.066280715
236	0x3d0d597d	0.03450917
237	0x3c39770a	0.011319885
238	0xbd1e525d	-0.038652766
239	0xbda13476	-0.07871334
240	0xbdb90d9d	-0.090358
241	0xbcb5d159	-0.022194551
242	0x3d17aebb	0.03703187
243	0xbd2d4b7f	-0.042308327
244	0x3d7e956e	0.062154226
245	0xbcf90f43	-0.030402785
246	0xbdad3fec	-0.08459458
247	0xbd9bb0ee	-0.07602106
248	0xbba19c2c	-0.004931947
249	0x3d3cd048	0.04609707
250	0x3d9ef7ba	0.07762094
251	0xbd442f99	-0.047896955
252	0x3b98a5ac	0.0046584215
253	0x3c795ecd	0.015220356
254	0x3cd065f4	0.02543924
255	0xbded462a	-0.11585648

layer2.0.bias f4 [14]
0	0x3d804fe5	0.06265239
1	0x3db49ded	0.088191845
2	0x3dcd0e27	0.10012465
3	0xbd446e55	-0.047956783
4	0x3d2925a8	0.041295677
5	0x3cf80768	0.03027697
6	0xbbc990d9	-0.0061513004
7	0x3ad82310	0.0016489942
8	0xbc34a0a8	-0.011024632
9	0x3d360454	0.04443772
10	0xbdab72dd	-0.08371518
11	0x3b9be2a3	0.004757242
12	0xbcffc34f	-0.03122106
13	0x3e05cc4f	0.13066219

layer2.2.weight f4 [14]
0	0x3f817dd0	1.011652
1	0x3f7a55be	0.9778708
2	0x3f7ff953	0.99989814
3	0x3f81db4d	1.014505
4	0x3f77efc0	0.96850204
5	0x3f7cae67	0.98703617
6	0x3f7f5a78	0.9974742
7	0x3f814abf	1.0100936
8	0x3f80d4ae	1.0064905
9	0x3f7fc31d	0.99907094
10	0x3f7bef31	0.9841185
11	0x3f823c23	1.0174602
12	0x3f7d5ff3	0.9897453
13	0x3f784553	0.9698078

layer2.2.bias f4 [14]
0	0x3c90640e	0.017625835
1	0x3c0a3fd5	0.00843807
2	0xbbe0b8e5	-0.0068579786
3	0xbc73dfca	-0.014884898
4	0x3bcffcf5	0.0063472935
5	0xbc2aebeb	-0.010432224
6	0xbb917ff9	-0.0044403044
7	0xbb2313f7	-0.0024883726
8	0xbc7d2c85	-0.015452509
9	0x3c8a9a7c	0.016919367
10	0xbbce4b57	-0.0062956023
11	0x3c408aa2	0.011751803
12	0x3b8fa044	0.004383119
13	0xbcef82ed	-0.029237235

layer2.2.running_mean f4 [14]
0	0x3e31f51e	0.17378661
1	0x3ecf2cc5	0.40463844
2	0x3e3609a0	0.17777109
3	0x3dfb937f	0.12283992
4	0x3e50c0c5	0.20386036
5	0x3e584119	0.21118583
6	0x3e4f2c71	0.20231797
7	0x3e27c4dc	0.1638369
8	0x3e352690	0.17690492
9	0x3ea513f1	0.32241777
10	0x3de15684	0.1100283
11	0x3e27d554	0.16389972
12	0x3f2a3f51	0.66502863
13	0x3e610120	0.21973085

layer2.2.running_var f4 [14]
0	0x3d10e0c0	0.03537059
1	0x3e353723	0.17696814
2	0x3d183ad4	0.037165478
3	0x3ca053ab	0.019571146
4	0x3ddb9792	0.10722269
5	0x3e378273	0.17920856
6	0x3e2c8b56	0.16850027
7	0x3d39497b	0.045236092
8	0x3d98c45c	0.074593276
9	0x3e5a32f6	0.21308503
10	0x3d5c555f	0.053792354
11	0x3d839414	0.06424728
12	0x3f2f7ca9	0.6854959
13	0x3d9cb669	0.076519795

layer3.0.weight f4 [44, 14, 1, 1]
0	0x3de79c10	0.113090634
1	0xbdce52ad	-0.10074363
2	0xbccf54c5	-0.025308976
3	0x3dfa72be	0.122289166
4	0x3e391f43	0.18078332
5	0x3e006eb8	0.12542236
6	0xbd753537	-0.059865203
7	0xbcc202a3	-0.023682898
8	0xbc0cb818	-0.008588813
9	0x3e6b4510	0.22975564
10	0xbd7d4f05	-0.061842937
11	0x3e67b5eb	0.2262799
12	0xbd8d263d	-0.06892059
13	0xbe02bdc5	-0.12767704
14	0xbd764f4d	-0.06013422
15	0x3e58e529	0.21181168
16	0x3d48da69	0.049036417
17	0xbe1f77ca	-0.1557304
18	0xbd555301	-0.05208111
19	0xbe7a9f0e	-0.24474737
20	0xbdd564f5	-0.10419647
21	0x3e102ebd	0.14080329
22	0x3cccf838	0.025020704
23	0x3c561f0c	0.013068926
24	0xbe41492b	-0.18875568
25	0x3e6a82e3	0.22901492
26	0xbe057915	-0.1303447
27	0xbe0fb150	-0.14032483
28	0xbd014bb4	-0.031566337
29	0xbdceb364	-0.1009281
30	0xbe335932	-0.17514494
31	0x3e5353d9	0.20637454
32	0xbcda605f	-0.026657281
33	0xbe4548b4	-0.19266015
34	0x3807ea0a	3.2404474e-05
35	0x3e0339b1	0.12814976
36	0x3bebaf62	0.007192538
37	0xbda80c53	-0.08205476
38	0xbd3f70eb	-0.046738546
39	0xbe0244f3	-0.12721615
40	0x3d8d19e6	0.06889705
41	0x3e749f6d	0.23888941
42	0xbe476f94	-0.19476157
43	0x3e7270a6	0.23675784
44	0x3e35b513	0.17744856
45	0x3e307284	0.17231184
46	0xbe4421eb	-0.19153564
47	0x3e823d1d	0.2543725
48	0x3e10302f	0.1408088
49	0x3e3b7b46	0.18308744
50	0x3dffaea5	0.12484483
51	0xbe581491	-0.21101595
52	0xbd7d868d	-0.061895896
53	0xbda59847	-0.08085685
54	0x3dcfca76	0.10146038
55	0x3df62a18	0.120197475
56	0xbddf8475	-0.10913936
57	0xbca83ec7	-0.020537747
58	0xbe7177a7	-0.235808
59	0x3dc3c273	0.095585726
60	0x3dfdb15a	0.12387343
61	0x3dbf5dd4	0.09344068
62	0x3e7074e6	0.23482093
63	0x3e166a67	0.14689027
64	0x3e185d67	0.1487938
65	0xbe6c4131	-0.23071744
66	0x3cb7e77d	0.02244925
67	0xbd7057fa	-0.05867765
68	0xbd81977e	-0.06327723
69	0x3dad66c6	0.08466868
70	0x3c1a11b5	0.009403636
71	0x3b511968	0.0031906012
72	0xbe298a5d	-0.16556688
73	0x3e89e0ac	0.26929224
74	0x3dca41d5	0.09875838
75	0xbdf48c61	-0.11940838
76	0xbce001b4	-0.027344562
77	0xbe2ce94a	-0.16885868
78	0x3e74e69a	0.23916093
79	0x3e774d2f	0.24150537
80	0x3dc0a2e1	0.09406067
81	0xbe03dd3b	-0.12877361
82	0x3e615fa0	0.22009134
83	0xbd43083c	-0.047615275
84	0x3d82e2bc	0.063909024
85	0x3d52e88a	0.051491298
86	0x3c83b9e1	0.016079845
87	0xbe6686c5	-0.22512348
88	0x3e0b663b	0.13613217
89	0x3d94142e	0.072304115
90	0xbe4b4751	-0.19851424
91	0x3d8c920e	0.06863795
92	0xbd79bf9a	-0.06097374
93	0xbbce5da7	-0.0062977853
94	0xbdd6e1e2	-0.104923025
95	0x3da55df6	0.08074562
96	0x3db72e01	0.089443214
97	0x3e07fc95	0.13279946
98	0xbd9dcdc4	-0.07705262
99	0x3d5a7099	0.053330038
100	0xbe76983c	-0.2408151
101	0x3da90946	0.08253722
102	0xbe1aad06	-0.15105066
103	0xbb602ff9	-0.0034208281
104	0xbe1cdbdb	-0.15318243
105	0xbe1ce5ac	-0.15321988
106	0xbd5745be	-0.052556746
107	0xbe10cad3	-0.14139871
108	0x3e2e2876	0.17007622
109	0x3d7b6901	0.061379436
110	0x3e125847	0.14291488
111	0x3c93d660	0.018046558
112	0x3e550cb7	0.20805632
113	0xbdbbcfaa	-0.09170468
114	0x3e5fb3e3	0.21845965
115	0xbe8d4c4a	-0.27597266
116	0x3e5211a6	0.20514545
117	0x3d5ae16c	0.053437635
118	0xbe178d5c	-0.14800018
119	0xba0c53b6	-0.000535305
120	0x3db36ce0	0.08761001
121	0x3e231e16	0.15929446
122	0xbe5eeef6	-0.21770844
123	0x3de21b07	0.11040311
124	0xbe295c40	-0.16539097
125	0xbe5190e3	-0.20465426
126	0x3e24c916	0.16092333
127	0xbe386dca	-0.18010631
128	0x3c275514	0.010213155
129	0x3e1227a9	0.14272942
130	0xbe75e8ce	-0.24014589
131	0x3e5af666	0.21383056
132	0x3e44b496	0.19209513
133	0x3d4d70ee	0.050156526
134	0xbe41d10a	-0.18927398
135	0xbde7e0fa	-0.11322208
136	0x3d8006e7	0.062513165
137	0xbb431ec4	-0.0029772976
138	0x3e3dafe4	0.18524128
139	0x3e6ed819	0.23324622
140	0xbd9632a9	-0.073338814
141	0xbe75ee57	-0.240167
142	0x3db16f84	0.08663848
143	0x3d9df488	0.07712656
144	0x3e48e1df	0.19617413
145	0x3d9241d9	0.07141466
146	0xbe516115	-0.2044719
147	0x3e292f7c	0.1652202
148	0x3cd477a7	0.025935961
149	0xbe0c795b	-0.13718168
150	0xbe893e85	-0.2680551
151	0x3e369783	0.17831235
152	0xbc5227b4	-0.012826849
153	0xbe714394	-0.23560935
154	0xbe8096be	-0.25115007
155	0xbe14c303	-0.14527516
156	0x3d8c815f	0.06860613
157	0x3e7d5608	0.2473985
158	0xbc61a21f	-0.013771563
159	0xbe554e39	-0.20830621
160	0xbe72e4bb	-0.23720066
161	0x3be8aeb2	0.0071009034
162	0x3e674758	0.22585809
163	0xbd007517	-0.031361666
164	0xbe8944de	-0.26810354
165	0x3e7ac0b3	0.24487571
166	0xbdd31d70	-0.10308349
167	0xbe03ec7f	-0.12883185
168	0xbe433853	-0.19064455
169	0x3e7304a2	0.23732236
170	0xbe33aa9c	-0.17545551
171	0x3e86da70	0.2633853
172	0xbbe2da79	-0.0069230166
173	0xbe8e2862	-0.27765185
174	0xbe08e7e4	-0.13369709
175	0x3d2bd2fd	0.04194926
176	0x3e272906	0.16324243
177	0x3c2da8e9	0.010599353
178	0xbdd0cdc5	-0.101954974
179	0x3e21a602	0.15785983
180	0x3c6f76fe	0.014615772
181	0xbe566ed1	-0.2094071
182	0xbd009d7a	-0.03140018
183	0x3da9bb67	0.08287697
184	0xbe1b2c3b	-0.15153591
185	0xbd4ee8a3	-0.05051483
186	0xbe14af44	-0.14519984
187	0x3e7691b1	0.24079014
188	0x3dda29af	0.10652482
189	0xbcab0355	-0.020875612
190	0x3e5abcb6	0.2136105
191	0x3d9eceb8	0.07754272
192	0x3dde063d	0.108410336
193	0xbe3545bd	-0.17702384
194	0xbe0e1b7c	-0.13877672
195	0x3e33345c	0.17500442
196	0x3e78ca87	0.24296008
197	0x3da8e0c8	0.082459986
198	0xbe7a66ac	-0.24453229
199	0x3e3190eb	0.17340438
200	0xbd6d011a	-0.05786238
201	0x3e4e2b02	0.20133594
202	0xbe59e6e0	-0.21279478
203	0x3e083623	0.13301902
204	0x3e08a1f1	0.13343026
205	0x3e78cd56	0.2429708
206	0xbd166deb	-0.03672592
207	0x3e69d414	0.22834808
208	0x3e224221	0.15845539
209	0xbe2711dc	-0.16315407
210	0xbe514841	-0.20437719
211	0xbc407b8c	-0.011748206
212	0xbd6e761e	-0.058218114
213	0xbdf215d2	-0.11820568
214	0xbe18662b	-0.14882724
215	0x3be85187	0.007089797
216	0xbce6ae05	-0.02815915
217	0xbe2b173c	-0.16708082
218	0x3e635267	0.22199403
219	0x3e67e0fa	0.22644415
220	0xbdff112d	-0.12454448
221	0x3e107913	0.14108686
222	0xbe4f6cb4	-0.2025631
223	0x3dc8ffa7	0.09814387
224	0xbc8fba3c	-0.017544858
225	0xbcbf3386	-0.023339998
226	0x3e80f659	0.25187948
227	0xbd5b89bb	-0.053598147
228	0x3d520d8e	0.051282458
229	0xbc614974	-0.013750423
230	0x3e4718a7	0.19442998
231	0x3e547b09	0.20750059
232	0xbe07b819	-0.13253821
233	0x3dcd1dda	0.10015459
234	0xbe76da7e	-0.24106786
235	0xbc9a3b89	-0.018827217
236	0xbe3588b3	-0.17727928
237	0x3e5bfd60	0.21483374
238	0xbd506c88	-0.050884753
239	0xbe14f6bf	-0.14547251
240	0x3d6f1124	0.058365956
241	0xbe3a88c1	-0.1821623
242	0xbda545a7	-0.08069926
243	0xbe6a214e	-0.22864267
244	0xbe4654f2	-0.19368342
245	0x3e439838	0.19101036
246	0x3dc38c68	0.09548265
247	0x3d9326b6	0.07185118
248	0x3e21eba5	0.15812548
249	0xbe340702	-0.17580798
250	0x3e26646c	0.16249245
251	0xbd4e26e0	-0.050330043
252	0xbdd9ea93	-0.106404446
253	0x3deb4927	0.11488562
254	0xbe6fc3e0	-0.23414564
255	0x3d691278	0.05690238

layer3.0.bias f4 [44]
0	0xbe3c87d5	-0.18411191
1	0xbdda0127	-0.10644751
2	0xbd53c4ff	-0.051701542
3	0x3df69d68	0.120417416
4	0x3e80dcf2	0.25168568
5	0xbdba9ebc	-0.091123074
6	0xbdceebe8	-0.10103589
7	0xbd0bfdcc	-0.034177586
8	0xbda0cc8c	-0.07851514
9	0x3e1df6ff	0.15426253
10	0xbded8dab	-0.11599287
11	0xbe57f083	-0.21087842
12	0xbe54dcff	-0.20787428
13	0xbdae22c4	-0.08502725
14	0x3da42024	0.08013943
15	0x3e1c36ec	0.15255326
16	0xbcf654b2	-0.030069683
17	0x3e848189	0.25880077
18	0xbe0b80f4	-0.1362341
19	0x3c55ad11	0.0130417505
20	0xbdd0ae35	-0.10189477
21	0x3dfcc29d	0.12341807
22	0x3e7dc86a	0.24783483
23	0x3e522103	0.20520405
24	0x3e3c2222	0.18372396
25	0x3df892f3	0.12137403
26	0xbd635628	-0.055502087
27	0x3c36e4cf	0.011162951
28	0x3ca04b9e	0.019567307
29	0xbe6320e5	-0.22180517
30	0xbe7edd8b	-0.248892
31	0x3df7973a	0.12089391
32	0xbe6a9703	-0.22909169
33	0xbdd84608	-0.105602324
34	0xbe596d16	-0.21233019
35	0xbce220b9	-0.027603494
36	0xbe68b284	-0.22724348
37	0x3e6f46af	0.23366807
38	0xbe768250	-0.24073148
39	0xbe14d3db	-0.14533941
40	0xbe65b942	-0.22433951
41	0x3e3a4efe	0.18194196
42	0x3e77298a	0.2413694
43	0xbdc1cb50	-0.09462607

layer3.2.weight f4 [44, 44, 3, 3]
0	0xbb70385d	-0.003665469
1	0x3d5f84c2	0.054569967
2	0xbbbcce88	-0.005761925
3	0x3bc268e4	0.005932914
4	0x3cac1f5d	0.021011049
5	0x3d1e3fd7	0.0386351
6	0x3d21d8bd	0.03951334
7	0x3bff2097	0.0077858674
8	0x3cffb0f5	0.03121231
9	0x3cb0207f	0.02149987
10	0xbbb68a5e	-0.005570694
11	0xbcf34d9d	-0.029700095
12	0x3cfb1efe	0.030654427
13	0x3d4a2be9	0.049358282
14	0xbb0b24fe	-0.0021231766
15	0x3c80533a	0.015664686
16	0xbcbd2046	-0.023086678
17	0xbc0950b1	-0.008381055
18	0x3c46c86b	0.012132744
19	0xbd50ee5c	-0.051008567
20	0x3ca803cf	0.020509629
21	0xbd45ed99	-0.048322294
22	0xbc175df3	-0.009238708
23	0xbd3d86fe	-0.046271317
24	0xbcc3fc14	-0.023923911
25	0xbd08cace	-0.033396535
26	0x3d619376	0.05507227
27	0xbc266b7b	-0.010157461
28	0xbc8ab372	-0.01693127
29	0x3c419462	0.011815162
30	0x3c01fb84	0.007933501
31	0x3d67bd35	0.056576926
32	0x3d6b93c5	0.05751397
33	0x3c9aab64	0.018880554
34	0x3c4b6876	0.012415042
35	0xbb876990	-0.004132457
36	0x3ccf62ea	0.02531572
37	0xbd591366	-0.052997015
38	0xbbae694d	-0.0053226114
39	0x3c99b7c2	0.01876438
40	0x3d80b08d	0.062836744
41	0x3d288351	0.041140858
42	0x3b7cc339	0.003856851
43	0xbb7288f1	-0.0037007893
44	0xbc5c1678	-0.013433091
45	0x3d01209d	0.031525243
46	0x39560b57	0.00020412855
47	0x3b4f8925	0.0031667438
48	0x3c7ee23e	0.01555687
49	0xbc73dde2	-0.014884444
50	0x3cf3cce5	0.029760787
51	0x3c8771ca	0.016533751
52	0xbca8967f	-0.020579575
53	0x3d55098d	0.05201106
54	0x3ce5f93f	0.028072951
55	0x3b81eca0	0.0039649755
56	0xbc44938c	-0.011998069
57	0x3d3755f0	0.04475969
58	0xbd4df3cb	-0.050281327
59	0x3b852257	0.0040629315
60	0xbca4fc47	-0.020139826
61	0x3d511724	0.05104746
62	0xbcd16e79	-0.025565373
63	0xbd40c01d	-0.047058214
64	0x3d2136f0	0.039359033
65	0x3ab9d778	0.0014178595
66	0xbc70d45b	-0.014699067
67	0xbcaedb02	-0.021344665
68	0x3d3ac030	0.04559344
69	0xbc8b2847	-0.01698698
70	0x3d79705f	0.06089818
71	0x3c6919e5	0.014227365
72	0x3d21fcd3	0.039547753
73	0xbcb7d31d	-0.022439534
74	0x3c8ac4f8	0.016939625
75	0x3d89d2e0	0.06729674
76	0x3c3a9451	0.0113879
77	0xbc34a259	-0.011025035
78	0xbc5f7add	-0.013640133
79	0x3d4f8036	0.05065938
80	0x3d42ce3f	0.047559973
81	0x3d18fa63	0.037348162
82	0x3d09cf07	0.033644702
83	0xbd37149f	-0.0446974
84	0x3d10cb1f	0.03534996
85	0xbd2aaf89	-0.04167131
86	0xbd4a4dc3	-0.049390566
87	0x3ba8560f	0.005137212
88	0x3bcd211c	0.0062600505
89	0xbce6cc3a	-0.028173555
90	0x3d5949fd	0.053049076
91	0xbca034e1	-0.019556465
92	0xbd38e42a	-0.04513947
93	0xbd00af44	-0.031417146
94	0xbc1573bf	-0.009121834
95	0xbd8050c2	-0.06265403
96	0x3cfbf303	0.030755525
97	0x3d0fdf70	0.035125196
98	0xbca63c61	-0.020292463
99	0x3d1f5a1d	0.038904298
100	0xbbcc5c0d	-0.0062365592
101	0x3c8a2ef8	0.0168681
102	0x3cfa089b	0.030521682
103	0x3d521944	0.051293626
104	0xbbdbc6c4	-0.0067070443
105	0x3d14c4fe	0.03632068
106	0x3d02e636	0.031957828
107	0xbbbddb55	-0.0057939687
108	0xbd06f068	-0.032944113
109	0x3bf2327b	0.0073912716
110	0xbc8a6e45	-0.016898284
111	0xbd16525f	-0.03669965
112	0x3c7fcd36	0.015612891
113	0x39b08df1	0.0003367509
114	0xbd0de678	-0.03464362
115	0x3d351e7e	0.044218533
116	0xbc9eee85	-0.019400844
117	0xbd623d2d	-0.055234123
118	0xbd3bf2fb	-0.04588602
119	0xbbb3ba87	-0.0054848823
120	0xbc3e56f2	-0.011617409
121	0x3d5e0baa	0.054210342
122	0x3c211875	0.009832491
123	0xbcb03830	-0.021511167
124	0x3c83a329	0.016069012
125	0x3ce809df	0.02832502
126	0x3b20149c	0.0024426347
127	0xbc389e53	-0.011268216
128	0x3b6b6ae3	0.0035921864
129	0x3d283bea	0.041072764
130	0x3b99bb6f	0.0046915333
131	0x3ca4040a	0.020021457
132	0x3d360f72	0.044448324
133	0x3ca420a7	0.020035101
134	0x3d1af38b	0.037829917
135	0xbd0c219c	-0.03421174
136	0xbd1383bd	-0.036014307
137	0x3c675f0b	0.014121781
138	0x3c991003	0.018684393
139	0xbca1754b	-0.01970925
140	0xbb56f154	-0.0032797651
141	0xbcae91f5	-0.021309832
142	0xbc90a96f	-0.017658917
143	0x3d48bce9	0.049008284
144	0xba84d54d	-0.0010134369
145	0xbc6e6a5f	-0.014551728
146	0x3c6b0632	0.014344739
147	0x3d4a1eac	0.049345657
148	0xbcefa6a0	-0.029254258
149	0xbd59eeb7	-0.05320617
150	0xbca57095	-0.020195285
151	0x3d10ef44	0.03538443
152	0x3af543e9	0.0018712255
153	0x3c971c09	0.018445985
154	0xbc39c74b	-0.011339019
155	0x3d19f87b	0.037590485
156	0xbd108347	-0.035281446
157	0xbcf189b4	-0.029484607
158	0xbca2d376	-0.019876223
159	0xb9e008b7	-0.00042731102
160	0xbca15c9e	-0.019697484
161	0x3d3b6959	0.045754764
162	0xbca4b8f1	-0.020107718
163	0x3c9dc4aa	0.019258816
164	0x3cce31ab	0.025170168
165	0x3bfcc636	0.0077140583
166	0xbd23134f	-0.039813336
167	0xbcb0a531	-0.021563144
168	0xbc5f760b	-0.0136389835
169	0x3b674e3d	0.0035294436
170	0x3c10f1b1	0.008846686
171	0x3d3cb817	0.046074
172	0x3cf779ac	0.030209385
173	0xbc9958f2	-0.01871917
174	0x3cdbf848	0.026851788
175	0x3d238fc7	0.03993204
176	0xbc87b385	-0.016565094
177	0xbcb6d33e	-0.022317525
178	0xbc783f99	-0.015151882
179	0xbd8cf49f	-0.06882595
180	0xbcab1f31	-0.020888897
181	0x3c0bb62e	0.008527322
182	0x3d5a3dbb	0.053281527
183	0x3ce1fec3	0.0275873
184	0x3d1c692d	0.03818624
185	0xbd05cca3	-0.03266586
186	0x3d19b0ee	0.03752225
187	0xbca899fb	-0.020581236
188	0x3d0f0888	0.034920245
189	0x3cc3de45	0.023909697
190	0x3d38d57d	0.045125473
191	0xbc31246d	-0.010811907
192	0x3d28a588	0.041173488
193	0x3c297aa5	0.010344182
194	0xbb954cd3	-0.0045562773
195	0xbb9775d7	-0.004622202
196	0xb97a753b	-0.0002388553
197	0xbd0c8699	-0.03430805
198	0x3c419b8d	0.011816871
199	0x3d730492	0.05933053
200	0xbcc66f74	-0.024223067
201	0x3c415bf5	0.011801709
202	0x3d8673fa	0.065650895
203	0xbc179aeb	-0.009253244
204	0x3ca83864	0.020534702
205	0x3a9e78b5	0.0012090417
206	0x3c02f317	0.007992527
207	0xbc4cc360	-0.012497753
208	0x3d5b95ce	0.05360966
209	0xbb09c6f6	-0.002102313
210	0x3d5c0b42	0.053721674
211	0xbd4b1b9a	-0.04958687
212	0x3c2b13b5	0.01044171
213	0x3d428f08	0.047499686
214	0xbd36a1f3	-0.04458804
215	0x3d01d872	0.03170056
216	0xbc9c0e13	-0.01904968
217	0x3c446ff8	0.011989586
218	0xbcae21a4	-0.021256275
219	0xbca81669	-0.020518498
220	0xbccf3e16	-0.02529816
221	0xbc7c60f1	-0.015403972
222	0x3d410802	0.047126777
223	0x39db5948	0.00041837455
224	0x3cc264ed	0.023729766
225	0x3d378b2c	0.04481046
226	0xbd347ddb	-0.044065338
227	0x3d1ed1f4	0.038774446
228	0xbc30280a	-0.010751734
229	0x3c6f4d1c	0.014605787
230	0x3ac5f2f5	0.0015102314
231	0x3d240d6e	0.04005187
232	0xbd5eb99e	-0.054376237
233	0xbc3ecbc1	-0.011645258
234	0xbd176704	-0.036963478
235	0xbd814e71	-0.0631379
236	0xbd6c62bd	-0.05771135
237	0xbc6e98db	-0.014562811
238	0xbd6aea05	-0.057352085
239	0xbba598a3	-0.005053596
240	0x3c21897b	0.009859438
241	0x3c819d30	0.015822023
242	0xbc352c13	-0.011057871
243	0x3ce97721	0.028499188
244	0x3d0c3747	0.034232404
245	0x3d1760f5	0.0369577
246	0xbc8c3a38	-0.017117605
247	0x3d2a8151	0.041627232
248	0x3bdaa813	0.006672868
249	0xbb404fc8	-0.0029344428
250	0x3cd5cf80	0.02609992
251	0x3d1c64db	0.03818212
252	0xbd815f85	-0.06317047
253	0xbd66c9fb	-0.056344967
254	0xbcbb0a94	-0.022832192
255	0xbd2aa316	-0.041659437

layer3.2.bias f4 [44]
0	0x3d41f099	0.047348592
1	0x3cf62da0	0.030051053
2	0xbb79c9d3	-0.0038114681
3	0xbd5f131c	-0.054461583
4	0xbd6613cd	-0.056171227
5	0x3c9044ec	0.01761099
6	0x3d5d5630	0.054037273
7	0x3d32129a	0.04347477
8	0xbbe0f2aa	-0.0068648653
9	0xbd28bb25	-0.0411941
10	0xbc9c1ef1	-0.019057723
11	0x3c7d0c56	0.015444836
12	0x3d339060	0.04383886
13	0x3cf8067e	0.030276533
14	0xbd55d412	-0.0522042
15	0xbd4d004d	-0.050049115
16	0xbd5c957e	-0.053853504
17	0x3c1fcb1a	0.009753013
18	0xbc015393	-0.007893461
19	0x3b9840d7	0.0046464014
20	0xbd3a671f	-0.0455085
21	0xbc8059ca	-0.015667815
22	0x3a074924	0.000516074
23	0xbccf42d4	-0.02530042
24	0xbc2d793a	-0.010587985
25	0xbd388d17	-0.04505643
26	0xbbc6366b	-0.0060489676
27	0xbd1b2781	-0.03787947
28	0x3d5523c3	0.05203606
29	0x3b8f8278	0.0043795668
30	0xbd3169b9	-0.043313716
31	0x3cb74dba	0.02237593
32	0x3cae1374	0.02124951
33	0xbcc36aed	-0.023854697
34	0xba26a946	-0.0006357621
35	0x3ce9ca5e	0.028538879
36	0xbcadedb0	-0.021231502
37	0xbd07aeca	-0.033125676
38	0x3cdc8c5b	0.026922395
39	0x3cc422ef	0.023942439
40	0x3bdb894a	0.0066997157
41	0xbcc6423c	-0.024201505
42	0x3d470244	0.048586145
43	0xbcf952d1	-0.030434998

layer3.4.weight f4 [44]
0	0x3f801832	1.0007384
1	0x3f806f34	1.0033937
2	0x3f779202	0.96707165
3	0x3f8023c8	1.001092
4	0x3f7fbbd0	0.99895954
5	0x3f819f66	1.012677
6	0x3f7d8fa0	0.9904728
7	0x3f83d241	1.0298539
8	0x3f7f634b	0.99760884
9	0x3f7a6b88	0.9782033
10	0x3f813f15	1.0097376
11	0x3f80ee86	1.0072792
12	0x3f7ccce7	0.98750156
13	0x3f806a7b	1.0032495
14	0x3f7ce9ed	0.9879444
15	0x3f7e7279	0.9939342
16	0x3f7ebea1	0.99509627
17	0x3f80b91a	1.0056489
18	0x3f8105ad	1.0079857
19	0x3f7f4cd5	0.9972661
20	0x3f7a5474	0.97785115
21	0x3f8105c1	1.0079881
22	0x3f78212a	0.96925604
23	0x3f7bf793	0.98424643
24	0x3f810ea6	1.0082595
25	0x3f810973	1.0081009
26	0x3f7e8728	0.9942498
27	0x3f7f5e76	0.9975351
28	0x3f7f72ef	0.9978475
29	0x3f7a59ad	0.97793084
30	0x3f81115c	1.0083423
31	0x3f7882d2	0.97074616
32	0x3f809ee0	1.0048485
33	0x3f7d1804	0.9886477
34	0x3f803250	1.0015354
35	0x3f8193d8	1.0123243
36	0x3f7ed8eb	0.9954974
37	0x3f859af7	1.0437917
38	0x3f7bbc75	0.9833444
39	0x3f81ba16	1.0134914
40	0x3f7c979e	0.9866885
41	0x3f7b2479	0.9810253
42	0x3f7df6b6	0.99204576
43	0x3f7f77d2	0.99792206

layer3.4.bias f4 [44]
0	0xbaa7ff18	-0.0012817113
1	0xbcc4b444	-0.024011739
2	0xbc46aa17	-0.0121255135
3	0x3bcb7022	0.0062084356
4	0xbc90b617	-0.017664952
5	0x3c0e6b30	0.008692548
6	0x3c17ee83	0.009273174
7	0xba7a08e7	-0.000953807
8	0xbc72a00a	-0.014808664
9	0x3be2549b	0.0069070584
10	0x3ca08bec	0.01959797
11	0x3c13b16a	0.009014467
12	0xbcd09888	-0.025463358
13	0x3c64c655	0.013963302
14	0x3c242bab	0.010020177
15	0xbca31bc9	-0.01991071
16	0xbad27f80	-0.0016059726
17	0xbc4e3cd7	-0.012587748
18	0x3c288dd9	0.010287725
19	0xbcb350bc	-0.021889083
20	0xbafd901c	-0.0019345316
21	0x3cf2c2f4	0.029633977
22	0xbd0733b8	-0.033008307
23	0x3b15b002	0.0022840505
24	0x3bc8d0a5	0.006128388
25	0x3c369c12	0.0111456085
26	0xbbc36533	-0.0059629916
27	0xbc6d9789	-0.014501461
28	0x3c891d94	0.016737737
29	0xbc5bbc96	-0.013411662
30	0xbc713635	-0.014722397
31	0xbc583b98	-0.013197802
32	0xbb09680f	-0.0020966565
33	0x3c942cff	0.018087862
34	0xbb95ece7	-0.00457536
35	0x3c1420d4	0.00904103
36	0xbcc617f2	-0.02418134
37	0x3ba16cad	0.0049262852
38	0x3b89033e	0.0041812947
39	0x3cc4da1e	0.024029788
40	0xbc5ac7a3	-0.013353261
41	0x3b8d2aa1	0.0043080603
42	0xbca1496c	-0.01968833
43	0x3c05e411	0.008172051

layer3.4.running_mean f4 [44]
0	0x3f39a215	0.7251294
1	0x3e65a6ed	0.22426958
2	0x3f21d540	0.6321602
3	0x3decf379	0.11569876
4	0x3d23b158	0.03996405
5	0x3e3ba1cb	0.18323438
6	0x3f368711	0.71299845
7	0x3c03d1e6	0.008045649
8	0x3dcad1a1	0.09903265
9	0x3ebe0d7f	0.37119672
10	0x3ea7d01f	0.3277597
11	0x3efc2748	0.4924872
12	0x3ed945cf	0.42436072
13	0x3d8ea7f8	0.06965631
14	0x3226e983	9.715566e-09
15	0x3d869251	0.065708764
16	0x3e16038b	0.14649789
17	0x3ccf5e5c	0.025313549
18	0x3e78cefa	0.24297705
19	0x3ee32d73	0.44370613
20	0x3e36e8fb	0.17862312
21	0x3d3bf2bf	0.045885798
22	0x3e9ef1ff	0.31044003
23	0x3d1e2a37	0.038614478
24	0x3db7f197	0.089816265
25	0x2eedd9bb	1.0816189e-10
26	0x3e18dc0f	0.14927696
27	0x3f2fafdf	0.68627733
28	0x3ee5db7a	0.4489401
29	0x3e7028c7	0.23453055
30	0x3e3dae3c	0.18523496
31	0x3ea38795	0.31939378
32	0x3e6f19cd	0.23349686
33	0x3f18d9c7	0.597073
34	0x3f032210	0.5122385
35	0x3ed142f5	0.40871397
36	0x3f1c8ee0	0.6115551
37	0x391de606	0.00015058377
38	0x3e017bc3	0.12644868
39	0x3de7d2d7	0.113195114
40	0x3f1742a5	0.59086066
41	0x3ccae1d1	0.02476588
42	0x3e0aede4	0.1356731
43	0x3debe5f0	0.115184665

layer3.4.running_var f4 [44]
0	0x3f2b6d73	0.6696388
1	0x3dd5def3	0.10442915
2	0x3f31a236	0.6938814
3	0x3d5975d3	0.05309088
4	0x3cd477b3	0.025935983
5	0x3dd3a2c1	0.10333777
6	0x3ed250b5	0.410772
7	0x3b3dffdf	0.0028991622
8	0x3d3c69ff	0.045999523
9	0x3dea5fe4	0.11444071
10	0x3defc0f8	0.11706728
11	0x3e2ebe32	0.17064741
12	0x3e43af8a	0.19109932
13	0x3cf5715b	0.029961279
14	0x34d481eb	3.9582605e-07
15	0x3d42beb5	0.047545154
16	0x3e02be95	0.12768014
17	0x3c6233cd	0.013806296
18	0x3e0fb32f	0.14033197
19	0x3e95265a	0.29130822
20	0x3e05505d	0.13018937
21	0x3cfd8a78	0.030949816
22	0x3e1ad8c4	0.15121752
23	0x3c3abfa3	0.011398229
24	0x3d2d4143	0.042298567
25	0x34d2c86b	3.926137e-07
26	0x3dc012ce	0.09378587
27	0x3f541a27	0.82852405
28	0x3e579e8b	0.21056573
29	0x3e01940e	0.12654135
30	0x3dd1c5aa	0.102427796
31	0x3dba71b0	0.091037154
32	0x3e92e290	0.28688478
33	0x3e12fa7c	0.14353365
34	0x3e3b305f	0.18280171
35	0x3e4a1069	0.19732822
36	0x3eb84b06	0.35994738
37	0x389f7ab0	7.604563e-05
38	0x3d139903	0.036034595
39	0x3d44aa6a	0.048014082
40	0x3e8963d5	0.26833978
41	0x3c7c24cd	0.015389633
42	0x3d841a5a	0.06450339
43	0x3db60a9a	0.08888741

layer4.0.weight f4 [20, 44, 1, 1]
0	0x3ba50bb5	0.005036796
1	0x3c108ec9	0.008823105
2	0xbc2e0648	-0.010621615
3	0x3d41d2de	0.04732024
4	0xbc1f9b8c	-0.009741675
5	0x3d5e2691	0.054236
6	0xbd4c4b1e	-0.049876325
7	0x3e292b1a	0.16520348
8	0x3de95a00	0.11394119
9	0x3db4c9b5	0.08827535
10	0xbdd20353	-0.1025454
11	0xbde737bb	-0.112899266
12	0xbe093cda	-0.1340212
13	0xbd31555b	-0.043294292
14	0xbdd5bd06	-0.10436444
15	0xbdb2dd3c	-0.08733603
16	0xbe024ef6	-0.12725434
17	0x3b539e6b	0.003229047
18	0xbb18d9c7	-0.0023323165
19	0xbd29ddc4	-0.041471258
20	0x3de9be1f	0.11413216
21	0xbdc3647d	-0.09540651
22	0x3d9a732e	0.075415
23	0xbddd0525	-0.10791997
24	0x3c1453d1	0.0090531865
25	0xbe1ce182	-0.153204
26	0xbe1382f0	-0.14405417
27	0xbdb8857a	-0.09009834
28	0x3e07c0eb	0.13257186
29	0x3d36c544	0.04462172
30	0x3e2def14	0.16985732
31	0xbd254a03	-0.040353786
32	0xbdf30e5d	-0.11867974
33	0xbe26840f	-0.16261314
34	0xbe2946f3	-0.16530971
35	0xbdb10641	-0.08643771
36	0x3cba60c2	0.022751216
37	0x3d7df053	0.06199677
38	0xbc5f84e1	-0.013642521
39	0xbdaddf18	-0.084898174
40	0x3de44b9d	0.111472346
41	0x3da3b310	0.07993138
42	0x3def327f	0.11679553
43	0x3dff9850	0.12480223
44	0xbd320069	-0.043457422
45	0xbdaff8b1	-0.08592356
46	0x3d9890d5	0.074494995
47	0x3dced0a3	0.10098388
48	0xbba6af48	-0.005086813
49	0x3e01ea3e	0.12687013
50	0x3dc960ec	0.098329395
51	0x3def5e3c	0.11687896
52	0xbe12a4d8	-0.14320695
53	0x3db5c6b7	0.088757925
54	0xbd82b591	-0.06382287
55	0xbe1ae366	-0.15125808
56	0xbd1185d7	-0.03552803
57	0xbd0ca3d5	-0.03433593
58	0x3dce7dce	0.10082589
59	0xbdab6f80	-0.08370876
60	0xbd84ce02	-0.06484605
61	0xbdea37c0	-0.11436415
62	0xbded8066	-0.11596756
63	0xbdbdca0f	-0.09267055
64	0x3d046dad	0.032331157
65	0x3e13c498	0.14430463
66	0xbd9e1c79	-0.077202745
67	0xbe09a217	-0.13440739
68	0x3dfd2ae3	0.123616956
69	0xbcada490	-0.021196634
70	0xbda2708d	-0.079316236
71	0x3d8a34bc	0.067483395
72	0x3d23b36f	0.039966043
73	0xbd3b85b5	-0.04578181
74	0xbd8ce03a	-0.06878705
75	0x3dcc44fb	0.099740945
76	0xbdc9d4f6	-0.09855072
77	0xbc5eba07	-0.013594157
78	0x3d9ee258	0.077580154
79	0xbccfc573	-0.025362706
80	0x3e0927ea	0.13394132
81	0x3dd24e56	0.10268848
82	0x3d59bbbf	0.053157564
83	0xbe0fda97	-0.14048229
84	0x3e1311a8	0.14362204
85	0xbd79ade6	-0.060956858
86	0xbd7f04a3	-0.06226028
87	0x3df12a17	0.11775606
88	0xbd8de38c	-0.06928167
89	0xbe2a2553	-0.166158
90	0xbe048620	-0.1294179
91	0x3e0c23aa	0.1368548
92	0xbe00debd	-0.12584968
93	0x3ca92b12	0.02065042
94	0x3dc7081d	0.09718344
95	0x3d935c29	0.071953125
96	0xbc8b80a8	-0.017029122
97	0x3d96039f	0.073249094
98	0x3e1b9a63	0.15195613
99	0xbdb47a32	-0.088123694
100	0xbd8e1837	-0.06938212
101	0xbca2fc0f	-0.019895582
102	0xbe003208	-0.12519085
103	0xbda26f68	-0.07931405
104	0xbe11ecec	-0.14250535
105	0xbdacf410	-0.08444989
106	0xbd62cff5	-0.055374105
107	0xbded55fc	-0.11588666
108	0xbd12722c	-0.035753414
109	0x3c618583	0.013764742
110	0xbd8950ff	-0.06704902
111	0x3d92143b	0.07132765
112	0x3d5c9f20	0.05386269
113	0xbd965ef6	-0.07342331
114	0xbbdceabe	-0.0067418506
115	0xbd91e4c4	-0.07123712
116	0x3d95abcb	0.073081575
117	0xbdfb02e6	-0.12256412
118	0xbe12ae46	-0.14324293
119	0xbdd39093	-0.1033031
120	0xbdb825f5	-0.08991615
121	0xbd84856d	-0.064707614
122	0xbe09c219	-0.13452949
123	0xbce857c4	-0.028362162
124	0xbd8db789	-0.06919772
125	0xbdb76d83	-0.089564346
126	0x3d3481a1	0.044068936
127	0x3de1cee6	0.11025791
128	0xbd87c293	-0.06628909
129	0xbd474f9f	-0.048659917
130	0xbe19dd6a	-0.15025869
131	0xbd83342e	-0.06406437
132	0xbc751369	-0.014958241
133	0x3d167fff	0.03674316
134	0x3d967f7e	0.07348536
135	0xbcc5dc40	-0.024152875
136	0x3dcc2393	0.09967723
137	0x3dc38e13	0.09548583
138	0xbdba1169	-0.09085352
139	0x3e3145ac	0.17311734
140	0xbdda764b	-0.10667094
141	0xbd6cda67	-0.057825472
142	0xbbf28096	-0.0074005825
143	0xbde5872f	-0.11207425
144	0x3df66696	0.120312855
145	0xbd31c3c2	-0.04339958
146	0x3da55f98	0.08074874
147	0xbdd19c1b	-0.10234853
148	0xbe1865e9	-0.14882626
149	0x3c76c7d1	0.015062288
150	0xbe006e08	-0.12541974
151	0xbdaff0a4	-0.085908204
152	0xbd228af7	-0.03968331
153	0x3df268d9	0.11836404
154	0xbd8b6c11	-0.068077214
155	0x3d434268	0.04767075
156	0xbe1d058f	-0.15334152
157	0xbdadc3fa	-0.08484645
158	0xbd0c50a1	-0.03425658
159	0x3dc7f9aa	0.097644165
160	0x3dedac44	0.11605123
161	0xbda5f927	-0.08104163
162	0xbe15cb67	-0.14628373
163	0xbdba82c3	-0.09106972
164	0xbd3baa06	-0.045816444
165	0xbd96b0f5	-0.073579706
166	0xbd57cb4e	-0.05268412
167	0xbda935a3	-0.082621835
168	0x3d92527a	0.071446374
169	0xbd52d5e5	-0.051473517
170	0xbe17fac5	-0.14841755
171	0xba667841	-0.0008791723
172	0xbe1ffa83	-0.15622906
173	0x3d7ef277	0.06224295
174	0x3dfe60e4	0.12420824
175	0xbd289a18	-0.04116258
176	0xbd52e61c	-0.05148898
177	0x3dcb4503	0.09925272
178	0x3b1af457	0.0023644173
179	0xbd86f7f4	-0.06590262
180	0xbe146bd1	-0.14494254
181	0xbd4c87d1	-0.049934212
182	0x3ccfc54c	0.025362633
183	0xbe09d221	-0.13459064
184	0xbc4fe9f8	-0.01269006
185	0xbcfb5768	-0.030681327
186	0x3d6f0d76	0.058362447
187	0x3dcfac78	0.10140318
188	0x3be89715	0.0070980885
189	0x3d903162	0.07040669
190	0x3c72211e	0.014778404
191	0xbdf704e2	-0.12061478
192	0xbe07929b	-0.1323952
193	0x3c0c2bf4	0.008555401
194	0xbcbe729a	-0.023248006
195	0x3dc28ee2	0.09499909
196	0x3d9c1146	0.07620482
197	0x3e015c5f	0.12632893
198	0xbd8ffe3b	-0.070309125
199	0xbcc88a8d	-0.024480129
200	0xbdfbb510	-0.12290394
201	0xbe0eb0fc	-0.13934702
202	0xbdbc7c5f	-0.092034094
203	0x3d3d93ea	0.04628364
204	0x3e045502	0.12923053
205	0x3c3b6ecf	0.011439993
206	0x3e27f9f6	0.16403946
207	0x3d831f05	0.06402401
208	0x3986f3ab	0.00025740018
209	0x3cf9dec7	0.030501736
210	0x3cd3c0af	0.025848715
211	0xbd01b516	-0.031666838
212	0xbdd1bc35	-0.10240976
213	0x3dc922d8	0.09821099
214	0x3d55d97f	0.052209374
215	0x3dd66f7e	0.10470484
216	0xbdd7ceba	-0.10537477
217	0x3df64950	0.12025702
218	0x3db32765	0.08747748
219	0x3e19e7a4	0.1502977
220	0x3dc471f8	0.0959205
221	0x3d64450a	0.055729903
222	0xbdc5ce14	-0.09658447
223	0x3d91ec49	0.07125146
224	0xbe1c1ecc	-0.15246123
225	0x3dcbd1b4	0.09952107
226	0x3db88120	0.09009004
227	0xbe1a955f	-0.15096043
228	0x3e350bf7	0.17680345
229	0x3de59488	0.11209971
230	0x3dabc8f6	0.0838794
231	0xbd0ca629	-0.03433815
232	0xbdf83695	-0.12119786
233	0xbda805e5	-0.08204249
234	0xbe0c2c12	-0.13688686
235	0x3d7f109a	0.06227169
236	0xbccdb3db	-0.025110176
237	0xbd1eeb7c	-0.038798794
238	0x3e0ffd79	0.14061536
239	0xbd36cd7f	-0.04462957
240	0x3dfdf6ee	0.12400614
241	0x3c85bda6	0.016325783
242	0x3d800448	0.062508166
243	0x39de42bb	0.00042392858
244	0xbe0241fd	-0.12720485
245	0xbdf747ae	-0.12074219
246	0x3d003d93	0.03130872
247	0x3c9f6ea0	0.01946193
248	0x3da0da26	0.078541085
249	0x3d24e7d7	0.040260162
250	0xbe01c8e7	-0.12674294
251	0x3decead2	0.11568226
252	0xbdc192f0	-0.09451854
253	0xbd66e7a6	-0.05637326
254	0x3df458fe	0.119310364
255	0x3dcab6e3	0.09898164

layer4.0.bias f4 [20]
0	0x3e0668d9	0.13125934
1	0xbdb364d3	-0.08759465
2	0x3d548790	0.051887095
3	0xbe15ec71	-0.14640976
4	0xbca7baa6	-0.020474743
5	0x3cb749bc	0.022374026
6	0xbe30c629	-0.17263092
7	0x3dcbb6b1	0.09946955
8	0x3de57c5f	0.112053625
9	0x3c3a5649	0.011373111
10	0x3dcaed11	0.09908498
11	0xbdc34fc3	-0.09536698
12	0x3da24d06	0.07924847
13	0x3d6975af	0.056996997
14	0x3dfc6659	0.12324209
15	0x3d64f237	0.055895057
16	0xbdbe61a9	-0.09295971
17	0xbdd35a7d	-0.10319994
18	0x3dd0f111	0.1020223
19	0x3d017609	0.031606708
