modelv1/ClassifiedModel_v3.pt (torch_old, 120643 bytes, 38 tensors)

layer1.0.weight f4 [8, 3, 5, 5]
000000 0e 6c d0 bd 2b 93 e4 3d e6 33 da bc 51 da 69 3d
       -0.1017686 0.111608826 -0.026636075 0.05709297
000010 e7 a8 b5 bc 01 1f 97 bd 9f 35 0d 3d 00 e9 8d 3d
       -0.022175265 -0.073789604 0.034474965 0.06929207
000020 61 88 33 3d 1f fc 82 3d 22 1b 41 3d 57 9c a5 bb
       0.043831233 0.063957445 0.047145016 -0.0050540376
000030 28 62 80 3d 8a 0c 3d bd a7 a8 4b 3d 25 5e d0 3c
       0.06268722 -0.046154536 0.049721386 0.025435517
000040 3a 20 b8 bd 74 bf e1 3c b1 d8 35 3c 6a df 3d bd
       -0.08990522 0.027557112 0.011099027 -0.046355642
000050 80 fe 4f bd 56 4e 6c 3d 28 3b a4 3c 8c eb 2f bd
       -0.05077982 0.057691894 0.02004774 -0.042949244
000060 57 e4 ad 3c 25 35 e7 3d 4b a2 ab 3d 5b 36 8f bd
       0.021227045 0.112894334 0.08380564 -0.06992789
000070 92 1c db bd 87 bb 50 3d a7 38 24 bb 90 60 20 bc
       -0.10698809 0.05096009 -0.0025058181 -0.009788647
000080 80 07 60 3d 9e 00 e6 bd 11 09 58 3d 93 08 ca bd
       0.054694653 -0.112305865 0.05274302 -0.09864917
000090 11 46 c5 3d 59 5b c9 bd ca 35 be bd cc 83 b6 bc
       0.09632505 -0.09831876 -0.09287603 -0.022279643
0000a0 d7 01 92 bc a8 6e a3 bd 07 28 5d bb 41 64 1e bd
       -0.017823143 -0.079800904 -0.0033745782 -0.03866983
0000b0 93 38 7b bd 60 22 5d bd df 5b b9 bc 11 0e 6e bd
       -0.06133325 -0.05398786 -0.022626815 -0.058118884
0000c0 fe 8b e6 3d 7f f6 a7 3d 56 6e ac 3d b2 e7 8f 3c
       0.1125717 0.08201312 0.084194824 0.017566536
0000d0 93 6c 91 3d c0 b3 bf bd 4a 7f da 3b b1 fa e5 3c
       0.07100787 -0.093604565 0.006668006 0.02807364
0000e0 1b 7e 2b 3d 2d 00 35 3d 9e fa e0 bd c1 06 96 3c
       0.04186831 0.04418962 -0.109853014 0.018313767
0000f0 27 2b 7d 3c 4a b9 5c bd 28 93 b1 bd 7d b8 3b bd
       0.015452183 -0.053887643 -0.08670646 -0.04583024
000100 7d 51 68 bc b7 73 12 bd 89 8b ac bc 36 d7 e0 3c
       -0.014179585 -0.035754886 -0.02106263 0.02744637
000110 c2 62 5d bd f0 d3 3c 3d 50 76 ad 3d a4 eb b7 3d
       -0.05404926 0.046100557 0.08469832 0.08980492
000120 ea be e2 3d 29 ae 60 3d cd b1 37 bd bb da a4 bd
       0.1107157 0.054853592 -0.0448473 -0.08049532
000130 26 6e c1 bd 6a 71 b3 bd 73 c3 dc bd 87 c7 4e 3d
       -0.09444837 -0.087618664 -0.107794665 0.050483253
000140 e6 82 e5 3d df a7 6a bd 13 db 1d 3d 7d ea cf 3d
       0.112066075 -0.057289 0.038539004 0.10152147
000150 2a db 60 bd 66 e9 92 3c ea 42 ec bd 7e 39 8c 3d
       -0.05489651 0.017933559 -0.115362 0.06846903
000160 78 96 98 3d 91 4f 60 3d fa e4 a5 3d 15 ed 73 bd
       0.07450575 0.05476338 0.081003144 -0.05955227
000170 77 d2 17 bd ce 7e 1b bd 9c 8e 99 bd 42 35 f7 ba
       -0.03706595 -0.037962727 -0.07497904 -0.0018860477
000180 30 a8 be bc e8 d1 54 bd 2d 60 c0 3d 64 86 92 3d
       -0.023273557 -0.051957995 0.09393344 0.07154539
000190 d2 4b ab bd 9c ac d5 3c 43 9e 5b 3d b2 03 2f 3d
       -0.08364071 0.026083283 0.053617727 0.042728133
0001a0 d3 b6 e2 3d c7 f7 ad 3d bd 8f 2e 3d 5c e5 37 3c
       0.11070027 0.084945254 0.04261755 0.011224117
0001b0 95 4e d7 3c d3 e2 e5 3d 25 13 76 3d 43 58 cf bd
       0.026282588 0.11224904 0.06007685 -0.101242565
0001c0 12 ea b8 3d 52 f9 7d bd 7d ec e6 bc 3d 05 93 3d
       0.0902902 -0.06200535 -0.028188938 0.071787335
0001d0 1a 13 8a bd 91 df ac 3d 28 7b 0b 3d 70 28 e0 bd
       -0.067419246 0.084410794 0.034052998 -0.10945213
0001e0 f5 7b cd bd b6 27 8b bd a2 1d 91 bd e9 b9 d3 bd
       -0.100334086 -0.06794684 -0.0708573 -0.10338194
0001f0 99 8a bf bd 67 83 8d 3d 14 6a 3f bc bb 3c 2c bd
       -0.09352607 0.06909829 -0.011683006 -0.042050105
000200 96 68 ca bc 8c d8 ea bc a4 b1 b9 3d 8f 47 a5 bd
       -0.024708074 -0.02866771 0.090670854 -0.08070289
000210 ee 84 04 bd 25 39 d7 bd 6a c0 ca bd 21 aa 97 3d
       -0.032353334 -0.10508946 -0.09899981 0.074054964
000220 6a 4c dd bd 31 77 c4 bd c2 b3 06 3d d6 45 df 3d
       -0.108055905 -0.095930465 0.032886274 0.10901992
000230 7f 32 b7 3c 80 77 d5 bd 80 0d 3d 3d 1c 20 4b 3d
       0.022362946 -0.104231834 0.046155453 0.04959117
000240 6c 05 86 bd 81 2e 81 bc 5f bf bf 3d f9 89 bd bd
       -0.06544003 -0.015769245 0.09362673 -0.09254832
000250 26 b6 ac bd d2 12 ae 3d b7 3e 9d 3c 8c 17 c8 bd
       -0.084331796 0.084996834 0.019194944 -0.09770116
000260 c0 3a 0c 3d 2a bd 70 3d 07 92 43 3d 7e 75 ed 3d
       0.034235716 0.05877415 0.047746684 0.115946755
000270 6a 6e 33 bd 20 5e f7 ba 78 69 ac bd 09 6e 4e 3d
       -0.04380647 -0.0018872656 -0.08418554 0.050397906
000280 9d 04 11 bd 7d ab bc 3d 71 0b 60 3c e2 80 c6 3d
       -0.03540479 0.09212396 0.013674603 0.09692551
000290 d5 5a cc bd c8 76 0e 3d a9 fe d9 bd 8c b5 4a 3d
       -0.09978262 0.034781247 -0.10644276 0.049489543
0002a0 fe 88 b8 3d 2f fa 8f 3d 0a d2 00 3d 8f 38 29 bd
       0.09010504 0.070301406 0.03145031 -0.041313704
0002b0 0c ba 0a bc 9f 89 75 3d 3f 46 c3 3d 6e cf 58 ba
       -0.008467209 0.0599457 0.09534883 -0.00082706555
0002c0 04 52 e6 3d 53 fe 87 bd a6 f7 e1 3d b7 d5 e4 bd
       0.11246112 -0.06640305 0.11033563 -0.11173575
0002d0 74 72 51 3d c6 03 cc 3c fe 2b cb bd 1e 2d c8 bd
       0.05113454 0.024904143 -0.099205 -0.097742304
0002e0 bd 93 b0 bd f3 63 49 bd a1 b3 b4 3d bc 92 ab bd
       -0.08621929 -0.049167585 0.08823324 -0.08377597
0002f0 0e 4c b6 bd 9a 41 54 bd f2 7c 9d 3d 38 8c da bd
       -0.08901225 -0.051820375 0.07689847 -0.10671276
000300 9d d9 d6 bd 79 64 a2 bd df 9e 67 bd 34 f7 63 bd
       -0.10490725 -0.0792932 -0.056547996 -0.055655673
000310 95 2c 3e 3d 75 9f 8b bd 85 82 ca 3c 84 59 25 bd
       0.046429235 -0.068175234 0.02472044 -0.040368572
000320 ab 82 df bd f6 d2 b8 3d eb 93 46 3d 70 89 43 bd
       -0.10913595 0.090246126 0.04848091 -0.047738492
000330 d0 8a ad bd 18 22 96 3d d3 5b db bc 05 6e ba bc
       -0.08473742 0.073307216 -0.026777184 -0.02275754
000340 78 cc d4 3b cb c2 8a bc fe 5f 9c 3d 6d 46 23 bc
       0.006494101 -0.016938588 0.076354966 -0.009965521
000350 03 21 38 3b b5 77 91 3c c8 62 17 3c 94 d8 67 bd
       0.0028095848 0.017757276 0.00923986 -0.05660303
000360 4a e9 a3 bd 8e f8 97 3d 0e f4 0f bb 8d 46 77 3c
       -0.08003481 0.07420455 -0.0021965536 0.015092504
000370 fa 9e 7f bd f1 90 d8 3d 89 6b c8 bd b7 17 b9 bd
       -0.06240747 0.105745204 -0.09786136 -0.09037726
000380 62 9f 8a 3c bb f0 8e ba cb 97 02 bc 1d bf 53 3d
       0.016921703 -0.0010905484 -0.007970761 0.05169593
000390 a0 26 3e bd 30 6a c5 3d 79 ef 1e 3d 7d 3c b9 bd
       -0.046423554 0.09639394 0.038802598 -0.0904474
0003a0 d1 b9 89 3d 1d c0 25 bd e6 c8 90 3d ec 35 06 bd
       0.06724895 -0.040466417 0.07069568 -0.032766268
0003b0 1e 80 37 bb 9c de 12 bd 7f af 11 3c 08 de 04 3d
       -0.0027999948 -0.035856828 0.008891939 0.032438308
0003c0 34 da da 3d 1c 62 bb bd 85 52 83 bd a4 c0 c0 3d
       0.1068615 -0.09149572 -0.06412224 0.09411743
0003d0 88 44 a1 bc ab 12 be bd 5d 03 db 3b 0d 7c 92 3a
       -0.019685999 -0.092809044 0.0066837505 0.0011175886
0003e0 f2 b7 52 3d df d2 ae 3d 1e 0d 38 3d af 33 de bb
       0.051444955 0.08536314 0.044934385 -0.0067810635
0003f0 1e f0 8b 3d ee 74 55 3d a2 e7 d2 bc 76 6c 2c bd
       0.06832908 0.052113466 -0.025745217 -0.042095624

layer1.0.bias f4 [8]
000000 72 30 8c 3b 11 09 e6 bd fd 63 9b 3d 2a 75 50 bd
       0.004278236 -0.11232198 0.075874306 -0.050892986
000010 aa 5b b5 bd 9e 1c af 3d 34 85 d1 3c a0 23 76 bb
       -0.08855374 0.0855038 0.025576212 -0.0037557855

layer1.2.weight f4 [8]
000000 93 bf 80 3f 79 2e 7f 3f 53 40 7f 3f 1a 4b 7f 3f
       1.0058464 0.99680287 0.99707526 0.9972397
000010 dc 55 7f 3f 18 94 80 3f b9 d2 7e 3f 01 af 7f 3f
       0.99740386 1.0045195 0.9954029 0.9987641

layer1.2.bias f4 [8]
000000 78 19 e1 ba 0a 7b 6b 3b 2c 1e b1 39 4e 49 5d bb
       -0.0017173728 0.0035931491 0.0003378255 -0.0033765617
000010 5f dd 8f bb 38 0c 80 3b b3 a5 f4 ba f0 12 2f 3a
       -0.004390403 0.0039077066 -0.0018665105 0.0006678542

layer1.2.running_mean f4 [8]
000000 84 8a 86 3d 6e 87 a4 38 b7 5c d0 3b f6 48 a2 3e
       0.065693885 7.845355e-05 0.0063587087 0.3169629
000010 0b d0 e8 3b c5 14 6c 3e 35 98 bf 3c 5f 25 98 3a
       0.007104879 0.23054798 0.023388008 0.0011607817

layer1.2.running_var f4 [8]
000000 08 9f 3c 3b 78 62 c6 37 17 2c 3c 3a 34 df 19 3d
       0.0028781313 2.3649292e-05 0.0007178201 0.03756638
000010 6c 94 9b 39 56 68 07 3c 56 7e f9 3a 54 e6 cd 38
       0.00029674487 0.008264622 0.0019034843 9.818064e-05

layer2.0.weight f4 [14, 8, 3, 3]
000000 82 0a ad bd 76 35 cc bd 5d 46 d5 3d f3 82 8c bd
       -0.0844927 -0.09971134 0.10413811 -0.06860914
000010 f5 52 cf bd 46 ea 74 bd d1 bf 58 3d 7f b0 af 3d
       -0.10123245 -0.059793733 0.052917305 0.08578586
000020 cc 51 0f bd 4a 31 e6 3c ba 3f 9e bc e2 0c 99 bd
       -0.034990117 0.028099675 -0.019317497 -0.0747316
000030 6c 35 a9 bd c1 54 8c 3d ce 44 46 3d cd 10 bd 3d
       -0.082621425 0.06852103 0.04840546 0.0923172
000040 a1 4b 84 bd 5e 39 b1 bd 8a 9c b6 bd 7b 0f 98 bb
       -0.064597376 -0.0865352 -0.08916576 -0.0046405173
000050 05 a2 80 bc 51 f9 1a bd 04 9a 97 3d 9d 94 a9 3d
       -0.015702257 -0.037835423 0.07402423 0.08280299
000060 b7 67 ec 3d 71 2d 9a 3d 4a 64 4c bd 00 d8 d9 bc
       0.115432195 0.075281985 -0.04990033 -0.026592255
000070 01 b9 22 3d ab c6 8f 3d 8d 0a c9 39 90 d0 92 3d
       0.039727215 0.07020315 0.00038345568 0.071686864
000080 ad f9 6b bd 0d 8a 06 bd 66 22 b8 bc 71 74 5b 3d
       -0.057611156 -0.0328465 -0.02247734 0.053577844
000090 87 50 c7 3d f0 71 f1 3d 0a b5 21 bd ad 0d d3 3b
       0.09732156 0.1178931 -0.039479293 0.0064408393
0000a0 e1 e0 c7 3d df 32 23 3d 68 4f 90 bd 9b d4 45 3d
       0.09759689 0.039843436 -0.070463955 0.04829846
0000b0 37 ae f4 3c ae 90 f4 3b 86 85 43 bd 80 08 21 bd
       0.029868228 0.007463536 -0.04773476 -0.039314747
0000c0 a0 e5 10 3c cb e2 3c bd f8 ca a8 3d 12 dc aa bb
       0.008843809 -0.046114724 0.08241838 -0.0052142227
0000d0 a6 35 f3 bd c0 2f 98 bd 7a 21 94 3d 2c 6b 28 bd
       -0.11875467 -0.074309826 0.07232948 -0.041117832
0000e0 11 16 a5 bd 4a f5 8a 3d 00 7e 79 3d 10 16 86 bd
       -0.080608495 0.067850664 0.06091118 -0.06547177
0000f0 d5 85 91 3d 76 ca 47 bd f2 32 b1 3d 11 83 3b bc
       0.071056046 -0.048777066 0.08652295 -0.011444823
000100 b0 cf e1 bc 58 14 9a bd 92 d1 c7 3d 34 d7 7d b9
       -0.027564853 -0.075234115 0.09756769 -0.0002420813
000110 96 99 45 3d ee 54 a5 bd ce e1 7b bd 7a 71 a2 bc
       0.048242174 -0.0807284 -0.06149464 -0.0198295
000120 58 b2 cb 3c 7e eb 35 bc fc c4 f1 bd 3f e2 b5 bd
       0.024865314 -0.011103509 -0.1180515 -0.08881044
000130 9d 6c 62 3d dd dd 4b 3d 30 24 cc bd cf db 96 3d
       0.055279363 0.049772132 -0.0996784 0.07366144
000140 fb f6 69 bc 5f 15 17 bc 55 da 8e 3d e3 0f d5 3d
       -0.014280076 -0.009221404 0.06975237 0.10403421
000150 e9 31 da bd c9 07 01 3c 29 52 94 3c 74 5b 58 3d
       -0.10654051 0.007875391 0.018105583 0.05282159
000160 ae c2 80 3c 98 56 50 3d 07 f5 0d bd 47 23 b2 3d
       0.01571783 0.050863832 -0.034657504 0.08698135
000170 a8 3f 9e bd 02 17 b8 bb 2b 9b fa 3d b6 54 15 bd
       -0.07726985 -0.005617977 0.12236627 -0.03645774
000180 9e ef a4 bd ef ff f0 bd 6f 81 4b bc 80 68 25 3d
       -0.08053516 -0.117675655 -0.012420996 0.040382862
000190 df 23 91 3d 29 94 c0 bd 0c d7 84 3d 00 72 a4 bd
       0.0708692 -0.09403259 0.064863294 -0.08029556
0001a0 07 37 c8 bd d5 4c 88 bd 6d 3b 9c bd 06 a7 1b 3d
       -0.09776121 -0.066552795 -0.07628522 0.038001083
0001b0 fa 17 ec bd 98 94 90 ba 85 25 d8 bd c7 47 bd bd
       -0.11528011 -0.0011030613 -0.10554031 -0.09242206
0001c0 ec a8 c9 3d 98 f8 8f bd ff ea c1 3d 17 d2 de bd
       0.098466724 -0.07029837 0.0946865 -0.10879915
0001d0 69 dd e0 3d c5 1d e1 bd 80 5d 2f 3d f9 07 e0 3d
       0.10979731 -0.10992006 0.042813778 0.10939021
0001e0 ec 30 de bc f8 e1 0d bd 13 16 3f bd da f1 e9 bd
       -0.027122937 -0.03463933 -0.04665191 -0.11423083
0001f0 7c 83 58 bd 8e a9 a5 3d 03 7c e6 bd 8c 36 cc bd
       -0.05285977 0.080889806 -0.11254122 -0.099713415
000200 95 b6 c9 3d 71 09 8f bd 72 a7 49 bd 7c 0d 92 3d
       0.09849278 -0.06984223 -0.049231954 0.07131478
000210 a7 78 c4 3d 63 24 ba 3b 26 96 95 bd 08 b7 48 bd
       0.09593325 0.005680607 -0.07304029 -0.049002677
000220 12 44 07 bd 9c ce b9 bd fa 48 7e bd fe 7b 84 3d
       -0.0330239 -0.09072611 -0.062081315 0.06468962
000230 c3 ae aa bc ce 37 2b 3d 7b 0e a2 bd ad 04 1d bc
       -0.020835286 0.041801266 -0.07912918 -0.009583634
000240 1e 32 da 3d 2c a0 b9 3d 7b 0f b8 bd 88 d5 35 bd
       0.1065409 0.090637535 -0.08987328 -0.044393092
000250 57 07 e0 b9 73 18 74 3d 65 55 a0 3d af 46 a5 3d
       -0.00042730078 0.05959363 0.07828788 0.080701225
000260 ec a3 b9 3d aa 5d 74 3d 7a 7e fd bc 98 84 35 bd
       0.09064469 0.059659638 -0.030944098 -0.044315904
000270 c2 c8 94 3d 06 e4 c5 3d 8f 7c d8 3c 65 dc 1d bc
       0.07264854 0.09662633 0.026426582 -0.009635066
000280 a2 03 34 bd 2b b4 f9 bd 07 44 0e 3d d6 f5 c8 bd
       -0.043948777 -0.121925674 0.034732845 -0.098125145
000290 de ff e7 bd 16 92 62 3d e8 03 a7 bc 5d b8 fe bb
       -0.113281 0.0553151 -0.020387605 -0.0077734427
0002a0 47 92 68 bc ae 87 5d 3d 7d ea d4 bd 39 90 9c bb
       -0.0141950315 0.054084472 -0.103962876 -0.004777935
0002b0 d3 d3 00 bd 36 21 8b bd fe 80 8f 3b 7b 1a 4f 3b
       -0.03145201 -0.06793444 0.0043793907 0.0031601477
0002c0 ea 4a 03 3d 11 0b 4f 3d 19 42 94 3d b4 8f a4 3d
       0.032053865 0.050547663 0.072391696 0.08035222
0002d0 dc dc 3e bd 38 32 d0 3d 63 08 9b bc 81 86 b6 3d
       -0.046597347 0.101658285 -0.018924898 0.08912373
0002e0 49 be b2 bd 58 af 8c 3d 71 75 97 bd 48 d0 f5 3a
       -0.087277 0.06869382 -0.07395447 0.0018754089
0002f0 de d2 62 bd c2 86 b3 3d 0e 2a bc bd f5 9b b2 bd
       -0.05537688 0.087659374 -0.09187709 -0.08721153
000300 4c 02 62 bd e2 50 ef 3d dd 86 f2 3d bd cd a5 bd
       -0.05517797 0.11685349 0.118421294 -0.08095882
000310 41 09 d9 3c c8 8d 4b bd 73 11 e0 3d 2b 81 c5 3d
       0.02649367 -0.04969576 0.10940828 0.096437775
000320 4f 32 5c bd 6d cd be 3d b3 67 18 3d 47 86 d9 bd
       -0.053758916 0.093165256 0.03720827 -0.106213145
000330 4d 17 89 3c d6 0b 93 bd a5 ee 45 3d 70 51 c1 3c
       0.016734743 -0.07179992 0.048323292 0.023598403
000340 9a bd a5 bd d9 b9 83 3d d7 f6 5b bd 14 49 d1 bd
       -0.08092804 0.06431932 -0.0537022 -0.10219017
000350 01 4f a2 3d 9a a2 9a bd 85 f1 df 3c a2 53 9d 3d
       0.07925225 -0.07550545 0.027336845 0.07681967
000360 47 cb 98 bc 07 c4 93 3d b0 59 f8 3c 35 75 3c bc
       -0.018651618 0.072151236 0.030316204 -0.011502554
000370 76 e6 06 3d 09 6e 24 3d ce 83 d9 3c 4b 54 ce bb
       0.03293463 0.040144 0.026552107 -0.0062966696
000380 d0 76 eb bd 71 4f 86 bc 70 1d 5f bd 60 6c fd 3c
       -0.11497271 -0.016395302 -0.054471433 0.030935466
000390 04 b8 43 3d 13 76 0d bd 8f 8c ba 3d f3 cb 4b 3d
       0.047782913 -0.034536432 0.09108841 0.049755048
0003a0 d7 a1 d8 bc de 02 d8 3d 36 dc be 3d 68 ba 48 bc
       -0.026444359 0.10547422 0.09319346 -0.012251474
0003b0 40 ad c1 bd 31 29 ad 3d 0c 97 5c 3d 51 be c4 3d
       -0.09456873 0.08455122 0.053854987 0.096066125
0003c0 58 87 e0 bd 84 99 60 bc 86 11 9c 3d fb c3 2b bd
       -0.10963315 -0.013708476 0.0762053 -0.04193495
0003d0 10 01 37 bd b2 86 e8 3d 8d 00 d6 3d 0a fd 57 3d
       -0.044678748 0.11353816 0.10449324 0.05273155
0003e0 9e 10 33 bd fa a9 8b bc da 65 5b 3d ca 44 ce bd
       -0.04371702 -0.017048825 0.05356393 -0.10071714
0003f0 2d a9 98 bc e7 ae 2d bd 2e fb 1c bd 53 13 41 3d
       -0.018635357 -0.042403128 -0.03832548 0.04713757

layer2.0.bias f4 [14]
000000 26 a6 01 3d c6 84 a7 bd 7c 2d e5 bd 7d 6e 8a bd
       0.031652592 -0.081796214 -0.11190316 -0.06759355
000010 4c b1 e7 3d 84 02 07 3d ad d6 ef 3c 51 6b ee 3c
       0.113131136 0.032961383 0.02927717 0.029103907
000020 17 8d 1e bc 52 95 da bd 7f b6 79 3d 09 99 db 3d
       -0.009677193 -0.10673012 0.060965057 0.107225485
000030 b9 5d 95 3d 88 73 d0 bd
       0.07293267 -0.10178286

layer2.2.weight f4 [14]
000000 73 d3 80 3f c9 1f 7e 3f 81 81 7f 3f ca 6e 80 3f
       1.0064529 0.9926725 0.9980698 1.003381
000010 70 a5 7f 3f f4 24 80 3f 4e 72 7f 3f 25 3e 80 3f
       0.9986181 1.0011277 0.9978379 1.0018965
000020 a8 15 80 3f 9a 1c 80 3f 39 ba 7e 3f 12 52 7f 3f
       1.0006609 1.0008729 0.99502903 0.99734604
000030 31 6d 80 3f 91 1f 80 3f
       1.0033323 1.0009633

layer2.2.bias f4 [14]
000000 17 a8 89 3b 12 ac f3 ba f9 d1 9a 3b 09 7f 64 bb
       0.004200946 -0.001859071 0.0047247377 -0.0034865758
000010 b2 95 0c ba f0 70 5b bb a5 88 0c bb ae c5 76 3b
       -0.00053628825 -0.0033484064 -0.0021443751 0.0037654447
000020 d9 c8 bb 3a 6d 38 9e 38 2e 06 fb bb 7a ba 2f 3b
       0.0014326825 7.544537e-05 -0.007660649 0.002681403
000030 92 21 ae 39 e8 5a 72 3b
       0.00033212878 0.0036980454

layer2.2.running_mean f4 [14]
000000 2b f6 67 3e ef 36 07 3e a6 69 50 3e 5d 07 67 3e
       0.226525 0.13204549 0.20352802 0.22561403
000010 1c 1c a8 3e 8d 5b 4a 3e c7 0e 88 3e 1c 3a 36 3e
       0.32833946 0.19761486 0.26573774 0.17795604
000020 6a 64 4b 3e 6f 98 9a 3e 31 94 51 3e 42 af 8f 3e
       0.19862524 0.30194423 0.20466687 0.280634
000030 9e d0 8e 3e f9 75 fa 3d
       0.27893537 0.12229533

layer2.2.running_var f4 [14]
000000 f0 41 07 3e 7d 0e 76 3d 85 0f 62 3e 74 1e 99 3e
       0.13208747 0.06007241 0.22076233 0.29906046
000010 12 3b 0a 3e 49 e7 a6 3d 8b 7e 1e 3e 84 90 57 3e
       0.13499096 0.08149583 0.1547796 0.21051222
000020 c9 83 2a 3e ea f1 1d 3e bf dc d3 3d 9f 2a 8d 3e
       0.16651835 0.15424314 0.10344838 0.2757158
000030 23 39 6a 3e 3b d7 9e 3d
       0.22873358 0.07755896

layer3.0.weight f4 [44, 14, 1, 1]
000000 10 96 70 3e 0f 8d 21 be 87 b9 e8 bd 12 91 99 bd
       0.23494744 -0.15776466 -0.113635115 -0.07498373
000010 54 9f c0 bd b0 39 24 3e 0e 2e 3e 3c b9 80 fb 3d
       -0.094053894 0.16037631 0.01160766 0.12280411
000020 31 8d e2 bd 8b e3 47 be c7 6c 8f ba c4 76 75 be
       -0.110620864 -0.19520395 -0.0010942452 -0.23971087
000030 3f d5 ec bd e3 51 71 3e 7b 7c 85 be 82 0c b8 3d
       -0.11564111 0.23566394 -0.26071534 0.08986761
000040 90 f4 11 3d aa 21 6d be cb 19 76 be a6 0a 07 bc
       0.035633624 -0.23157373 -0.24033277 -0.008242285
000050 8e d3 49 3d e3 4c 64 3e 9e 4f 75 be 8b 25 75 3e
       0.04927402 0.22294955 -0.23956153 0.23940103
000060 e4 8a 6a 3e 10 1b 67 3e 2b 7b ee 3d 36 7c 3a be
       0.22904545 0.22568917 0.11644586 -0.18211445
000070 6e 32 6a 3c d4 c7 87 3e c8 f1 85 be d3 82 31 3e
       0.01429425 0.26519644 -0.26161027 0.17335062
000080 b0 ea 24 be 4a c1 02 3e 3b af f7 3d 9d fc 81 be
       -0.16105151 0.12769046 0.120939694 -0.2538804
000090 df b5 73 3d 6d ae e7 3d c2 57 bc 3b 39 49 66 be
       0.059499618 0.11312566 0.0057477662 -0.2248887
0000a0 bd 80 41 3e 9f f1 85 be b5 96 9c 3c ff 2d 73 be
       0.18896766 -0.26160905 0.019114831 -0.23748015
0000b0 c7 6c 3c 3e fa a3 48 be 81 9e dc 3d 9a 88 2c be
       0.1840087 -0.19593802 0.1077242 -0.16848984
0000c0 ff a6 09 3e 01 0b 5f bd df 48 0f ba ef 66 cf 3d
       0.1344261 -0.054453854 -0.0005465876 0.10127055
0000d0 d3 19 81 be 6a 19 84 be 31 1b 29 3e 5a 8d 51 be
       -0.25215015 -0.2580064 0.16514279 -0.20464078
0000e0 7c 21 48 3e 8c 05 3c be 2f 8a 51 3e c5 a0 85 be
       0.19544023 -0.18361491 0.20462869 -0.2609922
0000f0 c7 6f 82 3e d4 cf 09 bd ed 82 38 3e f7 52 71 3d
       0.25475904 -0.033645466 0.18018694 0.058917012
000100 3b 39 02 3e 6d ee dc 3d a1 38 1c 3e 55 7b 55 bd
       0.12717144 0.107876636 0.15255977 -0.05211957
000110 b5 15 34 be 39 2b 6b 3e e2 f9 a7 bd 4c 28 42 be
       -0.17586406 0.22965707 -0.08201958 -0.18960685
000120 a0 dd 5b 3e 0b 0c 0f 3e 24 b2 0e 3e 95 aa 7f be
       0.21471262 0.13969438 0.13935143 -0.24967416
000130 d0 d2 3b 3e 87 52 38 be bc 8f 80 3e 33 9e 5b bd
       0.18342137 -0.18000232 0.2510966 -0.053617667
000140 a5 c6 82 3e 75 1c 7a 3e af 2c 69 bd 57 40 d4 3b
       0.2554218 0.24424918 -0.05692738 0.0064773965
000150 80 95 53 3d 31 6f dc bd 90 1d 87 3e 29 55 66 bd
       0.051656246 -0.107633956 0.26389742 -0.05623356
000160 a2 a6 3d 3e 2d 05 06 3e 78 0f 34 3e bf 01 a6 3d
       0.18520597 0.13087912 0.17584026 0.08105802
000170 9f 5c 2d be bb f3 73 be c8 bf fb bb b3 73 46 3e
       -0.16929863 -0.23823445 -0.007682774 0.19380073
000180 dd ab 72 3e 5d f3 82 3d d8 0d df bd 17 63 02 be
       0.23698373 0.06394074 -0.10891312 -0.12733112
000190 25 1e 17 bd bd e0 1e 3e 65 9e 37 3e c1 82 7b 3d
       -0.036893982 0.15515418 0.17931516 0.061403994
0001a0 38 ac a5 3d 43 b4 b8 bd ea ae 15 3e ee f4 5a be
       0.08089489 -0.09018757 0.14617506 -0.21382496
0001b0 27 bd d2 3d a0 18 8a bd ad 85 13 be 73 39 5f be
       0.10289984 -0.06742978 -0.14406462 -0.21799259
0001c0 a3 d6 12 3d 85 54 c6 bd 86 3e 6b be 0b 4f 7a 3e
       0.035849225 -0.096840896 -0.2297307 0.24444215
0001d0 10 ea 5e be 21 71 2a be d1 9b d4 3d 88 93 6c be
       -0.21768975 -0.16644718 0.10381282 -0.23103154
0001e0 42 66 71 be a0 88 e1 3d b8 9c 7d bc d3 19 86 be
       -0.23574165 0.11012387 -0.015479259 -0.26191577
0001f0 df 7e 38 bd 51 97 d0 3d 9a 53 80 3d 61 78 84 3e
       -0.04504287 0.10185111 0.06265946 0.25873092
000200 94 85 f5 bd af 55 81 3e 8e 82 2b 3e b8 ff fe bd
       -0.11988369 0.25260684 0.16749021 -0.12451118
000210 77 cd 42 be d9 04 bc bd b5 d1 bd 3d 36 08 19 be
       -0.19023691 -0.09180612 0.09268514 -0.14944538
000220 22 75 61 3e 97 c6 83 3d 63 67 4f 3d 50 e4 8d bd
       0.22017339 0.064343624 0.050635707 -0.06928313
000230 02 5f 84 3e e7 2e 0b 3d 43 52 30 be c6 e9 00 be
       0.25853735 0.033980276 -0.1721888 -0.12589177
000240 de 43 37 be d5 93 2b bd 2f 69 40 be e0 44 17 be
       -0.17896983 -0.04188903 -0.18790124 -0.14772367
000250 aa 76 d2 3d c6 b3 b3 3d 37 27 18 be a4 18 fa 3d
       0.102765396 0.087745234 -0.1485871 0.12211731
000260 c2 b1 7a bd 9c 6d 2d 3b a3 0a 60 3d c8 89 2c bd
       -0.06120468 0.0026463037 0.054697644 -0.042123586
000270 bc d1 65 3d 9b 99 9b 3d 7d 8c 49 be ab 34 41 be
       0.05610822 0.07597657 -0.19682498 -0.18867747
000280 94 3c 1d be 75 f7 f9 3d 19 b9 50 3c cd 04 75 bd
       -0.1535514 0.12205402 0.012739443 -0.05981903
000290 f0 ad 43 be 82 ba 29 3e d8 53 3d bd 3a 09 91 3d
       -0.1910932 0.16575053 -0.046222538 0.07081838
0002a0 e7 ee 7f 3e de ca 11 bd 25 37 c2 bd 6b 25 4f 3e
       0.24993478 -0.03559386 -0.09483174 0.20229118
0002b0 d0 43 53 3e 51 83 70 be 82 68 8d 3d 98 8f 79 be
       0.20631337 -0.23487593 0.06904699 -0.24371183
0002c0 94 3f 2f 3e ab 00 4c be 2d 83 85 be 1b 7a e0 bd
       0.17114097 -0.1992213 -0.26076642 -0.1096079
0002d0 40 46 0e bc 6b ef 69 3e 7b c7 20 be be 57 58 3e
       -0.008683741 0.22845237 -0.15701096 0.21127221
0002e0 5d 82 82 3c 2f b9 09 bd e4 23 e2 3d 2b c4 41 3e
       0.015931303 -0.03362387 0.11042002 0.18922488
0002f0 4c b5 1a be 06 15 f1 bc 53 df b7 bd 0f bb cf 3d
       -0.15108222 -0.02942897 -0.089781426 0.101431005
000300 11 38 24 3b 11 37 e6 bd d6 64 6c bd a1 7d 6e be
       0.0025057832 -0.11240972 -0.057713352 -0.23290111
000310 bc 29 64 3e 7a f8 6b 3e f6 bf c6 3d b8 02 0f be
       0.22281545 0.23044005 0.097045824 -0.13965881
000320 27 ae b8 3d 7a cc 8d bc 18 2f 63 be 33 bc 17 3e
       0.09017592 -0.017309416 -0.22185934 0.14817886
000330 87 60 a2 3d d0 31 73 3d ea 6c 27 be 91 39 83 3e
       0.079285674 0.059373677 -0.16350141 0.25629857
000340 93 b7 fa 3d 4d 9e be bc 9d 32 5d be a6 f5 5e be
       0.12242045 -0.023268843 -0.21601339 -0.21773395
000350 d9 55 80 3e 2d 54 1c 3e 09 f5 71 be f7 ad b5 3d
       0.25065497 0.15266486 -0.2362863 0.08871072
000360 a4 4f 73 3e fc e2 18 3d 79 9c 48 be 29 c8 0d be
       0.23760849 0.037325844 -0.1959094 -0.13845886
000370 2f d2 bd 3c 12 4a 25 be ac 36 5e 3e 99 0f 12 3e
       0.023171512 -0.16141537 0.21700543 0.14263763
000380 dc 32 11 3e e8 8d 82 be b2 da b6 3d 3c f6 45 3d
       0.14179558 -0.2549889 0.089284316 0.04833053
000390 aa a3 58 be 2d da 38 3c 86 6f 84 3e ad 3a 53 be
       -0.21156183 0.011282486 0.25866336 -0.20627852
0003a0 c7 5d 20 be aa 23 79 be 95 61 72 3e 62 b1 84 3c
       -0.15660773 -0.24330011 0.23670037 0.016197864
0003b0 b8 4a 41 bc 8a 6f 29 3e a0 98 5b bd 03 dd 4d 3e
       -0.0117975995 0.16546455 -0.05361235 0.2010384
0003c0 d5 78 be bd 02 80 5b 3e b3 38 56 be d1 28 5e 3e
       -0.09300391 0.2143555 -0.20920067 0.21695258
0003d0 d9 d2 51 3e 64 a7 76 3e aa 90 a7 3b 81 c9 cd 3c
       0.20490588 0.24087292 0.005113681 0.025120499
0003e0 7a 5b 9f bd e7 48 c4 bd db 6d 67 3d aa 5f c0 3d
       -0.0778112 -0.095842175 0.05650125 0.093932465
0003f0 b3 fc 81 3d c5 b2 ee bd b7 7b 7d 3e 20 32 20 3e
       0.06347027 -0.11655191 0.24754225 0.15644121

layer3.0.bias f4 [44]
000000 67 82 75 3c e6 e9 2c be be f0 61 bc 2b e2 7a be
       0.014984704 -0.168861 -0.013790308 -0.24500339
000010 bb 7d 20 be cb fd 43 3e 46 36 c5 bd 3f 95 20 3e
       -0.15672962 0.19139783 -0.096294925 0.15681933
000020 a1 e2 4b be 38 14 a2 bd a0 dd 29 3d 5d 3a 4a be
       -0.19910671 -0.07914013 0.041471124 -0.19748826
000030 69 dc 64 3e 38 6a a5 3d 3d e3 47 bd 0f bb 05 3d
       0.22349705 0.080769 -0.048800696 0.032649096
000040 72 78 88 3e 4f f4 f5 3d b4 5e 57 be ba b7 94 3d
       0.26654392 0.12009489 -0.2103222 0.072616056
000050 05 d5 ef 3b 0a ca 32 3e b7 b8 38 3e 09 eb ba 3d
       0.007319095 0.17459884 0.18039213 0.09126861
000060 d3 9b 70 be ff 35 48 be 64 2f 4a bd 20 63 1f be
       -0.23496942 -0.19551848 -0.0493616 -0.15565157
000070 fa 02 49 3e ff 0c 1b be fd f6 86 be 05 ba 48 3e
       0.19630042 -0.15141676 -0.26360312 0.19602211
000080 1b d3 2d be bb 22 f3 3d ec e2 60 be a9 0f 64 be
       -0.16975062 0.11871859 -0.21961564 -0.22271599
000090 d9 09 92 3d 48 99 86 be fa 8a 2d 3e f4 a3 6e bd
       0.071307845 -0.2628882 0.16947547 -0.058261827
0000a0 69 9d ef bd 6c 1a 36 3b 91 70 85 be be f8 5d be
       -0.116999455 0.0027786745 -0.26062444 -0.21676919

layer3.2.weight f4 [44, 44, 3, 3]
000000 3b e9 e3 bc 1a 0d 2f bc 42 89 e1 3c 3c af ab bc
       -0.027821174 -0.010684276 0.02753127 -0.020957582
000010 80 7f 8b bb 3d 2d d7 bb a0 58 d8 ba 6f d6 9a bc
       -0.0042571425 -0.006566672 -0.0016505904 -0.018901078
000020 b9 f0 28 3d a9 56 ae bc 19 0f 48 bd 8e f5 49 bc
       0.041245196 -0.021281557 -0.048842523 -0.012326611
000030 ed 37 1d 3c 9b 24 24 3d 17 17 d9 bb e7 00 f4 3c
       0.009595853 0.040073972 -0.006625067 0.029785587
000040 e8 c6 ac 3c fa 24 49 3d 23 1c 99 3c e3 a0 ea 3c
       0.02109094 0.04910753 0.018690174 0.02864117
000050 5c 46 4b bc d5 05 8f 3c ea e7 54 3b bd e3 fa 3c
       -0.012406912 0.017458836 0.0032486864 0.030626172
000060 96 6f 79 bc 8a 9e 2d 3d 0a 40 5e 3d 80 ac 2a 3d
       -0.015224358 0.042387523 0.05426029 0.041668415
000070 a3 de f0 3c 30 00 9f 3b 19 69 8d 3c a1 82 4c 3d
       0.029403036 0.0048523173 0.017262029 0.049929265
000080 dd 79 85 3b 17 3f b2 bc f0 54 fe 3c 48 45 80 3c
       0.004073365 -0.0217586 0.03104636 0.015658036
000090 24 a2 f5 bb fb a1 8f 3c 3a b9 32 3d 55 17 f2 bc
       -0.0074961353 0.017533293 0.043633677 -0.029552141
0000a0 3f e9 ed bc 56 62 b2 3c 83 19 16 bd 63 78 08 bd
       -0.029041884 0.021775406 -0.036645424 -0.033317935
0000b0 b8 b3 b6 bc 3d 1b cb 39 f7 fb 4a 3d 94 b4 03 bb
       -0.022302493 0.0003873947 0.0495567 -0.0020096647
0000c0 66 b8 79 3c f9 51 84 bb 53 94 2e 3d 1c c4 96 bb
       0.015241718 -0.004038092 0.04262192 -0.004601015
0000d0 75 b6 22 bd 4f 95 8c 3c 0a 23 e4 3b 1d 05 62 3c
       -0.039724786 0.01716104 0.006962185 0.013795164
0000e0 da 3d 4e 3d 82 a9 84 bb d8 92 77 3c 25 ae 9f bc
       0.050351955 -0.004048527 0.015110694 -0.019492218
0000f0 fe 2f 80 bc 06 f4 2f 3d be 76 28 3d 99 23 12 3c
       -0.015647884 0.04295733 0.041128866 0.00891962
000100 fc a9 fa bc bb a1 66 bc b5 04 51 bd cd f8 30 3d
       -0.030598633 -0.0140766455 -0.05102988 0.043206025
000110 13 9b a0 ba 8c b9 cf bc fb 6b 8f bc a9 4f 38 bc
       -0.0012253247 -0.02535703 -0.017507544 -0.011249461
000120 24 ca f5 bb 8c e0 16 bd 51 97 cb bc df 34 fc bb
       -0.0075009037 -0.03683524 -0.024852427 -0.0076967324
000130 86 81 15 3d 29 18 08 bd ba 73 c1 bc 04 d8 98 bc
       0.036500476 -0.033226166 -0.023614753 -0.018657692
000140 e2 1d a7 bc 0b d1 b0 3a 23 49 d3 3c 04 26 27 3d
       -0.020399991 0.0013490034 0.02579171 0.04080774
000150 90 be 24 bd 23 65 27 3d 68 00 0d bd 6f 88 1e bd
       -0.040220797 0.040867936 -0.034424216 -0.038704332
000160 b7 c3 ec 3b 37 2c df 3c 92 b9 21 3c c0 78 27 3a
       0.0072254795 0.027242763 0.009870904 0.00063885376
000170 84 d4 07 bd d3 a2 e2 3c d9 ee 02 bd 10 5c 0c bd
       -0.033161655 0.027665531 -0.031966064 -0.034267485
000180 23 d7 26 bd d7 c0 14 3d 86 09 9c 3c 4d cd e7 3c
       -0.040732514 0.03631672 0.01904751 0.028296137
000190 09 28 0d 3a 06 37 20 bd 35 2e 35 bd 86 97 ef 3c
       0.0005384689 -0.039114974 -0.04423352 0.029247057
0001a0 93 d9 c0 3a 76 97 4e 3c 35 e6 21 3d 81 6b fd bc
       0.001471328 0.012609353 0.039526183 -0.03093505
0001b0 6e 23 f0 3b 2a 90 64 3d 74 5f 00 bd 62 60 48 3b
       0.0073284423 0.055801548 -0.03134103 0.0030575027
0001c0 60 2e d7 3c d9 cb cf bc 92 9a 9f 3c 9b 2b 2d bd
       0.02626723 -0.025365757 0.019482885 -0.042277914
0001d0 55 f2 3c 3d aa 6a bd 3c bd d2 9a 3c 77 e5 02 3d
       0.046129543 0.02312215 0.018899316 0.031957116
0001e0 4d 2a 42 3d 80 bc 38 bd cb 2c 12 bd 69 fb 9c 3c
       0.047403622 -0.045101643 -0.03568725 0.01916285
0001f0 0f e8 87 bc 2c 29 8c bc 7d e3 d1 bc 5c 6c 53 bc
       -0.016590146 -0.017109476 -0.02562117 -0.012904253
000200 05 0d 1c 3d 4e 58 80 bc 5b 9c 6e bc f4 7b 38 bd
       0.038098354 -0.015667107 -0.014563645 -0.045040086
000210 53 3a 88 bc 52 d4 93 3c 0c 73 f3 3c eb be fb 3b
       -0.016629374 0.018045578 0.029717945 0.0076826713
000220 52 47 1b 3d 3e 14 c7 bb 41 46 36 bd ee e3 76 bc
       0.037909813 -0.006075411 -0.044500593 -0.015068991
000230 ed 32 48 bd 45 ff 32 bd df ec 02 3d 7b 72 12 bd
       -0.04887669 -0.043700475 0.03196418 -0.03575371
000240 8f 4a bb 3c 13 39 c9 3c 04 5d 7e bc 14 ee 22 bd
       0.0228627 0.024563348 -0.015525106 -0.03977783
000250 b3 36 2d bd d7 04 0b bb 11 4f b4 3c 86 05 d3 bc
       -0.042288493 -0.0021212602 0.022010358 -0.02575947
000260 1f 53 97 ba cd c7 29 3d 60 29 40 bd fe 43 43 bd
       -0.0011545158 0.04145031 -0.04691446 -0.047672264
000270 9d 38 a1 3c 79 3b 98 3c 74 69 83 bc 7f a3 70 bc
       0.019680316 0.018583046 -0.016041495 -0.014687418
000280 ab 85 1f bd 26 ea b1 3b ce 33 18 bc ef b5 06 bd
       -0.038945835 0.005429524 -0.009289695 -0.03288835
000290 25 bb 64 bc d2 2f 19 bd 26 90 28 bd fa df c2 3c
       -0.013960634 -0.03739912 -0.041153096 0.023788441
0002a0 83 5f b6 3c f1 bd ec 3c 62 d5 5f 3c 9d 45 f2 3c
       0.02226234 0.028899165 0.013661714 0.02957421
0002b0 d1 79 1f 3d a4 a6 89 bc 3b ce b8 bb bf c7 25 3d
       0.038934533 -0.016803093 -0.005639819 0.040473696
0002c0 fc e9 30 3d 7e 5b bb bb dc 01 53 bd 07 02 11 3b
       0.043191895 -0.005717694 -0.051515445 0.0022126453
0002d0 88 3b 00 3d e1 64 90 3c b1 76 07 bd 2d 40 2d 3d
       0.031306773 0.017626228 -0.033072177 0.04229753
0002e0 74 7b 3a bd a7 92 11 3c 35 c0 78 3c 60 82 71 bc
       -0.04552789 0.008885062 0.0151825445 -0.0147405565
0002f0 f0 55 37 bd c3 ec 41 3d 31 75 e6 bb 62 32 21 3d
       -0.04475969 0.047344934 -0.0070330133 0.03935469
000300 44 09 38 3d cb 80 cb b8 12 f1 0a 3d a4 06 01 3d
       0.04493071 -9.703784e-05 0.03392131 0.031500474
000310 a4 28 4f bb a0 ed 29 bd 47 ef 16 bd 4b 84 2b 3d
       -0.0031609917 -0.041486382 -0.036849286 0.04187421
000320 14 a8 15 bd ea 65 01 bd 22 5d 04 bc 1a 77 a8 3c
       -0.036537245 -0.031591333 -0.008078845 0.020564605
000330 fd 5e 4e 3d af e2 95 3c 9a 54 48 bc 1e bf a4 bc
       0.050383557 0.018296568 -0.012227202 -0.020110663
000340 ea 85 b2 3c 7c a6 36 bd 4a 98 f9 3c d6 ea d0 3c
       0.02179237 -0.044592366 0.030468125 0.025502604
000350 45 f8 bb bc 2e e5 38 3d 62 2d d0 bc 61 b0 f5 bb
       -0.022945533 0.045140438 -0.025412265 -0.0074978326
000360 5e 0e 59 ba 4e 2c 0a 3d 72 cd 16 bd b1 79 27 3d
       -0.0008280034 0.03373366 -0.03681702 0.04088754
000370 ac e8 30 bb 5d 16 44 bc 05 82 8c 3c 1b 8c 2d 3d
       -0.0026994152 -0.011968222 0.017151842 0.042369943
000380 97 df c7 bc a7 34 f2 bc 12 ca 04 bd ec c3 4b bd
       -0.024398608 -0.029566122 -0.03241927 -0.049747393
000390 bc f8 c8 bc 71 dc b2 bc a5 cd be bc fd ed 5f bd
       -0.024532668 -0.02183363 -0.023291418 -0.054670323
0003a0 3f 3c bc bc 2e c2 c2 bb 34 45 11 bd d1 f7 be b7
       -0.022977946 -0.005943558 -0.035466388 -2.2765164e-05
0003b0 6e 69 50 bd fd aa eb 3c 56 ba 62 bc 5a 25 20 3d
       -0.050881796 0.028768057 -0.013838371 0.03909812
0003c0 ba 37 98 3c 2a 83 9e bc 7f d1 6b bb 4e b3 52 3d
       0.01858126 -0.019349653 -0.0035983024 0.05144053
0003d0 f2 02 2d bb 8d 16 df 3c aa 67 31 bd 17 f7 cb bb
       -0.002639946 0.027232433 -0.043311752 -0.0062245238
0003e0 83 0d 72 bc 1e f1 85 bb 2e f7 59 bb 11 f3 0e 3d
       -0.014773729 -0.0040875813 -0.0033258903 0.034899775
0003f0 43 63 5d bc 69 00 2f bd 0d 79 87 bc b5 09 e2 bc
       -0.013512435 -0.042725 -0.016537214 -0.02759252

layer3.2.bias f4 [44]
000000 af 5e 09 3d da d9 e7 b7 dd 3a bf 3c e8 2a 92 39
       0.033537563 -2.7638791e-05 0.023343498 0.00027879258
000010 79 8d bc bc 8d d7 bc 3a 52 96 18 bd ac 4c 17 3d
       -0.023016678 0.0014407501 -0.03725273 0.036938354
000020 c9 9b 44 bd 79 00 53 bc 7a fe 1d 3d f1 3c 3b bd
       -0.04800013 -0.012878531 0.038572766 -0.045712415
000030 46 98 b5 bc fc 9b 06 3d 7e b3 7c 3c 6d c2 81 bc
       -0.022167336 0.032863602 0.015423654 -0.01583978
000040 ce 5c 5a bd 9e b4 55 3d 52 f0 1d bd 48 c5 a6 bc
       -0.05331116 0.052174203 -0.038559265 -0.020357743
000050 a6 7b 38 bd 54 07 d2 bc 1d 78 eb bc c9 b4 8b 3c
       -0.045039795 -0.02563826 -0.028743798 0.017053979
000060 e6 64 fc bb f8 df 1b 3d 2d e3 8e bc b9 11 0d 3b
       -0.0077024577 0.03805539 -0.01744231 0.0021525456
000070 d9 23 3a bb 51 8a 2d bd a6 2f 3e 3d c6 97 25 bd
       -0.0028402715 -0.042368237 0.04643216 -0.040427946
000080 0f 26 ac 3c b6 62 a0 bb 6e d1 3a 3c 24 c5 92 bc
       0.021014242 -0.0048945798 0.011402471 -0.01791627
000090 88 cd 0d bd f0 97 d2 bc 45 5b 1c 3c 77 43 93 bc
       -0.034619838 -0.025707215 0.009543245 -0.017976506
0000a0 95 00 85 3c 4c 5f ca bc 30 c6 0a 3c 2d 76 91 bc
       0.01623563 -0.024703644 0.008470103 -0.017756546

layer3.4.weight f4 [44]
000000 69 55 80 3f 7f 36 7f 3f cb a4 7e 3f fe 83 80 3f
       1.0026065 0.9969253 0.99470204 1.0040281
000010 c0 8d 7e 3f 79 38 7e 3f 5a 7e 80 3f 1e 83 7e 3f
       0.99435043 0.9930492 1.003856 0.9941882
000020 63 c4 7d 3f 85 b5 7e 3f 8b 21 80 3f 51 9f 80 3f
       0.9912779 0.99495727 1.0010237 1.004862
000030 1c f0 7f 3f a6 1c 7f 3f 53 cf 80 3f f5 84 80 3f
       0.9997575 0.9965309 1.006327 1.0040575
000040 d2 5b 80 3f 20 0b 80 3f 79 60 7f 3f a5 bb 7e 3f
       1.0028021 1.0003395 0.9975658 0.9950507
000050 29 31 7f 3f 71 35 80 3f 6d d6 7e 3f 16 93 80 3f
       0.9968439 1.0016309 0.9954594 1.0044887
000060 c8 ad 7f 3f 79 67 80 3f fa 2b 7f 3f b1 d7 7f 3f
       0.99874544 1.0031577 0.9967648 0.99938494
000070 69 8b 80 3f 44 c9 7f 3f 0b a0 80 3f 22 5d 80 3f
       1.0042545 0.9991648 1.0048841 1.0028422
000080 10 0d 7f 3f 48 12 7f 3f 7f 07 80 3f 33 7a 7f 3f
       0.99629307 0.9963727 1.0002288 0.99795836
000090 c4 4e 80 3f 56 4f 80 3f cb 8c 80 3f f1 19 7e 3f
       1.0024037 1.0024211 1.0042967 0.99258333
0000a0 9f 73 80 3f 7e 72 80 3f c3 1c 80 3f 6b 66 80 3f
       1.0035285 1.003494 1.0008777 1.0031255

layer3.4.bias f4 [44]
000000 03 15 c2 39 ea 8d a8 3b 6b b5 0e 3a a4 35 80 3b
       0.00037018218 0.0051438706 0.00054439035 0.0039126445
000010 a8 71 9a bb 0b a6 1a 38 85 70 b5 3b 39 38 07 3b
       -0.004713256 3.68711e-05 0.005537095 0.0020632877
000020 1f 73 f3 ba f2 d9 37 3b 23 d9 5d bb f5 54 e3 3b
       -0.0018573737 0.002805349 -0.0033851347 0.006937618
000030 01 c9 5d bb 9a 97 b0 bb d1 aa 5f 3b 16 d7 26 bb
       -0.0033841731 -0.005389166 0.0034128914 -0.002545779
000040 0e 85 90 3a f1 1e c5 3b a2 0d 50 3b 52 99 eb 3a
       0.0011025982 0.0060156514 0.0031746407 0.001797477
000050 00 e9 94 bb 2f b5 77 ba 0f 34 ac bb 27 e8 58 bb
       -0.0045443773 -0.00094493007 -0.0052552293 -0.0033097358
000060 6f 20 26 3c 32 3c dc ba 55 09 15 bc b0 c1 cd bb
       0.010139569 -0.0016802608 -0.009096463 -0.006279193
000070 80 a0 41 bb 2e 95 23 bb d4 18 02 3b c9 1c 23 38
       -0.0029545128 -0.0024960744 0.0019851224 3.8889037e-05
000080 4c e6 bf b9 c6 ca 3b b9 6a d0 e9 3a fe 4f 4e 3b
       -0.00036601943 -0.00017909249 0.0017838601 0.0031480785
000090 a1 cb de 3a ab ff af bb 48 25 81 3b de 98 39 bb
       0.0016997942 -0.005371054 0.003941212 -0.0028319876
0000a0 11 9e ad 3a 75 6c a4 3b 03 70 4b ba a9 8a 60 3b
       0.001324596 0.005017812 -0.00077605265 0.0034262335

layer3.4.running_mean f4 [44]
000000 fb 05 26 3d 70 b6 cb 3e a0 53 a6 3e fa dc a9 3d
       0.040533047 0.39787626 0.32485676 0.08294101
000010 a3 e6 3a 3c a7 42 3c 3e b5 7a 43 3c d9 02 45 3e
       0.011407527 0.18384801 0.011931111 0.19239368
000020 0c ef be 3b 73 f7 7c 3d ae 56 5e 3e 7d 5e 42 3d
       0.0058268365 0.061759423 0.21712753 0.047453392
000030 93 a5 54 3d f0 bd 32 3e ec 98 27 3d 69 c4 18 3e
       0.051915716 0.17455268 0.040917322 0.14918675
000040 69 15 f7 3c 51 2d ff 3d de 54 04 3e f1 f0 eb 3d
       0.030161576 0.12459815 0.12923 0.11520565
000050 e5 fa e9 3d 36 31 2a 3c 68 59 59 3e e0 40 5a 3d
       0.114248075 0.010387709 0.21225512 0.053284526
000060 7b bf 2d 3d e8 07 2e 3e 7e 11 01 3d bc 9b ce 3e
       0.042418938 0.16995203 0.031510822 0.4035319
000070 be 75 4a 3e 0a 0f b5 3b b9 8d 05 3e 91 9c 56 3d
       0.19771478 0.0055254744 0.13042344 0.052395407
000080 a6 35 dd 3e d9 92 ef 3d 68 19 11 3e a8 52 2e 3d
       0.43204993 0.11697931 0.14169848 0.042559296
000090 51 60 8d 3c 16 cd c7 3d 7b 77 b8 3d 23 bf 38 3e
       0.017257841 0.09755914 0.09007164 0.18041663
0000a0 05 e5 1a 3d 6d d4 8d 3d 8f 23 77 3e ae fc d0 3d
       0.037816066 0.069252826 0.24134658 0.10204445

layer3.4.running_var f4 [44]
000000 7f b4 c2 3b c0 5b b6 3d fe b4 96 3d 82 48 2d 3d
       0.005941927 0.08904219 0.0735874 0.042305477
000010 99 f1 b0 3b c3 97 dc 3d 40 a1 b4 3b 66 fd 97 3d
       0.0053998944 0.10771134 0.0055123866 0.07421379
000020 d1 08 26 3b c3 fa 95 3c 84 f6 a5 3d 0d 1f 73 3b
       0.0025334845 0.018308049 0.0810366 0.0037097365
000030 4a 91 36 3c 0b 08 54 3d 71 28 10 3c 49 64 b9 3d
       0.011143038 0.051765483 0.0087987045 0.09052331
000040 b3 f4 74 3b d4 12 ac 3c 97 e8 1e 3d 56 fe 18 3d
       0.0037377297 0.021005072 0.038796034 0.03735193
000050 4a 7e c5 3c 14 15 cd 3b 45 af 41 3d a8 a4 c3 3c
       0.02410807 0.006258616 0.04728629 0.023882225
000060 1e db b0 3c 56 25 b1 3d 0a be 00 3c 7d 39 91 3e
       0.021588858 0.086496994 0.007857809 0.28364173
000070 a3 47 91 3d 50 3f 7c 3b 7c 4b c1 3d f9 f9 14 3d
       0.07093742 0.0038489886 0.094382256 0.036371205
000080 3b 3c 67 3e 33 2e e6 3c fc 2b 80 3d a0 ba 1a 3c
       0.2258157 0.028098201 0.06258389 0.009443909
000090 c2 d5 c7 3b bb d2 5d 3d 81 42 87 3c e8 68 94 3d
       0.00609848 0.054156046 0.016511204 0.07246572
0000a0 b5 87 17 3c 2e 3f 2d 3c c8 0e 84 3d 3b 97 20 3d
       0.009248664 0.010574145 0.06448132 0.039206725

layer4.0.weight f4 [20, 44, 1, 1]
000000 ef 0a e9 bd 4d 6e d6 3d ec 4f ed bd 42 08 03 bd
       -0.113790385 0.10470257 -0.115875095 -0.031990297
000010 f9 7d de 3d 52 cd 12 3e 74 4b 59 3d 76 dc f4 3d
       0.10863871 0.14336136 0.053050473 0.11956112
000020 99 50 1f bd b2 14 2b bd 3d d7 be bd d0 c8 62 3d
       -0.038895223 -0.041767783 -0.09318397 0.05536729
000030 55 52 e2 bd 92 6d fc 3c 2f 39 eb bc 4b 4b 05 be
       -0.1105086 0.030813966 -0.02871379 -0.13017003
000040 7f 1c 0a 3e e9 26 0b 3e 0a 2c ee 3d da b9 7c 3c
       0.13487433 0.13589062 0.116294935 0.01542517
000050 4c 03 b7 3c 53 3d 18 be e0 5c 6c bd ff 26 2d 3d
       0.02234044 -0.14867143 -0.05770576 0.042273518
000060 1f d1 ad bd 72 50 c4 bd 22 12 ee 3d 27 23 8f bd
       -0.08487152 -0.09585656 0.11624552 -0.06989127
000070 e4 99 fc bd 75 8d 08 be de 59 07 3c 21 a1 ab bc
       -0.1233404 -0.13335212 0.008261172 -0.020950856
000080 b4 50 95 3d 3a e6 18 be 0b d5 16 be ac 73 00 3e
       0.072907835 -0.14931574 -0.14729707 0.12544125
000090 64 62 f5 3d 22 ae 0a be 83 2f 07 3d 87 0f b8 bd
       0.11981657 -0.13542989 0.033004295 -0.089873366
0000a0 70 49 79 3d 18 76 ed bd 0a 50 ae 3c b1 21 1a be
       0.06086105 -0.1159479 0.0212784 -0.15051915
0000b0 8d 29 59 3c 77 37 d0 bc 66 21 0a be 2f 45 11 3e
       0.013254535 -0.025417073 -0.13489303 0.14186548
0000c0 53 c9 ef bc 3b 17 c3 bd 0c db 9c 3b b9 a9 39 bc
       -0.029270804 -0.09525915 0.0047868546 -0.011331969
0000d0 e9 30 8a 3a 8a af d0 bd 79 ba fd bc 1c 8c 91 3d
       0.0010543141 -0.101897314 -0.030972706 0.07106802
0000e0 c1 f0 4e bd 02 fb b2 3c 89 b5 fb bc ba 27 33 3d
       -0.05052257 0.021848205 -0.030726211 0.043739058
0000f0 fd 43 4d 3d 16 a1 4c 3d ae c4 f7 3d 36 62 f2 bd
       0.050113667 0.04995831 0.120980605 -0.118351385
000100 01 0b c3 bc 1d 72 89 3d 88 34 c1 3b 00 0e 4f 3b
       -0.023808958 0.067112185 0.005896155 0.0031594038
000110 5e 8d 44 3d cd c3 8b 3d 4f 09 12 be 85 3b 8e 3d
       0.04798638 0.068244554 -0.14261363 0.06944946
000120 93 42 bf 3d b7 8e 96 bc f9 9d 29 bd 34 16 4c bc
       0.0933887 -0.018378599 -0.04141042 -0.0124564655
000130 83 af 88 bd 21 63 05 3d b3 fc 2f bd 94 2e 11 bc
       -0.06674101 0.03256524 -0.042965602 -0.008861203
000140 4f b2 13 3e 7b aa 8b bb 1c b7 93 3d 83 06 ed bb
       0.14423488 -0.004262266 0.0721266 -0.0072334423
000150 3c 4c 33 3d f5 66 b3 bd df aa 70 bd 91 4f 9b bd
       0.043773875 -0.08759872 -0.058756705 -0.075835355
000160 0b 58 dd bd d8 fa ac bd 39 b2 10 be 2b f4 8e bd
       -0.108078085 -0.08446282 -0.14130487 -0.06980165
000170 48 5e a6 bd 6a ac 19 bc 8a 79 f3 bd 54 50 f1 bd
       -0.081234515 -0.009379486 -0.11888416 -0.117828995
000180 bd f2 1c bd d5 27 dd bd 07 37 14 3e da 57 f0 bd
       -0.03831743 -0.10798613 0.14474116 -0.11735506
000190 3f 24 bd bd 7f c5 e5 3d f8 2a b4 bc 3e 08 6b 3d
       -0.09235429 0.1121931 -0.021993145 0.057380907
0001a0 b2 d8 ce bd cc 4c aa bd c2 c1 a9 bd fb b1 c6 bd
       -0.10099925 -0.08315429 -0.082889095 -0.09701916
0001b0 52 14 df bb 70 06 d5 3d 4b b8 5a 3d 22 33 ae 3d
       -0.0068078423 0.104016185 0.05339841 0.085058466
0001c0 f0 21 a5 bd 52 78 02 3e 61 e5 d6 3d 3e c8 d2 3d
       -0.08063114 0.12741211 0.10492969 0.102920994
0001d0 bc 72 8c 3d aa 27 df 3b 9d 01 20 bd 3b f6 f9 3d
       0.06857821 0.0068101482 -0.03906404 0.12205168
0001e0 f6 44 07 be cd e1 d4 bd 2a f3 8d bd 45 dc 32 3c
       -0.132099 -0.103946306 -0.069311455 0.010916774
0001f0 87 c3 82 bc cb 15 6f 3d 93 49 aa bc 0f 38 f9 bd
       -0.015962375 0.058370393 -0.020787036 -0.121688955
000200 50 67 ab 3d e5 b4 70 bd 15 b6 11 3e 09 c3 46 bd
       0.08369315 -0.058766264 0.14229615 -0.048525844
000210 14 ec a8 3d 5c eb 4a 3c 7f fe fd bd db a6 68 bd
       0.08248153 0.012385216 -0.12402057 -0.05679975
000220 c5 a6 78 3b 62 9f 4c 3d 7f 35 ab 3d 82 25 02 bc
       0.00379412 0.049956687 0.08359813 -0.007943513
000230 2d ee 12 bd a0 e7 ac bd 43 a6 ea bd 9e c2 9e bd
       -0.035871673 -0.084426165 -0.11457493 -0.07751964
000240 35 59 df bd 36 26 06 be 8b fd 5d bc 91 73 e1 3c
       -0.10905687 -0.13100514 -0.013549219 0.027520927
000250 88 ad f6 3d a4 c1 fc 3c f8 b5 d4 3d fa 97 aa bd
       0.12044817 0.030854054 0.1038627 -0.083297685
000260 82 9b 3b 3d 2c 2c 0f be 12 b4 f5 bd 54 2a 31 bd
       0.0458026 -0.13981694 -0.11997236 -0.043253258
000270 6f 2f 2f bd fd 44 04 3d 57 4e 77 3d 17 b7 a1 bd
       -0.042769846 0.032292355 0.060377445 -0.0789625
000280 96 69 17 3e d3 55 d8 3c 07 d5 e0 bd fd ff da 3d
       0.14786372 0.026408112 -0.10978132 0.10693357
000290 38 0b c9 3c 71 f9 08 3e 2d 37 de bd fc c8 e3 bd
       0.024541482 0.13376404 -0.10850368 -0.11122319
0002a0 7a 7f af 3d 43 b9 cc bd 5f 1e b0 bc 5c f8 10 bd
       0.08569236 -0.09996273 -0.021498857 -0.035393104
0002b0 6e f6 94 bc c5 9d e4 bd f8 01 de bd 88 03 ee 3c
       -0.018183913 -0.11162905 -0.10840219 0.029054418
0002c0 10 93 9a bd 7a 10 ba 3d ba 0a f1 3d 92 a9 17 ba
       -0.07547581 0.09085174 0.11769624 -0.0005785461
0002d0 56 c6 70 bd 90 4d c4 bd 5c 16 e6 3c f0 13 07 bd
       -0.058782898 -0.095851064 0.028086834 -0.032978
0002e0 a2 26 7a 3d 98 32 40 3c ab 1b a2 bd 0f d3 09 be
       0.061072 0.0117308125 -0.079154335 -0.13459419
0002f0 ec 49 d3 3d d2 63 a4 3c 8c 20 fe bd c2 da 93 3d
       0.10316834 0.02006713 -0.124085516 0.07219459
000300 48 3e c7 3d 74 2d b3 bd ad 58 a5 bc 84 e1 f6 bd
       0.09728676 -0.08748904 -0.020183885 -0.120547324
000310 44 07 57 bd d8 4f 9d 3d e9 7b a4 bd 90 06 54 bd
       -0.052497163 0.076812446 -0.080314465 -0.05176407
000320 b8 23 8d bd 85 37 98 3d 19 de c6 bd 18 9a 8d bb
       -0.068915784 0.074324645 -0.097103305 -0.004321348
000330 45 dd 16 be f0 ff 38 3c 3e 93 3a 3d 7f a9 f0 bd
       -0.14732845 0.011291489 0.045550577 -0.11751079
000340 d4 4d 1b 3d 55 8b 12 3e e9 e3 09 be 90 b2 a9 bd
       0.03791602 0.14310963 -0.13465847 -0.08286011
000350 71 c9 84 3d 49 17 37 bd f6 46 19 be 9f d1 93 3d
       0.064837344 -0.04469994 -0.14968476 0.072177164
000360 d9 bb e3 bd b9 ff 8c bc 9c 15 00 be 90 6a 0b 3e
       -0.111198135 -0.017211782 -0.12508243 0.13614869
000370 10 8e ae bd fa 39 cc bd 2d d8 97 3d a8 e5 2d 3d
       -0.0852319 -0.09971996 0.07414279 0.042455345
000380 59 20 f7 3d b8 c6 94 3d 49 39 90 bc e0 09 27 3d
       0.12066717 0.07264465 -0.01760544 0.040780902
000390 60 87 c8 bd db 48 33 bd 3b 95 af 3d 55 1b b8 3c
       -0.09791446 -0.043770652 0.08573385 0.02247397
0003a0 6b a6 c0 3c d7 2f d5 3d 58 9b 0a 3e b4 6b 69 bd
       0.023516854 0.10409515 0.13535821 -0.05698748
0003b0 2c c2 00 3e 9d f3 5b bd 62 ea 13 be b0 82 ad 3c
       0.1257407 -0.053699125 -0.14444879 0.02118048
0003c0 05 be fe 3d 6a df 89 3d c2 22 a6 bd ef 4f c9 bd
       0.12438587 0.06732066 -0.08112098 -0.09829699
0003d0 99 5d c9 bc f2 c0 8c bd 81 67 16 3e 1e c9 b6 3d
       -0.024580764 -0.06872739 0.14687921 0.08925079
0003e0 74 99 24 bd 67 00 da bc 8f ed c4 bc 8c 0a c8 3d
       -0.040185407 -0.02661152 -0.024039058 0.09767637
0003f0 10 85 8b 3d e8 14 11 be 2f 87 f4 3b 05 ba 01 be
       0.06812489 -0.14168131 0.007462404 -0.12668617

layer4.0.bias f4 [20]
000000 cc 82 af 3d 69 fb e3 bd ff 27 8d 3c 80 bd 4f bd
       0.085698694 -0.11131937 0.017230986 -0.05071783
000010 33 05 b0 bd e5 a2 2d bd 65 ca e0 3d a4 3c 07 3c
       -0.08594742 -0.042391676 0.10976104 0.008254204
000020 3a a7 47 3d f4 0a 98 bd eb e9 12 3e a0 d2 29 3c
       0.048743464 -0.07423964 0.14347045 0.010365158
000030 38 7c e6 bd 01 53 f0 bd 44 e5 02 be 2d 8a 4b 3d
       -0.112541616 -0.11734582 -0.1278277 0.04969232
000040 05 97 37 3c 5d 28 c5 bc 9b c4 0c be 19 ae f8 3d
       0.011205439 -0.024067098 -0.13746874 0.121425815
