Vitis-ai/Quantizer/MultLabel_model_API2/MyModel_v3.pt (torch_old, 124547 bytes, 40 tensors)

layer1.0.weight f4 [8, 3, 5, 5]
000000 59 a6 04 bd 4e 8c 1a 3c a8 9a d9 bd c9 e4 62 3d
       -0.032385204 0.009432865 -0.106252015 0.055393968
000010 02 e0 bc bd b9 16 73 bd c3 c4 26 3d 73 e7 d3 3d
       -0.092224136 -0.059347842 0.04071499 0.1034688
000020 51 9e f1 3d fd ba bd 3d 4a f3 d7 bd 31 4c 2b bd
       0.117977746 0.09264181 -0.105444506 -0.04182071
000030 57 b2 88 3d 96 f8 ae bc e5 d5 45 3d 09 bc 40 3d
       0.066746406 -0.02135877 0.04829969 0.047054324
000040 7e de 33 3d 6b 79 e9 3d 45 76 e0 3d 95 0c af 3d
       0.043913357 0.11400112 0.10960058 0.08547322
000050 bc 6d 86 3c 68 65 42 bd 15 3d df 3d b2 0c d9 bb
       0.016409747 -0.04745999 0.10900322 -0.006623828
000060 26 60 7b 3d 99 5d 77 bd fb e5 3b 3c b9 e8 b9 bd
       0.06137099 -0.060391996 0.011468406 -0.090775914
000070 fb 86 9d 3d 91 17 a4 bd 39 5e 21 bd e3 92 0c 3d
       0.07691761 -0.080123074 -0.0393965 0.03431977
000080 f4 75 ae 3d fc 55 9f bd eb 33 4e bd c0 e4 50 bd
       0.085185915 -0.07780072 -0.05034248 -0.050999403
000090 bf b6 30 bd ca ce b5 bd de 6d 56 3d 10 7a aa 3d
       -0.04314303 -0.088773325 0.05235087 0.08324063
0000a0 0d f9 8d 3d 98 34 5d 3d 78 a4 61 3d 90 80 fb bc
       0.06932268 0.054005235 0.05508849 -0.030700952
0000b0 7a cc 1c 3d 0c ee 51 bd 0e c8 79 3d c9 e3 db 3d
       0.03828094 -0.05125241 0.060981803 0.10736806
0000c0 66 78 31 bd 2b 36 88 3d 43 41 08 bd 68 98 68 3c
       -0.04332771 0.06650957 -0.033265363 0.014196493
0000d0 14 27 b4 bb 85 de c9 3d 42 9b 7d 3d f3 4f 6c 3a
       -0.0054978225 0.09856895 0.061915644 0.0009014599
0000e0 93 0e 68 bd 54 f4 8f bd 79 22 f5 3d 1f a4 4d 3d
       -0.056654524 -0.07029024 0.11969466 0.050205346
0000f0 fa d8 f5 3d bf 66 ff bc cb 31 5a 3d 10 37 67 bd
       0.120042756 -0.031176923 0.053270143 -0.056448996
000100 a4 94 69 bb a9 35 09 3d 5c a2 9a bd 22 6a 7e 3c
       -0.0035641575 0.03349844 -0.07550499 0.015528234
000110 81 98 0f bd 1e 95 2d bb 1b f9 ee 3d ac ae 8b bd
       -0.03505755 -0.0026486586 0.11668607 -0.068204254
000120 fc 7b 96 3c 1e c7 2a bd 04 c8 93 bd f7 f1 9a bd
       0.018369667 -0.0416938 -0.07215884 -0.075656824
000130 03 a3 a6 3d 13 79 f6 3b f1 4f 28 bc ef 75 bb bd
       0.08136561 0.0075217574 -0.010272966 -0.091533534
000140 4e 84 d4 3c af 63 8f 3d a3 dd ba 3d fc 45 82 bd
       0.025941994 0.07001435 0.09124305 -0.06361005
000150 0e ac db bc 1e 75 82 bd a0 49 a2 3d 7a e2 0a 3d
       -0.02681544 -0.063699946 0.07924199 0.03390739
000160 bc 32 c6 bd a8 c8 e3 3d c3 02 d0 3d f8 15 8f bd
       -0.096776456 0.111222565 0.10156777 -0.06986612
000170 1c 06 02 3e c1 42 f8 bb 98 2b b3 3d 6c 6d ba bd
       0.12697643 -0.007576317 0.08748549 -0.09102902
000180 c9 14 91 bd ab c1 1d bb f1 76 09 3d be 0e e3 bb
       -0.070840426 -0.0024071734 0.033560697 -0.0069292476
000190 41 14 4d 3d 46 fe 15 bd b0 12 96 bd bd 9d 59 bd
       0.050068144 -0.036619447 -0.07327783 -0.053128947
0001a0 6a 1f 45 bc 42 fe 1a bd 9c e8 c1 3d 95 58 f3 bd
       -0.0120314155 -0.037840135 0.09468195 -0.1188213
0001b0 48 27 49 3c dd d2 56 bd 4a b3 d2 bb e9 d4 75 bd
       0.012277432 -0.05244719 -0.0064300643 -0.0600175
0001c0 f1 8c 81 bd 69 00 85 3d e3 eb 52 bd 83 24 bd bd
       -0.063257106 0.06494219 -0.05149449 -0.0923548
0001d0 e8 c0 8f bc b0 76 9b 3c f6 52 3d 3d dd 0b 40 3d
       -0.01754804 0.018977493 0.046221696 0.046886314
0001e0 47 20 eb bc 8a 1a 02 3d 7c 9a fd bd b4 22 22 3d
       -0.028701914 0.03176359 -0.12382981 0.039583877
0001f0 b5 2a 8d bb 15 bc 82 bd a9 d8 bb bd 86 4a 53 bd
       -0.0043080696 -0.0638353 -0.09172184 -0.051584743
000200 b7 dd 53 3d 63 c5 47 bd 0a 99 b4 3d 71 1a c4 bc
       0.051725116 -0.048772227 0.088182524 -0.02393839
000210 c2 21 85 3c 6a 46 9c 3d 49 b0 c8 bd f9 0f 65 bd
       0.016251449 0.07630618 -0.09799249 -0.055923436
000220 85 a3 75 bc e7 61 72 bd 8a 57 a1 bd 68 18 ab bd
       -0.014992599 -0.0591754 -0.07878025 -0.083542645
000230 e9 fa 13 bd c6 fd 0f 3c 83 b6 d4 3d 6c e5 d7 3d
       -0.03612796 0.008788532 0.10386374 0.105418056
000240 1b 8b 8f 3d 16 b1 09 3d af bd a5 3b 10 f9 a6 bb
       0.07008954 0.033616148 0.0050580124 -0.0050956085
000250 a2 e4 63 3d b5 26 85 bc 4f cd eb 3c dd b0 d0 3d
       0.055637963 -0.016253809 0.028784422 0.10189984
000260 07 c4 7c 3c a3 20 96 bb 63 e9 e4 bd 98 20 44 bc
       0.015427596 -0.0045815273 -0.111773275 -0.011970662
000270 23 49 5d bd e5 eb 28 bd cb 74 83 bd 0b 46 be 3c
       -0.054024827 -0.04124059 -0.06418761 0.023226758
000280 f1 0b e8 bd fe d7 9d 3d bc af 9e bd 4f be f7 3a
       -0.11330403 0.07707213 -0.077483624 0.0018901321
000290 ca 56 c1 3d 2b 4b ab 3d 3d 8c 88 bd 01 e5 87 3d
       0.09440382 0.083639465 -0.06667373 0.06635476
0002a0 72 ce 0a bc 0d ce c6 3c 7c 88 b9 3d 14 a1 2e 3b
       -0.008472072 0.024268175 0.090592355 0.0026646303
0002b0 fe f1 88 3d 25 24 1d bc b2 e2 68 bd db b1 91 3d
       0.06686781 -0.009591137 -0.05685682 0.07114001
0002c0 4d 5d 50 3d 89 4f ab 3d 80 3a db 3d c4 18 a6 bc
       0.05087023 0.083647795 0.10704517 -0.020275481
0002d0 53 42 cf bc 9e c4 05 3c 72 78 98 bd 94 09 b0 3c
       -0.02530018 0.008164553 -0.07444848 0.021488942
0002e0 38 d3 b2 3c 36 7a c9 bd 55 2d 3c bc 86 4f 9d 3c
       0.021829233 -0.09837763 -0.011485417 0.019202959
0002f0 e4 38 69 3d 72 87 a0 bc 7f 1b ab 3d a2 dc aa bd
       0.05693902 -0.019595835 0.08354854 -0.083428636
000300 a4 3c b7 bb 0d e8 77 3d a8 ac 44 bd 98 5c 2b 3d
       -0.0055919457 0.060524035 -0.04801622 0.04183635
000310 c7 fc ba 3d 2a f4 af bb 62 7d 5d bb 8e c4 06 3e
       0.09130245 -0.005369683 -0.0033796658 0.13160917
000320 a7 e2 d6 3c 8f 8e f0 ba 2c 44 2e bd fc 50 4b 3d
       0.026231123 -0.0018353033 -0.042545483 0.04963778
000330 3e 5a d9 3d 27 9a 88 3d bf 05 95 bd 65 7b c8 3d
       0.106129155 0.06670027 -0.072764866 0.09789161
000340 13 4e 41 3d e9 82 c9 3d a4 e0 48 bd aa 8e 08 3e
       0.047193598 0.09839422 -0.04904236 0.13335672
000350 e9 42 87 bd 6a 12 e0 3b d0 3e 00 3e d7 5c 0b bd
       -0.06604559 0.0068381326 0.12523961 -0.034024086
000360 60 41 25 3d 3c b4 11 bd 8e bf 05 3e cf 38 fd 3d
       0.04034555 -0.035572276 0.13061354 0.12364351
000370 e0 1f 06 3d e3 32 0a 3c 99 02 97 bd 38 b9 63 3d
       0.032745242 0.008434984 -0.07373542 0.05559656
000380 f2 61 f0 bb c1 68 36 3b 7e 6e 04 bd a3 02 8f 3d
       -0.0073358947 0.0027833434 -0.032331936 0.06982925
000390 b8 78 cc bd 90 0e a0 3d 9b 11 e6 3c d0 75 7f bd
       -0.09983963 0.078152776 0.028084567 -0.062368214
0003a0 33 4c aa bd 3d 30 04 3b 62 74 aa 3c f1 bc 5b bd
       -0.08315315 0.0020170354 0.020807449 -0.053646985
0003b0 19 fe 57 bd 7a df a4 3d 3a b5 90 3d 98 b2 f3 bd
       -0.05273256 0.08050437 0.07065816 -0.118992984
0003c0 b1 98 15 3d 3c 70 f7 bd b1 cc e5 bd 20 02 db bd
       0.03652257 -0.12081954 -0.112206824 -0.10693765
0003d0 53 fd 41 3d f0 a6 f8 bd 62 d5 b0 bd a0 1e 1b bd
       0.04736073 -0.12141216 -0.086344495 -0.037871003
0003e0 99 2c 9e bb 76 ff b6 bd d1 59 4c bd 1c 2d f2 bc
       -0.004827094 -0.08935444 -0.049890343 -0.029562525
0003f0 30 d4 ed 3c 8e e1 97 3d 5b 7d ba bc 04 ec 7e bc
       0.029031843 0.07416068 -0.022764852 -0.0155592

layer1.0.bias f4 [8]
000000 06 bb 1b bd ba 1d f4 3d 9e 98 c9 bd 90 19 a3 bd
       -0.038020156 0.119197324 -0.098435625 -0.0796386
000010 ee 6c 8e 3d 40 be 5e 3d 96 ac 65 3d 1e 80 4a 3d
       0.069543704 0.054380655 0.056072794 0.04943859

layer1.2.weight f4 [8]
000000 51 57 80 3f 27 fa 79 3f b6 9b 7c 3f a3 b1 7d 3f
       1.0026647 0.9764733 0.98675096 0.9909918
000010 0c ea 7e 3f 35 51 84 3f ed fe 80 3f 30 56 82 3f
       0.9957588 1.0337282 1.0077797 1.0182552

layer1.2.bias f4 [8]
000000 33 fe 9f bc 20 1d a0 bb 2f 26 dc bb f4 48 91 3c
       -0.019530391 -0.0048862845 -0.006718419 0.017734982
000010 64 5c 76 ba 5a 3d 86 3c 72 08 15 3b d7 88 9e bc
       -0.00093979225 0.016386677 0.002274063 -0.01935236

layer1.2.running_mean f4 [8]
000000 ad 8c ea 3e a5 26 08 3c fc 6b 3d 3f 64 97 64 1e
       0.45810452 0.008309995 0.73992896 1.2101526e-20
000010 33 de 08 3f 87 f1 70 3d 8c a0 46 3a 1a c0 48 3b
       0.5346405 0.05882409 0.0007577024 0.003063208

layer1.2.running_var f4 [8]
000000 06 db ae 3d f0 5e 4a 3a 4e c9 e3 3d 15 f2 92 2a
       0.08537869 0.0007719835 0.1112238 2.6102788e-13
000010 15 e9 22 3d e8 3e 36 3b ed 2c 05 39 89 f1 12 3a
       0.039773066 0.002780849 0.00012700605 0.00056054496

layer2.0.weight f4 [14, 8, 1, 1]
000000 72 f5 47 be 66 fd b4 3d 9f 3b 41 3e a1 d5 27 3e
       -0.19527224 0.088373944 0.188704 0.16390087
000010 d4 46 9a be 28 a2 21 be e2 23 65 bc 54 11 7c be
       -0.30132163 -0.15784514 -0.013985606 -0.24615985
000020 b8 47 90 3e 52 b7 37 be df 23 5d 3e 1d cc 64 3e
       0.28179717 -0.17941025 0.21595715 0.22343488
000030 8a ec fa 3d f8 01 89 3d 26 7a 13 be 4c a6 98 bd
       0.122521475 0.06689829 -0.14402065 -0.074535936
000040 2a e9 93 3e 5c 02 6d be 4c 2c 4c be 95 5a a0 3e
       0.28888828 -0.23145431 -0.19938773 0.3131911
000050 c0 49 86 bc ac 52 3b 3e 81 81 9d 3e f4 eb a4 bd
       -0.016392589 0.18293256 0.30762866 -0.08052817
000060 eb 18 3a 3e a2 cd b1 3b db b0 58 be 96 f0 95 3e
       0.18173568 0.0054261247 -0.21161215 0.29285115
000070 a1 b3 3d be 71 00 e1 bd 0c ab 68 be c3 58 b3 bd
       -0.18525554 -0.10986412 -0.22721499 -0.08757164
000080 4e 9f a5 3e 75 a7 99 be 84 42 94 bd d1 21 ba be
       0.32348102 -0.30010572 -0.07239249 -0.36353925
000090 68 9a 0d 3e 84 f2 61 be 73 e6 97 3e bd a9 55 3e
       0.13828433 -0.22065169 0.29668006 0.20865531
0000a0 17 37 2b 3e 87 62 9e be 49 e4 99 3d 5f a3 55 3e
       0.16720234 -0.30934545 0.07514245 0.20863102
0000b0 63 1a 2e bd b1 58 45 3e 2c 6e af 3e 77 4e 94 be
       -0.042505633 0.19272114 0.34263742 -0.28966114
0000c0 24 64 07 be 89 9a 68 bd 3b df 0c 3e aa c4 31 3d
       -0.13221794 -0.056788 0.1375703 0.043400444
0000d0 ed 95 a0 3e 27 1e ba 3e 20 55 01 3d 75 27 e0 3d
       0.31364384 0.3635113 0.031575322 0.10945026
0000e0 2c bc 4b be cf 31 99 3e e1 f1 dd 3b 54 07 1e bd
       -0.19896 0.29920813 0.006773219 -0.038581207
0000f0 35 3d 87 be 97 4d 7d bd c3 ff 35 3e 99 44 67 be
       -0.26413885 -0.061841574 0.17773347 -0.22584762
000100 eb 83 89 3e 41 30 62 be eb e3 ca bc d6 6a a6 be
       0.26858458 -0.2208872 -0.024766883 -0.32503384
000110 e1 f0 88 3e 34 3e a9 3d 62 7a 71 be 10 94 36 be
       0.26746276 0.082638174 -0.23581842 -0.17829919
000120 9a 7b 35 3e be a7 b6 bd d7 7c 3f be 86 ff 9b bd
       0.17722932 -0.08918713 -0.18699966 -0.076170966
000130 c0 c9 9e 3e 6c 7b 9d bc a5 0e 91 bd 36 1d 6a be
       0.31013298 -0.019223891 -0.07082871 -0.22862706
000140 20 6c 09 3e 08 85 df bd 66 df d4 bd 2d 84 ab be
       0.13420153 -0.109140456 -0.10394172 -0.3349928
000150 3d 90 8d be c0 9d 89 be 41 6a 51 be 05 5d c0 3d
       -0.27649108 -0.26878166 -0.20450689 0.09392742
000160 ce ad a5 be 99 26 38 be e9 12 98 3e b7 25 30 3e
       -0.32359165 -0.17983474 0.29701927 0.17201887
000170 06 6c 49 be bd 47 ce 3d e9 71 94 3d 35 d9 5d be
       -0.19670114 0.10072277 0.07248289 -0.21664889
000180 ad 49 4c 3e b3 02 14 3c 0d c6 89 3e c1 e3 3a 3e
       0.1994998 0.009033847 0.26908913 0.18250944
000190 05 d0 1e bd bf d8 95 3d c7 30 a6 3e de bc 1b be
       -0.0387726 0.07316732 0.3245909 -0.15208766
0001a0 f8 e4 cd bb 7a dd d8 3a 29 5d 87 3e 2d dc 98 be
       -0.0062833987 0.0016545497 0.26438263 -0.2985548
0001b0 1e 6f a5 be 03 3f b1 3d c0 29 51 3e 0c 45 7e 3b
       -0.32311338 0.08654597 0.20426083 0.003879848

layer2.0.bias f4 [14]
000000 16 79 4c bd 46 da 32 3e 9e b1 af 3d 7d b5 b5 be
       -0.049920164 0.17466077 0.085788 -0.35490027
000010 c3 aa c7 3c 5f 58 5e be ab b2 a1 3e 86 3e 99 be
       0.024373418 -0.21713398 0.31581625 -0.29930514
000020 24 aa 88 3d 07 6b 88 3e e9 1d a4 be 00 c8 09 bd
       0.06673077 0.26644155 -0.3205407 -0.033638
000030 df a4 1d 3e f0 95 5c be
       0.15394925 -0.21541572

layer2.2.weight f4 [14, 14, 3, 3]
000000 49 72 74 3d 04 23 5e 3d 3b 51 ae bc 41 e3 18 3d
       0.059679303 0.054232612 -0.021278968 0.0373261
000010 c3 66 43 ba 8b 6e c1 3d da 4e 82 bd 41 f0 ba bc
       -0.00074539724 0.094449125 -0.06362696 -0.02281964
000020 61 63 93 bd e8 e9 b2 3c b0 20 7a bd 6e 37 24 bd
       -0.071966894 0.02184005 -0.06106633 -0.040091924
000030 cb 68 41 bd 40 d8 92 3d 5d 81 1a 3d de 93 98 3d
       -0.04721908 0.07170153 0.037721027 0.074500784
000040 ee 5a 98 3d 82 ca 7f bd 9f d7 a5 bc d9 84 46 bd
       0.074392185 -0.062448986 -0.020244418 -0.048466537
000050 fe 16 87 bc a4 26 a2 bd 6b c5 5a 3c 5a 1c c2 bd
       -0.016490456 -0.07917526 0.013352732 -0.09478064
000060 57 ca f1 bb fe 29 56 3d 21 53 8e bd de 7c 6e 3d
       -0.007378857 0.05228614 -0.06949449 0.05822455
000070 23 dd d8 3c 23 7e 83 3d 9f f6 69 bd ed dd e3 bd
       0.026472634 0.06420543 -0.05711996 -0.11126313
000080 b6 ee 14 bd b0 4f 52 3d 36 da b3 3c e1 f7 63 bd
       -0.036360465 0.051345527 0.021954637 -0.055656318
000090 70 90 29 bd 37 0f ca bd a8 a6 43 bd 25 4c c5 3c
       -0.041397512 -0.09866183 -0.047766358 0.02408416
0000a0 21 f7 96 3d ad cb 90 bc 2d 2d 7d bd 4f 8b 83 3c
       0.07371355 -0.017675245 -0.06181066 0.016057638
0000b0 d7 7b 93 3d d9 db 30 3d c5 e8 f7 bc 94 89 77 3c
       0.07201355 0.043178413 -0.03026236 0.015108485
0000c0 8b 12 38 bc 0f a3 18 bc ea 4f fc 3c 70 20 22 bd
       -0.01123489 -0.00931622 0.030799825 -0.039581716
0000d0 f8 3c 28 3d f6 7d 33 3c 54 aa c0 3d c4 62 c0 3c
       0.04107377 0.010955324 0.094074875 0.023484595
0000e0 75 d5 97 3d 00 0d cb bb e3 d8 b8 3a 5e 57 4e 3d
       0.074137606 -0.006196618 0.0014102723 0.05037629
0000f0 51 2c 7c 3d 99 e9 f8 3c ef ef c9 3c b4 1d 35 3c
       0.0615657 0.030384826 0.024650542 0.011054445
000100 29 72 a7 bd a2 c7 0d bd f2 c1 c6 3d 99 75 a5 3b
       -0.08176071 -0.034614213 0.09704961 0.005049419
000110 48 62 83 bb 6b 32 34 bc ea bd 7b 3d 35 6c a1 bd
       -0.004009519 -0.010998349 0.061460413 -0.07881967
000120 e8 db a9 3c dd 9b 8e bd 62 67 81 bd d7 bd 8d 3d
       0.020734742 -0.06963322 -0.06318547 0.06920975
000130 64 bc 8a 3c bf f4 d7 3a a8 f0 fc bb e1 9b 6e 3c
       0.016935535 0.0016476138 -0.007719118 0.014563532
000140 77 38 f2 3b 18 6d 95 3d e3 a0 86 3d 0c c4 4c bd
       0.007391985 0.072961986 0.065736555 -0.049991652
000150 2f b5 d0 bc fe 77 71 bd 0c 16 72 3d d8 c9 91 3c
       -0.02547702 -0.058952324 0.059103057 0.017796442
000160 7e fb f4 3c da fe 04 3d f3 69 06 bd 6b 70 2c bc
       0.029905077 0.032469608 -0.032815885 -0.010524849
000170 fc 6c 29 3c 16 ce 19 bd ca 88 82 bd ae ab 82 3d
       0.010340925 -0.037550054 -0.06373747 0.063804016
000180 b4 3c 6a 3d 39 a0 f5 bd 6f 45 68 bd f5 da 3c 3d
       0.057186797 -0.11993451 -0.056706842 0.04610725
000190 36 e4 ce 3c a2 8d 5c 3b 22 cb e9 bc e1 1f 0e 3c
       0.025255304 0.0033653756 -0.028539244 0.008674593
0001a0 c7 82 31 bd a6 60 6e bd 29 dd 7c 3d 9c f8 50 bd
       -0.04333761 -0.05819764 0.061734352 -0.051018342
0001b0 d9 b8 65 bd 33 a7 97 3d 90 38 07 3d b3 cc 39 bd
       -0.056084488 0.074049376 0.033012927 -0.045361232
0001c0 f9 6e 53 3c 30 ea 23 bd e6 3c f8 bb 81 63 3b bd
       0.012904876 -0.04001826 -0.007575619 -0.04574919
0001d0 27 98 d4 3d f7 07 59 3d 7b 42 a7 bb 49 81 3b 3c
       0.10380583 0.05298611 -0.0051043606 0.011444398
0001e0 ec 0d 5f 3c f7 a8 13 3c 41 27 48 bd ed 26 99 3d
       0.013614159 0.009012452 -0.04886556 0.07478128
0001f0 bd c0 57 bc 48 2b 33 3c 13 38 a8 bd 16 1d 6a 3d
       -0.013168511 0.010935612 -0.0821382 0.057156645
000200 05 83 a0 3d 9e 36 8f bd 3e 82 0a bd 90 8a 86 3d
       0.0783749 -0.06992839 -0.033815615 0.065693974
000210 95 b0 d4 3d bf 1c 41 bd 0a 5d 9e bb 1b be 47 bd
       0.10385243 -0.047146555 -0.0048328685 -0.048765283
000220 18 69 42 bd 2d 3e 79 3b 5b b8 af bc 7a 60 88 bd
       -0.047463506 0.0038031444 -0.021450212 -0.066590264
000230 0d 3c 59 bb 00 e6 40 3d c2 42 4d bd 66 fe 5f ba
       -0.0033147365 0.047094345 -0.050112493 -0.0008544683
000240 c7 8f c7 bc ca fe 8c 3d c1 60 63 3c 60 6e 1c 3d
       -0.02436055 0.06884535 0.013878048 0.0381912
000250 02 c4 a9 3d b8 b9 8f ba 43 0b 2f 3d f6 b2 fe 3b
       0.08289339 -0.0010965383 0.04273535 0.0077727986
000260 92 c5 94 3d 94 69 83 3d e0 e9 1f bd ec 2b 7c 3d
       0.07264246 0.06416622 -0.0390414 0.061565325
000270 c1 2d 7b 3c 12 4c b8 3d 49 6e ca bc be 57 a0 bc
       0.015330733 0.08998884 -0.024710791 -0.019573089
000280 5e 34 83 3d 47 a5 eb bd c8 76 d4 3d 80 41 b0 bd
       0.064064726 -0.115061335 0.10374218 -0.08606243
000290 6e 73 bc 3d 06 d2 a4 bd 19 43 69 3d 4a 79 ad 3c
       0.09201704 -0.08047871 0.056948755 0.021176
0002a0 65 0c ad ba 3e e5 76 bc 21 81 6d 3d 82 8f 87 bd
       -0.0013202546 -0.015069304 0.057984475 -0.06619169
0002b0 c2 36 46 bd e9 79 42 bd 04 90 8f 3c 20 95 95 bd
       -0.048392065 -0.047479544 0.017524727 -0.07303834
0002c0 52 40 b1 bd c6 93 58 bc 42 f1 e3 3c 33 bf 9b 3c
       -0.08654846 -0.013218826 0.027825002 0.01901207
0002d0 02 d9 b0 3c ed 8b 14 3c 00 d1 cc 38 1c 29 ae 3d
       0.021587852 0.009066564 9.766407e-05 0.08503935
0002e0 f6 ff 13 3b ee a2 dd 3b 60 56 bb 3b 6d 0d aa 3d
       0.0022582985 0.0067638075 0.005717084 0.08303342
0002f0 24 a9 bf 3c 3c 9f 12 bd 5a 48 11 3c 49 b2 9e bc
       0.023396082 -0.03579639 0.008867348 -0.019372122
000300 c4 40 1f 3d 25 4b dc bc e7 5a cd bd d0 f4 8e 3d
       0.038880125 -0.0268913 -0.10027104 0.06980288
000310 f6 fc bf bd 7b b2 c0 3d c7 45 c6 3d 77 40 aa 3d
       -0.0937442 0.094090424 0.09681278 0.08313077
000320 42 38 c7 3c a7 a7 64 3c 3c 98 4c 3d 9f 85 95 bd
       0.024318818 0.013955987 0.04994987 -0.07300877
000330 69 5c 44 bd c5 d9 db bc 63 59 20 bd 1f 23 63 bd
       -0.04793969 -0.026837239 -0.039147746 -0.055453416
000340 bd 75 c5 bc 37 88 a4 bc e2 b7 0d 3a 31 ae 2e 3d
       -0.024103994 -0.020084484 0.0005406124 0.04264659
000350 3e 04 d4 3d 8c 59 a9 bd 52 62 5e 3b 69 63 84 3d
       0.10352372 -0.08269033 0.0033933115 0.064642735
000360 f4 eb 08 bc 03 a5 67 bc 98 49 9c bd 95 09 b0 bc
       -0.008357037 -0.014138463 -0.076312244 -0.021488944
000370 ba ec c0 bd d7 a5 8a 3c ee b2 d0 bc e3 76 1a bd
       -0.09420152 0.016924782 -0.025475945 -0.037711035
000380 fe 72 d0 bd b2 0f 40 bd 9a 88 cd 3c d2 a1 98 bc
       -0.10178183 -0.04688997 0.02508955 -0.01863185
000390 b1 f4 10 3c b2 1e 57 3c 8c a2 e3 3d 79 5f 9a 3d
       0.0088474015 0.013129877 0.11114988 0.07537741
0003a0 1a d4 b0 3d 10 52 51 bb 59 b9 8f bb 4d c3 a5 3d
       0.08634205 -0.0031939782 -0.004386109 0.08093891
0003b0 4c 22 84 3d be a1 8d bb bc 84 b0 3c 4f 9f ac 3d
       0.06451854 -0.0043222597 0.021547668 0.08428823
0003c0 d3 07 1d 3d 34 a4 7a 3d 44 87 35 bd 5f 7a a8 bd
       0.03833754 0.061191753 -0.044318452 -0.082264654
0003d0 be d7 30 3d 49 50 52 bd 75 be aa 3b 46 29 b9 3d
       0.043174498 -0.051346097 0.0052106925 0.090410754
0003e0 e1 9c d8 bc f5 89 8f 3c 00 22 05 bd 3c 0f 06 3e
       -0.026441993 0.017521838 -0.032503128 0.13091749
0003f0 25 cb 82 3d 81 e5 be bc 0e b8 59 bd f2 98 0f bd
       0.06386403 -0.023302795 -0.053154044 -0.03505797

layer2.2.bias f4 [14]
000000 75 bb f4 3c 77 1a 28 bd 18 7c b3 bd e3 36 77 bd
       0.029874543 -0.041040864 -0.087639034 -0.06035508
000010 e9 64 96 3c 61 18 4b 3c 46 6c 17 3d 14 da 89 bd
       0.018358665 0.012395949 0.036968492 -0.06731048
000020 43 69 46 bc 1c 22 17 3c 37 ce 58 3c 8d 4d 55 bc
       -0.012110057 0.009224441 0.013232759 -0.013018978
000030 87 06 e8 bd 45 b6 9a 3d
       -0.1132937 0.075542964

layer2.4.weight f4 [14]
000000 14 ec 7e 3f 2a b7 79 3f 58 f2 80 3f dd e4 79 3f
       0.99578977 0.9754511 1.0073957 0.9761484
000010 c8 32 7c 3f be 03 84 3f e3 23 7d 3f ae 1b 7d 3f
       0.98514986 1.0313642 0.98882884 0.9887036
000020 6d 76 81 3f a5 07 7b 3f bb a0 81 3f c2 3a 7d 3f
       1.0114266 0.9805854 1.0127176 0.9891778
000030 97 6b 7d 3f b2 93 83 3f
       0.98992294 1.0279448

layer2.4.bias f4 [14]
000000 c7 72 84 bd 52 a8 26 bb 88 f8 c8 bc dd 9b 2f bc
       -0.064672045 -0.0025429917 -0.024532571 -0.010718313
000010 77 11 87 3c ef 9d df 3a 62 2f 99 bc 78 7d 25 bd
       0.01648782 0.0017060618 -0.018699352 -0.04040286
000020 42 0c ca bc 2f 38 53 3c 81 e4 6b bc 62 6a ab 3b
       -0.024664048 0.012891813 -0.014397741 0.0052311877
000030 cc 3f d8 3a 3b 76 de 3c
       0.0016498505 0.027155986

layer2.4.running_mean f4 [14]
000000 5a 4b 47 3e c0 eb 5d 3e b7 4b 52 3b 99 93 8c 3d
       0.19462338 0.21671963 0.0032088587 0.068640895
000010 0e cd 82 3b 1c d1 70 3c 87 5f 0a 3d 03 4c 1c 36
       0.0039917296 0.014698293 0.03378251 2.3290056e-06
000020 8f 23 e4 3d d8 f4 8f 3e 6a f9 8d 3c f8 9b f9 38
       0.11139595 0.28116488 0.017330844 0.00011902297
000030 c5 14 d7 3c 79 92 9b 3b
       0.02625502 0.0047476855

layer2.4.running_var f4 [14]
000000 37 e4 9d 3c 78 14 49 3d f3 28 44 3b 05 11 f0 3d
       0.01927386 0.049091786 0.0029931634 0.11721996
000010 cd 19 44 3a 86 a8 51 3b cf 57 07 3d 2f 78 fb 34
       0.0007480651 0.0031991317 0.033042725 4.6839838e-07
000020 64 60 c0 3c b5 f5 08 3e 3a b1 60 3c b6 90 69 36
       0.023483463 0.1337498 0.013714129 3.4803938e-06
000030 40 3b 40 3d b1 e1 a0 3a
       0.046931505 0.0012274293

layer3.0.weight f4 [44, 14, 1, 1]
000000 63 71 61 3e 61 c9 43 3e cc 8e 29 bd 97 46 f1 bd
       0.2201591 0.19119789 -0.041395947 -0.11781042
000010 d7 1f 2f be b8 c8 05 be 61 f2 93 bd 64 04 40 bc
       -0.1710199 -0.1306485 -0.072239645 -0.011719797
000020 87 6e 67 3e a6 c7 97 3d 2a ef 47 3e 3d 27 11 be
       0.22600757 0.07411127 0.19524828 -0.14175124
000030 14 cf 68 3e 25 02 85 be 98 cc 6c 3e d1 2b 5b 3d
       0.22735244 -0.259782 0.23124921 0.053508583
000040 ae 85 58 3e c6 db 91 3d ed 65 1d be 8a 03 65 3e
       0.21144745 0.071219966 -0.15370913 0.22364631
000050 55 8a 3e 3e 80 d3 dd bd 79 0a 05 be 61 69 3e be
       0.18607457 -0.10831356 -0.12992276 -0.18594886
000060 69 ec 38 3d a4 16 6c be a5 53 1f 3d b3 41 f7 3d
       0.045147333 -0.23055512 0.03889813 0.12073078
000070 b2 3f a4 3c 34 fe 7e be f8 30 96 bd 08 2a 37 3e
       0.020049904 -0.24901658 -0.07333559 0.17887127
000080 82 7c c8 3d aa 85 63 be 47 23 cf 3d 92 1e 35 3e
       0.09789373 -0.22218958 0.101141505 0.17687443
000090 48 c7 89 3d 35 9d 1c be bd 0f 27 bd 17 56 db bd
       0.06727463 -0.15294345 -0.040786494 -0.1070978
0000a0 ba 6c 1c be a8 e5 cf ba b2 b9 18 be 76 88 99 bd
       -0.15275851 -0.001586129 -0.14914587 -0.07496731
0000b0 2e b4 6e 3e 0f fd aa bd 9a 68 d6 bd c9 09 30 be
       0.2331092 -0.08349048 -0.1046917 -0.17191233
0000c0 69 a5 93 3d 65 de 78 3d 7e 6e be 3d 1d 82 31 3e
       0.07209284 0.060758967 0.092984185 0.1733479
0000d0 04 5e ee 3d eb 86 01 3e 49 d0 f3 3d 96 6b 1d be
       0.11639026 0.12649123 0.119049616 -0.15373072
0000e0 40 53 88 3e cd 82 59 3e ff 13 7e 3e 4a a4 3c 3e
       0.26626015 0.21241303 0.24812315 0.18422046
0000f0 c6 18 d0 bc 86 d9 c1 bd 3d fa 70 be 61 f0 7d 3e
       -0.025402438 -0.094653174 -0.23532958 0.24798729
000100 cc e3 83 3e 47 e0 5c be dc 4a d1 3d 76 8b 17 3e
       0.25759733 -0.2156993 0.102193564 0.14799294
000110 3c 4e f4 bd 12 15 08 be 86 a2 74 3e 45 1a 0f bd
       -0.119289845 -0.13289288 0.23890123 -0.034937162
000120 07 2a 4e be e2 06 10 3e 53 d7 c4 3c f1 b4 23 3e
       -0.2013322 0.14065126 0.024028456 0.15986992
000130 e7 94 42 3e 0d e1 5b 3d 49 07 7b 3e 3a a0 88 be
       0.19002114 0.053681422 0.24514498 -0.26684743
000140 2b de 7c bd c4 60 ad bd 64 32 2e 3e d6 63 4c be
       -0.061735313 -0.08465722 0.1701141 -0.1995996
000150 b1 7c 17 3d 9e 0f be bd 36 13 82 be b5 39 19 be
       0.03698415 -0.092803225 -0.25405282 -0.1496342
000160 2b 20 3f 3e 55 93 30 be 2e 7b 0e 3e 1e 9a 16 3e
       0.18664615 -0.17243703 0.13914177 0.14707229
000170 08 cf 3c bc 89 45 7f 3e c8 da 81 be 1b cf 01 be
       -0.0115239695 0.2492887 -0.2536223 -0.1267666
000180 7c 30 60 3e 2f c1 b7 3d 8a 2d 59 bb e1 cf bd bd
       0.21893495 0.08972394 -0.0033138716 -0.092681654
000190 15 13 b5 3d 07 3b 3e be 5e ba 36 3d 4c 83 c4 3c
       0.0884153 -0.18577205 0.044611327 0.023988388
0001a0 89 8b 62 bc 38 60 3f 3e 71 71 28 3e 1e b5 ba 3d
       -0.013827213 0.18689048 0.16449524 0.091165766
0001b0 7d 28 e1 3d 90 ac 7d bd b9 57 00 be d4 18 18 3e
       0.10994051 -0.061932147 -0.12533464 0.14853221
0001c0 1d 5a 82 3e 69 3f 7f 3e 4e b7 d0 bd 7a 82 33 3e
       0.25459376 0.24926533 -0.101912126 0.17530242
0001d0 82 e8 3b 3d 33 44 b3 bc 63 f9 c1 bd 72 f7 a9 3d
       0.045876034 -0.021883106 -0.09471395 0.082991496
0001e0 b1 02 7e 3c 85 48 59 3e 90 c3 89 3e 9d a7 74 3e
       0.015503571 0.2121907 0.26907015 0.23892064
0001f0 6b 0c 9b 3d aa 7c 18 be e3 c6 cd 3c 43 ac 79 be
       0.07570728 -0.14891306 0.02511925 -0.24382119
000200 f0 2c 65 3e 3a 0c 78 3d d2 27 37 3e 4c ec c1 3d
       0.22380424 0.060558535 0.17886284 0.09468898
000210 15 0a 51 3c d4 2a 65 be 18 33 41 3c b8 64 d3 bd
       0.012758751 -0.22379619 0.011791967 -0.10321945
000220 32 e2 82 bd bf 48 4f bd 30 33 85 3d ce fa 8c be
       -0.063907996 -0.050606485 0.06503904 -0.275351
000230 01 14 75 bc 27 9d e7 bd cc 9e 82 be 99 ed 45 3e
       -0.014958383 -0.11309271 -0.25511777 0.19328918
000240 e0 21 66 3e 1b 2e 05 be c1 c0 73 3e 07 66 27 3e
       0.2247386 -0.13005869 0.23803999 0.16347514
000250 69 d7 16 be 80 db 46 bd a4 ce f9 bd 96 e5 89 3e
       -0.1473061 -0.048549175 -0.12197617 0.26932973
000260 d5 70 29 3e 4d 71 03 be 46 f9 1d be cc 26 8b 3e
       0.16546948 -0.1283619 -0.15427122 0.27178037
000270 fd 93 05 3e 06 fa 5b 3e 2f 82 67 3e 3a ff 5a 3e
       0.13044734 0.21482095 0.22608255 0.21386424
000280 5e 6e 5d 3d 99 39 0c bd 6d 80 62 3e 4f dc 81 3e
       0.054060332 -0.034234617 0.22119303 0.25363395
000290 ff f9 bd 3d 13 07 54 3e 0f 14 89 be 06 de d8 bd
       0.092761986 0.20705824 -0.26773116 -0.105892226
0002a0 da 8a 30 be 4e a4 22 3e db 34 88 3d 4c d0 58 bd
       -0.17240468 0.1588299 0.066507064 -0.052933022
0002b0 de 64 61 be 22 da 85 bd 5a 1c 33 3d a5 7e d7 bd
       -0.22011134 -0.06535746 0.04372821 -0.105222024
0002c0 15 64 7b be ab ad 48 be 5a 03 14 3e 9e 37 7e be
       -0.24549897 -0.19597499 0.14454404 -0.24825904
0002d0 67 f9 7e be e8 46 18 be d7 34 5f be 83 c2 58 be
       -0.24899827 -0.14870799 -0.217975 -0.2116795
0002e0 4a 90 0a be 7b 56 44 be 09 49 c1 bc 0f ca 1f 3e
       -0.13531604 -0.19173615 -0.023594396 0.15604423
0002f0 1e d4 6c be 9b 94 e1 bc 0f ba b1 bd bd b3 2f 3e
       -0.23127791 -0.02753668 -0.08678066 0.17158408
000300 90 93 3b 3e 58 8d 5a 3e 7b 94 74 3e 4e 25 50 3e
       0.1831801 0.21342981 0.23884766 0.2032673
000310 ae 32 0f bd c2 9b 44 be ff 74 ef 3d 69 e9 0c be
       -0.03496044 -0.19200042 0.11692237 -0.13760914
000320 33 1b 6b 3e e4 0b c7 bd 34 3d 93 bd 12 5d 4a be
       0.22959594 -0.09719065 -0.07189408 -0.19762066
000330 db 38 14 bc 70 43 c9 3d e7 d4 dc 3c 16 c1 88 3d
       -0.0090467585 0.09827316 0.026956988 0.06677453
000340 35 97 07 3e a2 e0 d4 bd 17 f8 bf bd f1 74 25 bd
       0.13241275 -0.10394408 -0.09373491 -0.040394727
000350 59 d0 bf bc 1d e4 86 bd 1b 9a b8 bd 78 d4 52 be
       -0.023414778 -0.06586478 -0.09013768 -0.20588863
000360 5e 91 42 be 90 fd 63 bd 5b e5 d9 3c b6 5d 31 be
       -0.19000766 -0.055661738 0.026598623 -0.17320904
000370 da 75 d1 3c 6b af 29 3e 9d 80 80 be 76 3f 98 bd
       0.025568891 0.16570823 -0.25098124 -0.07433979
000380 21 a5 92 3b 0e 46 27 3e 3e c8 e7 3d ff b5 a7 bd
       0.0044752513 0.16335317 0.1131749 -0.0818901
000390 0c a5 db ba 11 af 93 3e cc b9 f8 bd 67 d6 03 be
       -0.0016757562 0.28844503 -0.12144813 -0.12874757
0003a0 05 67 17 be 01 ea 94 3b b7 5a 5f be fa c5 2c bd
       -0.14785393 0.004544497 -0.21811949 -0.042180993
0003b0 ae 95 29 3e 61 66 69 3e 4b a4 74 3e 4c ed 4e be
       0.16561005 0.2279296 0.23890798 -0.20207709
0003c0 e4 8a 2b 3e 94 e9 46 be f1 a7 38 be 27 32 12 be
       0.16752201 -0.1942504 -0.18032815 -0.14276944
0003d0 8f ea fa 3d ca c1 1d be 7d 0d e7 bd 27 6c 57 3e
       0.1225177 -0.15405956 -0.112818696 0.2103735
0003e0 ae ec 93 bd 22 07 70 be 80 32 ee bd b7 f5 84 bd
       -0.072228774 -0.23440221 -0.11630726 -0.06492179
0003f0 6d bb 66 3e 85 92 93 3d f3 89 4f be 2e 1e fb 3c
       0.22532435 0.07205681 -0.20267467 0.03065404

layer3.0.bias f4 [44]
000000 94 05 91 3d 09 01 d4 3c 3d 7d ae bc 9a 75 f0 3d
       0.07081142 0.0258794 -0.021299953 0.11741181
000010 35 b7 8f bc 42 c8 6d bd af 36 e6 bd 3f 3e 37 be
       -0.017543415 -0.05805231 -0.11240899 -0.17894839
000020 31 14 31 bd b5 2a 6a 3e 27 66 5e be 70 ce 79 be
       -0.043232147 0.22867854 -0.21718656 -0.24395156
000030 5a 6d 22 3e 6e ff 6e be 90 90 c3 bd 49 74 4c be
       0.15862027 -0.23339626 -0.095490575 -0.19966234
000040 9e 24 18 3e 1c a3 32 bd 62 ca 9a bd 19 30 18 3e
       0.14857718 -0.043612584 -0.07558133 0.14862098
000050 1c 40 36 3e c9 42 cf bd 22 28 55 bc 4e a4 75 3e
       0.17797893 -0.1012016 -0.013010057 0.23988459
000060 84 94 66 3e 87 06 c0 3c 06 af 72 3d 71 04 4b be
       0.22517592 0.023440612 0.059248947 -0.19825913
000070 4b 23 34 3e 4c 8d a7 bd 43 1e f4 3d 6b 97 38 bd
       0.17591588 -0.08181247 0.119198345 -0.04506628
000080 62 ae 77 be 35 63 71 bd 28 75 ef bd 9c 38 ff 3d
       -0.24187616 -0.0589325 -0.11692268 0.12461969
000090 13 a9 58 be 59 da 96 3d 74 2b 36 be 26 74 16 3e
       -0.21158247 0.07365865 -0.17790014 0.14692745
0000a0 02 e4 3c 3e 6e 9e 3a 3d 89 ad 5e 3e c4 4a 68 3d
       0.18446353 0.045561247 0.21745886 0.056711927

layer3.2.weight f4 [44, 44, 3, 3]
000000 85 de ce bc 80 69 5a 3d 6c 7a f8 3c 38 6f 7d bc
       -0.02525259 0.05332327 0.030331813 -0.015468411
000010 bb a8 3d bd 67 bc 25 bd 29 e2 80 3d 3d b0 a2 bc
       -0.046303492 -0.040462878 0.062931366 -0.019859428
000020 35 3d 4e 3c 1a 06 0a 3d 79 23 0d 3d 0f c5 b4 3a
       0.012587835 0.033697225 0.034457657 0.0013791638
000030 fe f8 1c 3c 1e 46 4c 3d 9c 03 a2 3c ae 0b ad 3c
       0.009580849 0.049871556 0.019777112 0.021123733
000040 c6 6e e9 bc c8 ff 28 bd c5 ab 23 bc aa 90 74 bc
       -0.028495204 -0.041259557 -0.0099896835 -0.014927069
000050 e0 65 39 bd 3f 56 93 bc ae 96 83 3c 03 a5 45 bc
       -0.04526317 -0.017985461 0.01606306 -0.012063268
000060 26 78 15 3d 25 c8 1f 3c 38 5f ab bb 67 6b 89 3d
       0.036491536 0.009752308 -0.005229857 0.067099385
000070 fc e6 bb bc fe b0 12 bd b4 8f 23 bd 57 0a 10 3d
       -0.02293729 -0.035813324 -0.039931968 0.03516611
000080 9b 25 66 bd 43 1e 88 bc 48 a1 11 3d a6 6e ef bb
       -0.056188207 -0.016615992 0.0355542 -0.0073068915
000090 0a ff 0b 3d 97 fd 66 3c 9f 02 26 bc 31 bf c9 3c
       0.03417877 0.0140985465 -0.010132461 0.0246273
0000a0 de 53 52 bc 7f bc c9 bc 77 56 47 3d b9 ee db 3b
       -0.012837378 -0.024626015 0.048666444 0.0067118076
0000b0 95 1b b1 bc cd 28 c5 bc 35 1a 8f bc 7c 59 f8 3b
       -0.021619597 -0.024067307 -0.017468551 0.0075790267
0000c0 6a 80 fa 3c 98 e1 c4 bc 95 38 7f bb 89 ec a4 bc
       0.03057881 -0.024033353 -0.0038943638 -0.02013232
0000d0 eb d3 21 bd 0d ab ca 3c 10 a2 16 3c 6d c4 09 bb
       -0.03950874 0.024739766 0.009193912 -0.002102162
0000e0 41 51 f0 bc b1 89 8d bc 1e 5c bb 3c 52 88 87 bc
       -0.02933562 -0.01727757 0.022871073 -0.016544495
0000f0 1c f2 04 bd f1 d8 88 bd 84 44 4c 3d a7 7e 79 3c
       -0.032457456 -0.06682003 0.04987003 0.01522795
000100 a2 0c f3 bc e1 54 b9 bc 24 e9 52 3d 68 cb 9d 3d
       -0.02966911 -0.022623481 0.05149187 0.07704812
000110 14 05 16 3c 93 53 91 bc 7d 37 57 bd 7d 23 b8 3a
       0.009156484 -0.017740047 -0.052543152 0.0014048662
000120 91 b3 11 3d 3b ab 10 bc b4 a4 a3 bc a3 da 97 bc
       0.03557164 -0.008829887 -0.019975998 -0.018536871
000130 8f 01 76 bd f9 c7 90 bc 23 bf ff 3c b4 08 2f 3c
       -0.06006008 -0.01767348 0.03121907 0.010683227
000140 79 e6 8f 3c b9 cd 2b 3c 4d 42 82 bc 82 38 f1 3c
       0.017565953 0.01048606 -0.015900755 0.02944589
000150 be 4e ce bc e6 92 1e 3d 73 f4 bd bc b0 a7 23 bc
       -0.025184032 0.038714312 -0.023187852 -0.00998871
000160 9c ac 28 3d d8 a3 31 bd 13 12 c7 bb 35 20 f7 bb
       0.041180238 -0.043369144 -0.0060751527 -0.007541681
000170 8b 72 06 bd 27 9b ca bc cd 14 2d bd 35 eb 24 bd
       -0.03282408 -0.024732186 -0.042256165 -0.040263373
000180 72 ec df 3c 51 72 90 bb d3 2c ff 3c 64 2f 2b 3d
       0.027334426 -0.004408159 0.031149304 0.041793242
000190 eb 2c 7d 3d f0 3f cd bc 6a d5 fb 39 f5 f0 0a bc
       0.061810415 -0.025054902 0.00048033457 -0.0084803
0001a0 fb ac 9b 3c cc 79 08 bd 4b b7 3d bd fe 46 bd bb
       0.019003382 -0.03331928 -0.04631738 -0.005776285
0001b0 89 61 5b bc 02 21 86 3d e8 8a 61 bd fc b1 79 bc
       -0.013389953 0.065492645 -0.055064112 -0.015240189
0001c0 3a 1a 89 3d 33 92 9a 3c 8c 29 9e 3c 81 c9 20 3d
       0.066944554 0.018868541 0.01930692 0.03925467
0001d0 99 51 61 3b 50 8c 94 3d 6c c1 32 bd ee ac c9 bb
       0.0034380911 0.07253325 -0.043641493 -0.006154648
0001e0 35 38 fc 3c eb d6 ac 3c 63 d0 f6 ba 1e 8b 1c 3c
       0.03078852 0.021098575 -0.0018830415 0.0095546525
0001f0 f5 e8 6f bc 91 5d 85 3c ae 9f d5 bb 75 1e 94 bc
       -0.014642944 0.016279968 -0.0065192794 -0.01808093
000200 c8 e9 05 bd 1a 85 5b 3d 7b 20 5c 3d 46 6d 18 bd
       -0.032693654 0.053593732 0.053741913 -0.037213586
000210 e2 5e dc 3c 48 7f 11 bd d0 72 f7 bc b5 7f 44 3d
       0.026900712 -0.035521775 -0.030206114 0.047973353
000220 5d 52 99 3c 34 e0 d1 bc 5a 06 45 3d 2f 75 50 3d
       0.018716032 -0.025619604 0.04810176 0.050893005
000230 70 74 80 ba c9 cf 84 3d 36 71 00 3b 8e cb 3a bd
       -0.0009800326 0.064849444 0.001959873 -0.04560428
000240 4b 2f 0f 3d d3 15 11 3b 2b 22 23 3b f7 44 8b 3d
       0.03495721 0.0022138252 0.0024892192 0.068002634
000250 d3 89 37 bc 0f 65 7a bd 05 c3 4f bd 3a 92 47 bd
       -0.011202293 -0.061131533 -0.050723094 -0.048723437
000260 4f 31 98 bc 48 66 28 3c 58 9c 4d 3c 0b fc b4 3c
       -0.0185782 0.010278292 0.012549482 0.02209284
000270 ba b3 25 bc 7b 62 39 3d 84 bc 64 bd 0f d3 ac 3c
       -0.010113651 0.045259934 -0.055843845 0.021096734
000280 f4 32 8a 3d ad cd 48 3c 75 2c cf bc 4d 91 a1 bc
       0.06748 0.012256068 -0.025289753 -0.019722605
000290 19 53 4e bc 86 68 23 3d 94 b1 89 bc 54 a5 06 3c
       -0.012593054 0.039894603 -0.016808309 0.008218128
0002a0 30 d7 6d 3c 3d 19 49 bd 1f e3 41 bd 51 80 ef bc
       0.014516637 -0.049096335 -0.04733574 -0.02923599
0002b0 fc 23 08 3d 81 a6 4b bd 20 e5 72 bd 91 b2 23 3d
       0.033237442 -0.049719337 -0.059300542 0.039965216
0002c0 3b 0a 10 3d ed 72 ca 3c 12 c6 55 3c 11 22 26 3d
       0.035166007 0.024713004 0.013047712 0.040559832
0002d0 c5 3f a6 3d c5 8c 2a 3d 17 db f2 3b 29 b0 4c 3c
       0.08117632 0.041638155 0.0074113715 0.012493172
0002e0 94 66 a4 3d e4 5c fa bb 67 80 30 3d b9 da 16 bd
       0.08027378 -0.007640468 0.043091204 -0.036829684
0002f0 f5 57 a1 bc f2 48 32 3d d3 28 47 bc d9 d7 42 3c
       -0.019695261 0.043526597 -0.012155729 0.011892282
000300 06 fb 9d 3c 41 16 29 bd 07 a2 67 bb a1 fc e7 3c
       0.019284736 -0.04128099 -0.0035344379 0.028318705
000310 05 d4 49 bd 7f a1 cf 3b 3c 46 7d 38 f8 15 cb bc
       -0.049274463 0.0063363905 6.038531e-05 -0.024790749
000320 f6 14 8b ba 7f 9b 20 3d 72 5a 2f bd 4e 6c 0a bc
       -0.0010611105 0.039210793 -0.042810865 -0.008448673
000330 e7 a5 82 3c ca 4e da 3b cd 6e 06 3d 82 ec 18 bd
       0.015948249 0.0066622244 0.03282051 -0.037334926
000340 2f 36 da bc 16 95 30 3c 53 6f 07 3d 06 9c 0e bd
       -0.026637165 0.010777732 0.03306515 -0.034816764
000350 4e 16 77 3d ae 3d 00 bd d8 10 84 bc af 51 1e bc
       0.060324006 -0.031308822 -0.016121313 -0.00966303
000360 48 11 fb bc 49 b1 72 bc 09 74 35 bd 5f 75 20 3d
       -0.030647889 -0.014812776 -0.044300113 0.039174434
000370 3a a5 8a bb 05 6b 95 3c 9a bb d7 3c 8d e9 a2 3c
       -0.0042311223 0.018239507 0.026334573 0.019886756
000380 55 03 1c 3d ec dc f9 bb 18 34 6c 3d 83 5e 76 bd
       0.038089115 -0.007625213 0.057666868 -0.060148727
000390 e3 f0 f4 bc 5c 8a 96 3d ec a8 84 3b 21 76 2c bd
       -0.02990002 0.07350609 0.0040484574 -0.042104844
0003a0 51 b7 02 3d de 72 20 bc 3a b7 16 3b 69 09 35 3b
       0.031913105 -0.0097930115 0.0022997395 0.0027624017
0003b0 bb f4 12 bb 96 ee 1d bb 4e 70 9e bc b3 a6 07 bd
       -0.0022423703 -0.0024098507 -0.01934066 -0.03311796
0003c0 21 d4 1e bd 45 67 f9 3c d0 2d 12 3d 52 cd 6b 3b
       -0.03877652 0.03044475 0.03568822 0.0035980535
0003d0 70 85 60 bd 2b 6f 4a bd 20 aa 0d bd 61 af 49 3c
       -0.054814756 -0.049422424 -0.034586072 0.01230988
0003e0 d5 0e 80 3c 2f c5 0e bd 72 18 85 3a 7a 52 40 bd
       0.015632072 -0.034856018 0.001015438 -0.046953656
0003f0 40 28 35 3c 66 ec 0a bd 6e 82 d8 bc c0 5d 12 bd
       0.01105696 -0.033916853 -0.026429381 -0.03573394

layer3.2.bias f4 [44]
000000 a8 1e c2 bc 47 87 a1 3d 1b c9 dc bb 6f 17 db bc
       -0.023696259 0.0788713 -0.006737841 -0.026744572
000010 c6 95 e1 b9 f5 d1 0c bd bd 34 ac 3c 3a 5a 9f bd
       -0.00043026934 -0.034379918 0.021021241 -0.07780881
000020 08 00 07 bb 33 e3 dc 3c 52 8d eb bb 92 f7 4f bc
       -0.0020599384 0.026963806 -0.0071884776 -0.012693303
000030 e2 93 04 39 1c 1b d6 3c 07 9c 16 3d 6f 49 65 bd
       0.00012643592 0.026135974 0.036769893 -0.055978235
000040 58 40 9a 3c 24 59 43 bd cc 81 40 3d 87 6b a9 3c
       0.01882951 -0.047692433 0.046998784 0.020681156
000050 b8 6b 41 bd 09 f6 a3 3c e6 f3 96 3c 1d 47 d7 bc
       -0.04722187 0.02001478 0.018426847 -0.026279027
000060 3c 59 65 3c ea e5 fe bb 6f 04 c8 bb c5 11 54 3c
       0.013998326 -0.0077788727 -0.006104044 0.01294369
000070 36 29 76 3b a2 93 4e bc ec 3b 9e 3c 4f bd 7e 3c
       0.0037561185 -0.012608441 0.019315682 0.015548064
000080 1f d3 3c 3d 1b 5d 4f 3d 1b 2c fe bc 13 da ad 3b
       0.04609978 0.0506259 -0.03102689 0.0053055375
000090 06 8f d7 bc 4a bd cf 3c c9 4f 58 3d e4 48 23 bd
       -0.026313316 0.025358815 0.052810464 -0.039864436
0000a0 e6 a5 2d bc aa 12 13 bd 93 32 91 bd 72 41 95 3c
       -0.010598635 -0.03590647 -0.070897244 0.018219683

layer3.4.weight f4 [44]
000000 40 cb 7c 3f 38 f0 75 3f f4 b7 80 3f 38 b5 82 3f
       0.98747635 0.9606967 1.0056138 1.0211554
000010 d4 d1 7e 3f bb 91 7c 3f 79 52 78 3f e5 8d 7e 3f
       0.9953892 0.9865987 0.97000843 0.99435264
000020 ac a7 81 3f b2 d7 79 3f 1d 2c 83 3f d8 85 81 3f
       1.0129294 0.9759475 1.0247837 1.0118971
000030 69 c2 81 3f 88 91 83 3f aa 2b 7b 3f c6 48 80 3f
       1.0137454 1.0278788 0.981135 1.0022209
000040 02 ac 80 3f 70 28 82 3f 22 54 7d 3f 66 c0 82 3f
       1.0052493 1.016859 0.989565 1.0214965
000050 bc 84 82 3f 6a 41 81 3f 80 49 77 3f c2 ba 7f 3f
       1.0196757 1.0098088 0.9659653 0.99894345
000060 73 7f 7c 3f fe 20 82 3f 0e 4a 7d 3f 0f ec 7c 3f
       0.9863197 1.0166318 0.98941123 0.98797697
000070 79 1b 79 3f 83 9b 7f 3f 70 99 7b 3f 36 3e 80 3f
       0.97307545 0.9984667 0.98281 1.0018985
000080 07 8b 76 3f 1a d7 81 3f bb 4d 80 3f ef 47 80 3f
       0.9630589 1.0143769 1.0023721 1.0021952
000090 dd 0d 83 3f 62 83 80 3f 80 2f 81 3f 84 6b 7e 3f
       1.0238606 1.0040095 1.0092621 0.99382806
0000a0 c7 fe 7e 3f 59 58 83 3f 13 75 82 3f 9b af 7c 3f
       0.9960751 1.0261337 1.0191978 0.9870545

layer3.4.bias f4 [44]
000000 77 8e 0a bc 8f 7e 73 bb 36 a9 11 bc af 03 1b 3d
       -0.008456818 -0.0037154292 -0.008890441 0.03784531
000010 4b e4 94 3c 66 7b 90 3c 83 30 1a bc 3d d6 48 3c
       0.018175265 0.017636966 -0.00941098 0.01225811
000020 7c 91 7b bb 8a fa 69 3b 22 ea fc 3b 20 7e 42 bc
       -0.0038386276 0.0035702311 0.0077183405 -0.011870891
000030 12 18 03 3c d3 51 c7 3c c6 40 12 3c c3 ab 51 3b
       0.008001344 0.024331009 0.008926576 0.0031993247
000040 f0 dc 8c bc 5a 2b db 3b b1 08 67 b9 79 ba 26 3c
       -0.017195195 0.0066885175 -0.00022033115 0.0101762945
000050 c7 59 c3 bb 52 57 e7 bc 15 ef 17 38 5e 23 24 bc
       -0.00596163 -0.02823988 3.6223868e-05 -0.010018198
000060 cb 0d dc bc 32 99 26 bb 11 e7 a3 3a 60 b9 00 3c
       -0.026862046 -0.0025420901 0.0012504776 0.007856697
000070 21 e5 6e bc df 24 02 bc c2 7b 11 bc 6e 10 93 bc
       -0.014580996 -0.007943361 -0.008879604 -0.01795217
000080 72 9b 2e bc ab 8c 99 3c 58 1e 30 3c 81 c2 b1 bc
       -0.010657178 0.018743834 0.010749422 -0.021699192
000090 e2 60 9c bc 4f a7 af 3b 5a 53 2c bc 0c d5 c1 bc
       -0.019089166 0.005360521 -0.010517919 -0.023661159
0000a0 d9 b5 24 bc 69 8b 97 3b e8 02 83 bc 10 6e 9e 3c
       -0.0100531215 0.0046247733 -0.015992597 0.019339591

layer3.4.running_mean f4 [44]
000000 a9 7b 7e 3e 27 3d 03 3f 7b 1e 3c 3e 8b 8e 3b 3e
       0.2485186 0.51265186 0.18371002 0.18316095
000010 26 70 6a 3d e0 4f cc 3c 6e d3 96 3b 69 3d 6f 3c
       0.05723586 0.024940431 0.004602841 0.014602044
000020 d3 18 aa 3e d9 6a 32 3f 8e 8d 10 3d 72 93 c1 3e
       0.33222064 0.69694287 0.035291247 0.37807804
000030 7e 11 a7 3d a7 79 ac 3d f1 2d b4 3e 44 11 c9 3d
       0.08157633 0.08421641 0.351913 0.09817746
000040 4d 3f 6d 3d d4 4a c6 3d 09 5a 26 3f 43 da 49 3e
       0.057921696 0.09682241 0.6498113 0.19712166
000050 1a 30 98 3d 7d ea 12 3e c8 89 88 3e 52 07 d7 3d
       0.0743105 0.14347263 0.2666762 0.10499443
000060 b6 78 0f 3f ae 27 97 3e df a5 aa 3e 9a 1a 5d 3e
       0.56043565 0.2952246 0.33329675 0.21592179
000070 7a ea 04 3f 29 87 c5 3c ce 73 37 3f e8 12 30 3e
       0.5192028 0.024112301 0.7166108 0.17194712
000080 d4 24 04 3f 07 c3 37 3e 49 90 98 3e 6e 20 af 3e
       0.51618695 0.17945491 0.2979758 0.3420443
000090 d8 58 10 3f c6 3f ea 3d 16 83 06 3f ec f5 f9 3e
       0.56385565 0.11437945 0.5254377 0.48820436
0000a0 26 5d bc 3e a0 a8 9e 3d 23 8e 17 3e 43 4f 76 3d
       0.36789817 0.077470064 0.14800315 0.060134184

layer3.4.running_var f4 [44]
000000 86 8f c2 3e 7d fe 3e 3f a1 24 77 3e d9 f8 75 3e
       0.38000125 0.7460707 0.24135067 0.24020709
000010 ec e0 ab 3d 9c 84 d6 3c fa de 11 3c 2c 27 d6 3c
       0.0839251 0.02618628 0.008903259 0.026141725
000020 fe fe 09 3f eb d8 74 3f 04 fd 7c 3d dc cb 03 3f
       0.5390471 0.9564349 0.061764732 0.5148294
000030 95 85 fd 3c fb 2d 9d 3d 39 dc 8b 3e 37 15 8f 3d
       0.030947486 0.07674786 0.27316454 0.06986468
000040 ef c0 9b 3d 75 9e 59 3e 4a 43 87 3f bb c2 a4 3d
       0.076051585 0.21251853 1.056741 0.080449544
000050 cd b3 26 3e f0 75 10 3f d8 1c 1a 3e a0 ef 1c 3e
       0.16279526 0.5642996 0.15050066 0.15325785
000060 1b 95 83 3f 38 b0 ea 3e be cc 3d 3f 7e 2d 94 3e
       1.0279878 0.4583757 0.74140537 0.28940958
000070 db 2e 9d 3f dd 89 19 3d 20 ba 41 3f 4a 46 a6 3d
       1.2279924 0.037484992 0.7567463 0.08118875
000080 a1 7f 84 3f ad 69 5e 3e cd 4a 44 3e 25 b8 c2 3e
       1.0351449 0.2172 0.19169159 0.38031116
000090 2b e8 04 3f 6d f6 ca 3c d1 88 a6 3f 52 c2 00 3f
       0.5191676 0.024775708 1.3010503 0.5029651
0000a0 e9 aa 1f 3e 5b 5d 26 3e 55 a3 8d 3e 7e c8 a4 3d
       0.15592541 0.1624655 0.27663675 0.08046053

layer4.0.weight f4 [20, 44, 1, 1]
000000 0d 5b ca 3d a0 25 2a bd 36 a8 a8 bd 45 c9 04 3d
       0.09880648 -0.04153979 -0.08235209 0.032418508
000010 30 e2 a2 3c d2 cb 0c be 05 22 17 3d 86 75 87 bd
       0.019883245 -0.13749626 0.036897678 -0.06614213
000020 8f c0 08 bd 11 97 98 bd b5 e3 33 bd 8a a4 f9 bd
       -0.033386763 -0.07450689 -0.04391833 -0.121895865
000030 7f fe c6 bd b3 ed b8 bd 82 1f cf 3d b1 3a 3f bd
       -0.0971651 -0.090297125 0.101134315 -0.04668683
000040 88 af db bd 7d 69 ed bc 0c bf e2 3d 3e 36 71 bd
       -0.10726839 -0.028980965 0.110715955 -0.05888962
000050 2d ce fa bd 8a e8 8f 3d 51 bc 89 bd dc 3a 10 3e
       -0.12246356 0.07026775 -0.06725372 0.14084953
000060 42 ff 50 3d 70 55 80 3d 49 e2 91 bd f6 84 12 be
       0.051024683 0.06266296 -0.071232386 -0.14308533
000070 ae 2f 4a 3d 26 51 d5 3d 1b 2b be bd dc 2b 00 bd
       0.049361877 0.104158685 -0.092855655 -0.031291828
000080 cd be 71 3b ba e4 5a bd 4c 12 67 bd 61 8a ad 3d
       0.0036887408 -0.053440787 -0.056413934 0.08473659
000090 3e 99 6c bd 45 73 9b 3d 55 19 e6 bd c5 0f 83 3d
       -0.05776333 0.07590345 -0.112353005 0.06399492
0000a0 94 03 76 3d ba 1a 24 3e 73 d5 e6 bd 57 48 0c 3e
       0.060062006 0.1602582 -0.11271181 0.1369947
0000b0 65 e2 70 bd 4d d6 e6 3d 53 0c 80 bd 25 1c 10 be
       -0.058809657 0.112713434 -0.06252351 -0.14073236
0000c0 b7 72 45 bd 60 7e d8 3d c0 4a 35 3d 3a e1 47 3d
       -0.048205104 0.10570979 0.04426074 0.048798777
0000d0 da 5a 13 be a5 cc 56 3d b7 bd 7e 3c 44 8a b7 3d
       -0.14390126 0.052441258 0.015548161 0.08961919
0000e0 37 d3 b5 bd 17 be ed bd 6c 28 f7 bb 38 84 40 bc
       -0.08878177 -0.116085224 -0.0075426605 -0.011750273
0000f0 7a ed e4 3d 82 60 cc 3d 63 f9 ab bd 43 20 5e bd
       0.111781076 0.09979345 -0.08397176 -0.054229986
000100 7c fa 80 bb 62 5c bd 3d d5 37 6c 3c 10 6f 0f be
       -0.00393611 0.09246136 0.014417608 -0.1400721
000110 a0 81 06 3e 2a b8 11 be fb 69 8b 3d b0 69 ee bd
       0.13135386 -0.1423041 0.068073235 -0.11641252
000120 23 9f 9e 3c 57 7f 70 3d 5b 3e ec 3d eb ac 0a be
       0.019362992 0.05871519 0.11535331 -0.13542525
000130 de 8e 08 3e c1 4d 80 3c bb c9 a3 bd 82 04 08 3e
       0.1333575 0.015662076 -0.079974614 0.1328297
000140 5a 1d 89 bd 94 8a f6 bd b9 77 55 3d 82 52 11 3c
       -0.066950515 -0.120381504 0.05211613 0.008869769
000150 14 36 bf 3d 00 c1 00 be f1 af 01 3e 54 dd e5 bd
       0.093364865 -0.12573624 0.12664773 -0.112238556
000160 a6 0a 97 bc da 58 8e bd b7 fc 94 bc f4 38 23 bd
       -0.018437695 -0.06950541 -0.01818691 -0.039849237
000170 fb 81 cb 3d 70 58 c3 bd 95 c0 0b be e0 6b ae bc
       0.09936901 -0.095383525 -0.13647683 -0.021291673
000180 fe 1c 32 bc cd bb 6a 3d 85 8e 06 be 46 2a 3a 3d
       -0.01087117 0.057308007 -0.13140304 0.04545047
000190 03 59 0e 3e f1 a8 4d bd d2 13 6f bd 31 94 cd bd
       0.13901143 -0.050209943 -0.05836851 -0.10038031
0001a0 5f 55 19 be 13 76 0e 3e b8 d6 9b bb 10 ca 04 3e
       -0.14973973 0.13912229 -0.004755821 0.12967706
0001b0 e8 65 fa bb 63 0d f8 3d 15 72 bc bc 00 e7 61 bc
       -0.0076415427 0.12111928 -0.023003617 -0.013787985
0001c0 cd 0c ce bd b6 f1 74 3d 44 fc 24 bc 40 63 0e 3c
       -0.10061035 0.059800826 -0.01006991 0.008690655
0001d0 0f f4 ac 3c a8 28 24 3e c6 7b 00 be 41 cf 14 3e
       0.02111247 0.16031134 -0.12547216 0.14532186
0001e0 db 83 d6 3d 28 fd d8 3c 47 3d bf 3d 98 0e ab bc
       0.10474368 0.026487902 0.093378596 -0.020880982
0001f0 f9 1c d7 3d d5 d1 f1 bc fc 41 f5 3d 40 49 a5 ba
       0.10503573 -0.029519001 0.11975476 -0.0012610331
000200 19 42 e1 bb b3 64 d8 bd b8 4a 27 3e 62 a3 6f bd
       -0.0068743345 -0.10566082 0.16337097 -0.058505423
000210 a4 aa d4 bd c1 0d 0c bd c1 78 a8 3c 83 2c 16 3d
       -0.103841096 -0.034192804 0.020565392 0.036663543
000220 09 2c a4 3d ad c7 fa bd 4a 6f cd 3d fb ea 19 bd
       0.080162115 -0.122451164 0.10030992 -0.03757761
000230 f6 96 1c 3d 02 c6 6e b9 2b 7d f7 3d 3d 84 19 3d
       0.038229905 -0.00022771212 0.12084421 0.037479628
000240 5a 0e 20 3d 9a 84 80 bb 2a a2 e5 bd 5a d7 d7 3d
       0.039076187 -0.0039220573 -0.11212571 0.10539122
000250 4d f4 b8 bd 33 cf 7f bd 60 98 e3 bd 0a 92 89 3d
       -0.09030972 -0.06245346 -0.111130476 0.06717308
000260 f5 5c 97 3d ef c0 d7 3c f8 61 3b 3b e3 73 00 3e
       0.07390777 0.026337115 0.002859233 0.12544207
000270 2b eb e0 3d 81 55 18 3d ee 27 e5 3d dc 31 28 3c
       0.10982355 0.037190918 0.111892566 0.010265794
000280 a1 60 8a 3d 71 e4 cc 3d 20 2b 12 3e 47 00 fc 3d
       0.06756712 0.10004509 0.14274263 0.123047404
000290 95 40 a7 bd b3 ee f9 bc f5 cb fb bd ff f4 08 3e
       -0.08166615 -0.030509328 -0.12294761 0.13374709
0002a0 3e a3 18 3e 68 14 bb bd 1b 11 06 3b 56 90 34 3e
       0.14906022 -0.091347516 0.0020456973 0.17633185
0002b0 30 f4 fd 3d 8a 72 42 bd ab 5b 1a 3e 16 10 11 3e
       0.12400091 -0.047472514 0.15074031 0.14166293
0002c0 68 c1 4a 3d 72 50 35 3c 44 e1 c7 3c e1 8c ac bd
       0.049500853 0.011066543 0.024399407 -0.08425308
0002d0 7a 18 9c bc 80 f1 07 3d c5 15 c9 bc 3d a9 25 3d
       -0.01905464 0.033189297 -0.024546513 0.0404446
0002e0 ac 8a dd 3d 20 5f 94 3c 62 c0 c0 bd ab 83 ff bc
       0.10817465 0.018111765 -0.09411694 -0.031190714
0002f0 42 ed ab bd 7f bc 98 bb c0 04 8d bd a5 64 63 bd
       -0.08394863 -0.0046611424 -0.068856716 -0.055515904
000300 87 35 03 3e 22 8c 05 be 17 f2 89 3d e7 7a 69 3c
       0.12813388 -0.13041738 0.06735628 0.014250494
000310 2c 5d 10 be fc 5a dd bd 4c d8 8f 3d fa 0b 1c bd
       -0.14098042 -0.108083695 0.07023677 -0.03809736
000320 5c 33 5d bd d0 8e cb bc 39 38 3a bd 0c fe ca 3d
       -0.05400406 -0.024848372 -0.045463774 0.09911737
000330 ec f4 cf bd 56 fa 81 3d e9 f9 9b 3d 55 66 0d be
       -0.10154137 0.06346576 0.07616026 -0.13808568
000340 f1 ac 07 bd 2e 4c 14 be 9d 15 10 3e 05 b5 0e 3c
       -0.033123914 -0.14482185 0.14070745 0.008710151
000350 a2 2f 91 3d 26 21 14 3e 7f 99 01 bd 3b 16 f0 3d
       0.07089163 0.1446577 -0.031640526 0.1172299
000360 9c 93 21 be 16 bf 41 3e 7b eb 16 3e fa 04 01 bb
       -0.15778965 0.1892055 0.14738266 -0.0019686804
000370 a1 bf f7 3c 7d f7 48 bc a4 67 0a be c6 6e 93 3d
       0.030242743 -0.012266037 -0.13516098 0.07198863
000380 6f 5b d0 3d 8e c1 d3 bd 92 99 07 3e 38 bc 10 3e
       0.101736896 -0.10339652 0.13242176 0.141343
000390 b3 a6 16 be 11 96 2d bd c3 28 e4 3d 3f 9c dc 3c
       -0.14712028 -0.042379443 0.11140587 0.026929973
0003a0 39 d9 d1 bd 9c f9 1e 3e b3 a0 54 bc 63 e1 e3 bd
       -0.1024651 0.15524906 -0.012977767 -0.111269735
0003b0 0b e1 cc bd 7d 6a 4f bd 4b ad 8c 3c d2 53 41 3d
       -0.10003861 -0.050638665 0.017172476 0.047199078
0003c0 f6 c8 ba 3d 38 20 55 bc c5 e7 d1 bd c7 ab 5d bd
       0.091203615 -0.01300817 -0.10249285 -0.054118898
0003d0 5e e1 ed bc b6 3b c1 bd 6d c3 f8 bd 58 48 e3 bb
       -0.029038128 -0.09435217 -0.121466495 -0.0069361143
0003e0 fb a3 1a be b1 c2 40 3d a8 b1 cd 3d bc bc 19 bd
       -0.15101616 0.047060672 0.10043651 -0.037533507
0003f0 62 5a 0f be 48 b3 a3 bd c5 d4 f2 bb 86 f6 eb bd
       -0.13999322 -0.079931796 -0.007410618 -0.1152163

layer4.0.bias f4 [20]
000000 aa 69 3a 3d 59 46 d6 bd ac 68 d1 3d 21 91 3c bc
       0.045510925 -0.104626365 0.10225043 -0.011509211
000010 1d 8b 1a bd c9 f2 4d bd f0 79 f7 bb 8b cc dc bc
       -0.037730325 -0.050280366 -0.007552378 -0.026953002
000020 3a 63 3d bd 9a f3 a0 3d 08 5d 97 3d 47 b4 b3 bd
       -0.046237208 0.07858963 0.07390791 -0.087746195
000030 62 51 21 bd 4b 72 35 bc 5f 17 f0 3c ab 53 19 3e
       -0.039384253 -0.011074613 0.02930802 0.14973323
000040 58 a3 ca 3c f6 a3 0b be 8f 0c 04 be ff c6 27 bd
       0.024736091 -0.13636765 -0.12895416 -0.04096126
