Vitis-ai/Quantizer/MultLabel_model_API2/MyModel_v3.pt (torch_old, 236978 bytes, 30 tensors)

layer1.0.weight f4 [16, 3, 3, 3]
0	0xbc89c7e9	-0.016818957
1	0xbe3abb81	-0.1823559
2	0x3c9e7149	0.019341128
3	0x3e733881	0.23752023
4	0x3e0ad4df	0.13557766
5	0x3dc584f2	0.09644498
6	0xbe03a185	-0.12854584
7	0x3dd80444	0.105476886
8	0x3d94261e	0.07233833
9	0x3dfae4b5	0.12250654
10	0x3e09068a	0.133814
11	0x3d3f0151	0.046632115
12	0x3e713dfb	0.235588
13	0x3d7c0504	0.06152822
14	0x3e685846	0.22689924
15	0xbd8946c2	-0.06702949
16	0xbc833d6f	-0.016020505
17	0x3e309058	0.17242563
18	0x3e44c9f4	0.19217664
19	0xbd9ead32	-0.07747878
20	0x3e2eea20	0.17081499
21	0x3e998e96	0.29991597
22	0x3ea73170	0.32654905
23	0x3e34f996	0.17673334
24	0xbcfebb43	-0.031095153
25	0x3e053850	0.13009763
26	0xbe05c5c2	-0.1306372
27	0xbe173939	-0.14767922
28	0xbe76c6a9	-0.2409922
29	0xbd9aa33b	-0.07550665
30	0x3d1bb670	0.038015783
31	0xbdc8856e	-0.09791075
32	0xbdc72bbf	-0.09725141
33	0x3d5b7ab1	0.053583805
34	0x3c0e59d3	0.008688408
35	0x3dafaf77	0.08578389
36	0xbdc88c71	-0.09792412
37	0xbd9c5faf	-0.07635438
38	0xbe503287	-0.20331775
39	0xbe687abb	-0.22703068
40	0x3d55a5c5	0.052160043
41	0xbe80ba5e	-0.25142187
42	0xbdb49075	-0.088166155
43	0xbe11cf04	-0.14239126
44	0x3d8c354d	0.06846104
45	0xbde74d80	-0.11294079
46	0x3ceb4341	0.028718593
47	0x3dda6551	0.10663856
48	0xbe3ebfff	-0.18627928
49	0xbe57f794	-0.21090537
50	0xbe01cd7a	-0.1267604
51	0xbddd3efa	-0.108030275
52	0x3de72c14	0.11287704
53	0x3de72b5c	0.11287567
54	0x3dc3a156	0.09552257
55	0x3e67ad11	0.22624613
56	0xbe46d81f	-0.19418381
57	0xbd47a400	-0.048740387
58	0x3e30bb44	0.17258936
59	0x3d9b9be8	0.07598096
60	0x3e2f9819	0.17147864
61	0x3d942eca	0.07235487
62	0xbdf1cbe8	-0.1180647
63	0x3dcdf520	0.100565195
64	0x3e1fc412	0.15602139
65	0x3e84210e	0.2580647
66	0x3e5ebc20	0.21751451
67	0x3df4cebc	0.11953494
68	0x3db63dcf	0.08898508
69	0x3d1778f8	0.0369806
70	0x3e2b99ab	0.16757838
71	0xbda11616	-0.07865541
72	0xbd9df664	-0.07713011
73	0x3e4d66d4	0.20058757
74	0xbd8671ca	-0.06564672
75	0xbdccfed3	-0.10009541
76	0x3d58919d	0.052873243
77	0xbd3f447e	-0.04669618
78	0x3daada86	0.08342461
79	0x3e4a00f4	0.19726926
80	0xbdcabdc9	-0.0989948
81	0x3e323fe9	0.17407192
82	0xbe2d4748	-0.16921723
83	0x3e0ce5fb	0.13759606
84	0xbd9a84ac	-0.075448364
85	0x3d87a72a	0.06623681
86	0xbe20bee9	-0.15697826
87	0xbe16581c	-0.14682049
88	0x3c591bb0	0.01325123
89	0xbc657620	-0.014005214
90	0xbd74a63c	-0.059728846
91	0x3dd67eba	0.1047339
92	0x3d2e304c	0.04252653
93	0xbe45079c	-0.19241184
94	0xbd93fe10	-0.07226193
95	0xbd21af40	-0.039473772
96	0xbd74fd00	-0.059811592
97	0x3e3b31e3	0.18280749
98	0xbe1a1fc6	-0.15051183
99	0xbe01fef4	-0.12694913
100	0xbe1dea67	-0.15421449
101	0xbc7f37d0	-0.015577272
102	0x3e34a87f	0.17642401
103	0x3e13e473	0.14442615
104	0x3e3b1f3d	0.18273635
105	0xbe3ccdf3	-0.18437938
106	0xbda24407	-0.079231314
107	0xbc3c1090	-0.011478558
108	0x3e5c7f7d	0.21533008
109	0x3e07e474	0.13270742
110	0xbd1afeb2	-0.037840553
111	0x3e8e1552	0.2775064
112	0x3e0e20e1	0.1387973
113	0x3dbefd7d	0.09325693
114	0x3e5ac915	0.21365769
115	0xbcb062d5	-0.021531502
116	0xbe173b68	-0.14768755
117	0x3ea9c394	0.33157027
118	0x3e2292e6	0.1587635
119	0x3e68296f	0.22672056
120	0x3e7c97d9	0.246673
121	0x3e8fae5c	0.28062713
122	0x3e6b14c0	0.22957134
123	0x3b227f1d	0.0024795004
124	0xbe337ea9	-0.17528786
125	0xbd499801	-0.049217228
126	0xbe06d9fa	-0.13169089
127	0xbd0c8a86	-0.034311794
128	0x3e27c9f6	0.16385636
129	0x3e6024a8	0.21888983
130	0x3e8a61b0	0.27027655
131	0xbd80b7f8	-0.06285089
132	0xbdc04caf	-0.09389626
133	0x3e66c0d2	0.22534493
134	0xbe5685c5	-0.20949467
135	0x3d1330f4	0.035935357
136	0x3e67531d	0.22590299
137	0xbd9344b4	-0.071908385
138	0x3dca44f6	0.098764345
139	0x3df733fb	0.12070461
140	0x3dc9e51f	0.098581545
141	0x3d305094	0.043045595
142	0x3e7dbb25	0.24778421
143	0xbdeeaf10	-0.11654484
144	0x3e110a4b	0.14164083
145	0x3c830b98	0.01599674
146	0x3a853a49	0.0010164465
147	0x3ecbccb6	0.3980462
148	0x3e948852	0.29010254
149	0x3e899f32	0.2687927
150	0x3b116de4	0.0022190744
151	0x3e4cc362	0.19996408
152	0x3e13a050	0.14416623
153	0xbe1ae982	-0.15128139
154	0x3e4061d9	0.18787326
155	0xbd825b9f	-0.063651316
156	0x3d4bc65b	0.049749713
157	0x3eaafc4b	0.3339561
158	0x3eaf2a51	0.34211972
159	0x3d8a1f6c	0.067442745
160	0xbd93b695	-0.07212559
161	0x3e5b4b99	0.21415557
162	0x3ca63979	0.020291077
163	0x3e6fcd89	0.23418249
164	0x3dd726f9	0.1050548
165	0xbdc76482	-0.09735967
166	0x3e55a6bb	0.20864384
167	0xbe1c6175	-0.15271552
168	0xbd0994ca	-0.033589162
169	0x3e150bed	0.1455533
170	0xbe336f95	-0.17523034
171	0x3dc3b846	0.09556632
172	0x3e29920e	0.16559622
173	0x3e291ee5	0.16515692
174	0x3e0ddef3	0.1385458
175	0x3e345811	0.1761172
176	0xbd792702	-0.060828216
177	0x3d6580ab	0.05603091
178	0x3dcebc7c	0.10094544
179	0x3db2c0e8	0.087282
180	0x3e5b6a50	0.21427274
181	0x3d2e6509	0.042576823
182	0x3d9e6aee	0.07735239
183	0x3e1bb419	0.1520542
184	0x3eaa6cac	0.33286035
185	0x3e013907	0.1261941
186	0x3bf4e5c9	0.0074736816
187	0x3d549b41	0.051905874
188	0x3e1cf2d7	0.15327011
189	0x3d9d91bc	0.07693812
190	0x3dbc145a	0.09183569
191	0xbdcb7be9	-0.09935743
192	0xbe82800f	-0.25488326
193	0xbe8310ef	-0.25598857
194	0xbee3aba7	-0.44466898
195	0x3c4155ea	0.011800269
196	0x3e6cd8d6	0.23129591
197	0x3e8ba83a	0.27276784
198	0x3e191456	0.14949164
199	0x3dfebf96	0.12438886
200	0x3b8901cf	0.004181124
201	0xbe37f2f4	-0.17963773
202	0xbd7d851b	-0.061894517
203	0xbed0fa4b	-0.40815958
204	0xbd8368d8	-0.06416482
205	0x3eef839d	0.467801
206	0xbe1b9067	-0.15191804
207	0x3e23f514	0.16011459
208	0x3e3b7058	0.18304574
209	0x3eb24356	0.34816998
210	0x3e4157b2	0.1888111
211	0x3dc11159	0.09427137
212	0xbe42b9ed	-0.19016238
213	0x3e380683	0.17971234
214	0x3f06e21e	0.5268878
215	0x3ea86d84	0.32896054
216	0x3db03311	0.0860349
217	0xbd07d823	-0.03316511
218	0x3e91a169	0.2844346
219	0xbdb51dbd	-0.08843563
220	0x3d7547a7	0.059882786
221	0x3e865b4e	0.26241535
222	0x3e8f2092	0.27954537
223	0xbdefe1b5	-0.11712972
224	0x3d94c003	0.07263186
225	0x3ebb556c	0.3658861
226	0x3e62af12	0.22137097
227	0x3e5c7e8a	0.21532646
228	0x3e0846ec	0.13308305
229	0x3dbc52bb	0.09195467
230	0x3ebb8f1e	0.36632627
231	0x3e1f3a84	0.15549666
232	0x3d1b141b	0.03786097
233	0x3e429fda	0.19006291
234	0xbd66a312	-0.05630786
235	0xbe088d04	-0.13335043
236	0xbde4a1cd	-0.111636735
237	0x3dac05db	0.08399554
238	0xbd95c8cd	-0.0731369
239	0x3d890acb	0.06691512
240	0xbe8527ff	-0.26007077
241	0x3d843fc9	0.064574786
242	0xbe07bbdb	-0.13255255
243	0x3cd092ee	0.025460687
244	0x3e984ffe	0.2974853
245	0x3d86d32c	0.065832466
246	0xbdd80513	-0.10547843
247	0x3e95f835	0.2929093
248	0xbe040817	-0.12893711
249	0x3dfa6862	0.12226941
250	0x3de22626	0.110424325
251	0xbd51ed3a	-0.051251628
252	0x3e83a939	0.25715044
253	0x3e2edd50	0.17076612
254	0x3e8bf881	0.2733803
255	0x3e3110a0	0.17291498

layer1.0.bias f4 [16]
0	0xbcde2999	-0.027119445
1	0x3e156a00	0.14591217
2	0x3d1849ed	0.037179876
3	0xbe1ecf32	-0.15508726
4	0xbd3c13d8	-0.045917362
5	0xbdccc5e4	-0.09998682
6	0x3dd0586b	0.101731144
7	0x3eeb62e7	0.45973894
8	0x3e206609	0.15663923
9	0x3e70f7fb	0.23532097
10	0xbe50f7bf	-0.20407008
11	0xbdd5c1c0	-0.104373455
12	0x3e0ac8b0	0.13553119
13	0xbc296b7a	-0.010340566
14	0x3ee021ac	0.4377569
15	0xbd56d47b	-0.05244873

layer2.0.weight f4 [16, 16, 4, 4]
0	0xbd088e0c	-0.03333859
1	0xbdfc642e	-0.12323795
2	0xbd1c88b1	-0.038216297
3	0xbcb5536b	-0.022134503
4	0xbdd1c798	-0.102431476
5	0xbda90cc5	-0.08254389
6	0xbddc4f52	-0.10757317
7	0xbdee7cfc	-0.11644933
8	0xbc449807	-0.011999137
9	0xbd86b06b	-0.06576618
10	0xbd9551ba	-0.07290979
11	0xbce308f5	-0.027714232
12	0xbdbf2262	-0.0933273
13	0xbdf24895	-0.1183025
14	0xbdee8322	-0.11646105
15	0xbdd58857	-0.104263954
16	0xbd37bc70	-0.044857442
17	0xbda5361f	-0.080669634
18	0x3da93767	0.0826252
19	0xbdad88d4	-0.084733635
20	0xbc05356a	-0.008130411
21	0xbdf7e0f1	-0.12103451
22	0xbdd1cc8a	-0.10244091
23	0x3dfaff7d	0.12255762
24	0xbd11bcd6	-0.03558048
25	0xbdb9d867	-0.090744786
26	0xbca309be	-0.019902106
27	0xbc75d91f	-0.015005379
28	0xbda8ea22	-0.08247782
29	0xbddbd54c	-0.107340425
30	0xbcc5366c	-0.024073802
31	0xbdf4578d	-0.119307615
32	0xbd0fcd12	-0.03510768
33	0x3d447315	0.047961313
34	0x3c1f3250	0.009716585
35	0x3ddc1d95	0.1074783
36	0xbd26c900	-0.040719032
37	0x3d4ad89a	0.049522974
38	0x3bf413fa	0.0074486705
39	0x3d771e0f	0.0603314
40	0xbddd90c8	-0.108186305
41	0x3cd7778b	0.02630212
42	0xbdbd1c07	-0.092338614
43	0xbdbe598a	-0.09294422
44	0xbdef309f	-0.116791956
45	0xbdcf158d	-0.10111532
46	0xbc9dd05a	-0.019264389
47	0xbd2f85ef	-0.04285234
48	0x3d0d78cc	0.03453903
49	0xbb8c10d0	-0.004274465
50	0xbcc6e438	-0.024278745
51	0xbd7100f4	-0.0588388
52	0x3c150d40	0.009097397
53	0xbd4b37d0	-0.049613774
54	0xbc3060d8	-0.010765277
55	0xb8507000	-4.9695373e-05
56	0xbbad2050	-0.005283393
57	0xbb0d8660	-0.0021594986
58	0x3d4d9196	0.05018767
59	0x3d20a454	0.039219216
60	0x3d288a44	0.041147485
61	0xbd176616	-0.03696259
62	0xbd664024	-0.056213513
63	0x3d593414	0.05302818
64	0xbdb7b33c	-0.08969733
65	0xbde212a3	-0.11038711
66	0xbda184b6	-0.07886641
67	0xbddb0069	-0.106934376
68	0xbdc0fc5b	-0.09423133
69	0x3d0ad9f3	0.03389926
70	0xbd269b2f	-0.04067534
71	0xbbc1a551	-0.0059096
72	0xbd65e9d7	-0.05613121
73	0xbdd46f76	-0.10372822
74	0xbc6222a9	-0.013802209
75	0xbdef15e1	-0.11674095
76	0xbcaee507	-0.021349443
77	0xbdfa812f	-0.12231671
78	0xbd322e9d	-0.043501485
79	0xbdb9a375	-0.0906438
80	0xbda9ce51	-0.08291305
81	0xbcbec4c7	-0.02328719
82	0xbc511951	-0.012762384
83	0xbdb34864	-0.08754042
84	0x3d354806	0.04425814
85	0x3d6d5a61	0.05794752
86	0xbd09f118	-0.03367719
87	0xbdc77f30	-0.09741056
88	0xbde94432	-0.1138996
89	0xbd8568ef	-0.06514155
90	0xbd82e0db	-0.06390544
91	0xbd8b6baa	-0.06807645
92	0xbc1527f1	-0.009103761
93	0xbd239b1b	-0.039942842
94	0xbdce5f5f	-0.10076784
95	0xbe031b36	-0.12803349
96	0xbc4cfbac	-0.012511175
97	0xbc10ae18	-0.00883057
98	0xbce0c70b	-0.027438661
99	0xbd702e63	-0.058637988
100	0xbd236ff2	-0.03990168
101	0xbd9278cc	-0.071519464
102	0xbc86224a	-0.016373772
103	0xbd434458	-0.0476726
104	0xbc8a6c09	-0.016897218
105	0xbd8404e7	-0.064462475
106	0xbc9a3cb4	-0.018827774
107	0xbc058efc	-0.008151766
108	0xbc89317f	-0.016747234
109	0xbd9828bf	-0.07429647
110	0xbd755bd7	-0.05990204
111	0xbdfc72e5	-0.12326602
112	0xbd902eb1	-0.07040156
113	0x3de2a89a	0.110673144
114	0x3c3675f6	0.0111365225
115	0x3d179088	0.03700307
116	0xbda0b40f	-0.078468435
117	0x3d0605cd	0.032720376
118	0x3d8baeff	0.06820487
119	0x3d9bc3c5	0.076056994
120	0x3de9574d	0.113936044
121	0x3d4e8cd7	0.050427284
122	0x3d5314bd	0.05153345
123	0x3ced757f	0.02898669
124	0x3c6285c0	0.013825834
125	0xbdc3a8b1	-0.0955366
126	0x3e028f36	0.12749943
127	0x3dab9def	0.08379733
128	0xbe00c76a	-0.1257607
129	0xbd90831c	-0.07056257
130	0xbdc29a36	-0.0950207
131	0xbdd6875f	-0.10475039
132	0xbdf92f8b	-0.12167271
133	0xbdeff91b	-0.11717435
134	0xbd93cda0	-0.07216954
135	0xbde5bd3c	-0.11217734
136	0xbdec4895	-0.115372814
137	0xbdc19e2b	-0.09453996
138	0xbdbe071c	-0.092787
139	0xbd8a6f95	-0.06759564
140	0xbdc94986	-0.098284766
141	0xbc6c7f46	-0.014434641
142	0xbc09b5b6	-0.00840514
143	0xbc87a5d2	-0.016558561
144	0xbdda1cea	-0.10650046
145	0xbd771a13	-0.0603276
146	0xbdd17de9	-0.102290936
147	0xbcbfa962	-0.023396198
148	0xbe0295d6	-0.1275247
149	0xbddecd11	-0.10878957
150	0xbd1f3855	-0.03887208
151	0xbd1955ef	-0.03743547
152	0xbd2d9b07	-0.042384174
153	0xbcd78407	-0.026308073
154	0xbd8aa410	-0.06769574
155	0xbdec5b00	-0.115407944
156	0xbd1716dc	-0.036887035
157	0xbc4520ff	-0.012031793
158	0xbdc8c7f4	-0.09803763
159	0xbdfbb12b	-0.122896515
160	0x3dc21924	0.094774514
161	0xbd4d9db2	-0.050199218
162	0x3dd951e4	0.106113225
163	0xbd31ac58	-0.04337725
164	0xbd88899c	-0.06666872
165	0xbd8ce284	-0.06879142
166	0xbd8bf685	-0.06834129
167	0xbd82e617	-0.063915424
168	0x3dd2b2bf	0.10287999
169	0xbc94ade6	-0.018149327
170	0xbd30f6d2	-0.043204136
171	0xbd8f7e47	-0.07006507
172	0xbdaa2c5d	-0.08309243
173	0xbc2a0dce	-0.010379268
174	0xbd2e3063	-0.042526614
175	0xbb7df296	-0.0038749329
176	0xbde6429a	-0.11243172
177	0xbd6802e5	-0.056643385
178	0xbcaf4938	-0.021397218
179	0xbd8c703f	-0.06857347
180	0xbdcc457b	-0.0997419
181	0xbdfd384e	-0.12364255
182	0xbda8244a	-0.082100466
183	0xbd735d00	-0.059414864
184	0xbc025b23	-0.007956299
185	0xbc894a3d	-0.016759032
186	0xbbb95199	-0.005655479
187	0xbc724362	-0.014786573
188	0xbd9b2c31	-0.07576788
189	0xbcd25b7a	-0.025678385
190	0xbdbb630c	-0.09149751
191	0xbdbda0a1	-0.09259153
192	0xbddda7e6	-0.1082304
193	0xbe035a7b	-0.12827484
194	0xbd095c0d	-0.033535052
195	0xbd7762d6	-0.06039699
196	0xbd4caa44	-0.049967065
197	0xbdc9c788	-0.09852511
198	0xbdd8f3b5	-0.105933584
199	0xbddaa1e1	-0.10675407
200	0xbdc58c70	-0.09645927
201	0xbd96774f	-0.07346975
202	0xbda59f63	-0.08087041
203	0xbd9174b9	-0.07102341
204	0xbda07b5c	-0.07836029
205	0xbcdf8cab	-0.027288755
206	0xbd9303b6	-0.07178442
207	0xbe038103	-0.12842183
208	0xbdc56d4a	-0.09639986
209	0xbd883d70	-0.06652343
210	0xbdbc5a4a	-0.09196909
211	0xbcefdd09	-0.029280202
212	0xbd820a7b	-0.06349655
213	0xbd3f7266	-0.04673996
214	0xbd4c6ec9	-0.04991034
215	0xbd2245c2	-0.039617307
216	0xbcfc2c01	-0.030782701
217	0xbda25ff6	-0.07928459
218	0xbdda2620	-0.10651803
219	0xbde63831	-0.112411864
220	0xbdcc4dd9	-0.09975786
221	0xbe0314a0	-0.12800837
222	0xbd6fa94e	-0.05851107
223	0xbd9e6bdc	-0.07735416
224	0xbc3968ac	-0.01131646
225	0xbcfe02ef	-0.031007258
226	0xbd9346a2	-0.071912065
227	0xbd9cf806	-0.07664494
228	0xbd702e57	-0.058637943
229	0xbcca9b9c	-0.024732403
230	0xbd8f4407	-0.06995397
231	0xbcc7ebe7	-0.02440448
232	0x3c227c0d	0.009917271
233	0xbd4a9c0b	-0.04946522
234	0xbdeecf11	-0.116605885
235	0xbd64e586	-0.055882953
236	0x3d96590d	0.07341204
237	0x3df813b1	0.12113131
238	0x3dd4546b	0.10367664
239	0xbd82e365	-0.06391028
240	0xbca75a43	-0.020428782
241	0xbde46f71	-0.11154068
242	0xbc4b59da	-0.012411559
243	0xbdc0d3f3	-0.09415426
244	0xbca41268	-0.020028308
245	0xbd1d5121	-0.03840745
246	0xbd041b7b	-0.03225277
247	0x3d8a4f9e	0.06753467
248	0xbc425605	-0.011861329
249	0xbda24517	-0.07923334
250	0xbdba7756	-0.09104793
251	0x3d9932d7	0.074804
252	0xbd97463f	-0.07386445
253	0xbce67d50	-0.028135926
254	0xbda5facd	-0.08104477
255	0xbdb5e402	-0.0888138

layer2.0.bias f4 [16]
0	0xbda8ffa3	-0.08251884
1	0xbe0d3156	-0.13788351
2	0x3d8675d4	0.06565443
3	0x3cf2bbe1	0.029630603
4	0x3dbc73fa	0.09201808
5	0xbc9e665f	-0.019335924
6	0xbd5d8dee	-0.054090433
7	0xbd93ab05	-0.07210354
8	0x3d1c66d1	0.03818399
9	0xbd737c0f	-0.059444483
10	0xbdaddb55	-0.084891
11	0xbdeeef76	-0.11666767
12	0xbc54cd36	-0.012988379
13	0xbd68f007	-0.056869533
14	0x3d1a749a	0.037708856
15	0xbdb3b9a6	-0.08775644

layer3.0.weight f4 [32, 16, 1, 1]
0	0xbe967d4f	-0.29392478
1	0xbe6b138e	-0.22956678
2	0xbe0e524c	-0.13898581
3	0xbe26e562	-0.1629844
4	0xbe5fa14c	-0.21838874
5	0xbdd037ea	-0.10166915
6	0xbd7d4364	-0.061831847
7	0xbd6bc114	-0.05755718
8	0xbea2ae54	-0.31773627
9	0xbe57aa95	-0.21061166
10	0xbe896a65	-0.26838985
11	0xbd5e0366	-0.05420246
12	0xbe637b9d	-0.22215123
13	0x3dece840	0.11567736
14	0x3c160ed1	0.009158806
15	0x3e45036f	0.19239591
16	0x3d9f1b74	0.07768908
17	0xbde96de3	-0.11397912
18	0xbe828bc1	-0.2549725
19	0xbdd7c989	-0.10536487
20	0x3e1f684e	0.15567133
21	0xbc9c7c33	-0.019102192
22	0x3c3c0fcd	0.011478377
23	0xbd3636de	-0.04448592
24	0x3e1f176e	0.15536281
25	0xbe5d1acd	-0.21592255
26	0x3e882547	0.2659094
27	0xbe0d366d	-0.13790293
28	0xbe2328c3	-0.15933518
29	0x3db6c1ac	0.08923659
30	0xbe928cb4	-0.28622973
31	0xbdaa8b93	-0.08327403
32	0x3e5ff109	0.21869291
33	0xbe1f548a	-0.15559593
34	0x3e3b9bcb	0.18321149
35	0xbd08b15b	-0.033372264
36	0x3e96e9c4	0.29475224
37	0x3e55f68b	0.2089483
38	0x3df423ec	0.11920914
39	0xbd80ae39	-0.0628323
40	0x3e5d389e	0.21603629
41	0x3e2a53f2	0.16633585
42	0xbd0541d6	-0.03253349
43	0x3c2a7f6e	0.010406358
44	0x3e813110	0.25232744
45	0x3e5219b8	0.20517623
46	0xbd801343	-0.06253674
47	0x3e182efb	0.14861672
48	0xbdfa2fd5	-0.122161545
49	0x3d30287c	0.04300736
50	0xbd5e90cf	-0.05433732
51	0x3e1c2468	0.15248263
52	0xbc9c21d4	-0.0190591
53	0x3e2eb528	0.17061293
54	0xbd477aaf	-0.048700985
55	0x3dcb267e	0.09919451
56	0xbe67cb41	-0.22636129
57	0x3e26c393	0.16285543
58	0xbe457565	-0.19283064
59	0x3d61a8d5	0.05509265
60	0xbea13feb	-0.31494078
61	0xbe16efe8	-0.14739954
62	0xbe0fb940	-0.14035511
63	0xbdcd8541	-0.10035182
64	0xbcfcc507	-0.030855669
65	0xbe0909b9	-0.13382615
66	0x3da9d969	0.08293421
67	0xbe839337	-0.25698254
68	0x3e14ea97	0.14542614
69	0xbdbd4fda	-0.09243746
70	0xbd89ebbb	-0.06734415
71	0xbe262bf9	-0.16227712
72	0x3e007b55	0.12547047
73	0xbdf5d6d6	-0.12003867
74	0x3d11119c	0.035417184
75	0xbe193fe4	-0.14965779
76	0x3e3f7d86	0.18700227
77	0xbb6b97a0	-0.003594853
78	0xbdd6e77d	-0.10493372
79	0x3d91c72f	0.071180694
80	0xbddac8ae	-0.10682808
81	0xbd94e5bf	-0.07270383
82	0x3d804e1d	0.06264899
83	0xbdd35838	-0.10319561
84	0x3e2d9930	0.16952968
85	0x3e66f9be	0.22556207
86	0x3d6e4ceb	0.058178823
87	0xbe6ecbd2	-0.23319939
88	0x3e19c540	0.15016651
89	0x3e73a363	0.23792796
90	0x3d2ac60e	0.041692786
91	0xbe0e981a	-0.1392521
92	0x3e77f5b2	0.24214819
93	0x3e3b6150	0.1829884
94	0x3dc73a8f	0.09727966
95	0x3d61a611	0.055090014
96	0x3ab435e9	0.0013748977
97	0xbe2c9bf2	-0.16856363
98	0x3cd4f0eb	0.025993785
99	0xbe396d57	-0.18108116
100	0x3e5c52ed	0.21516009
101	0x3e0733b5	0.13203318
102	0xbe06b4d7	-0.13154922
103	0x3e4acc9b	0.19804613
104	0x3d99afa3	0.07504203
105	0x3db01d9d	0.08599398
106	0x3e6b2ebd	0.22967048
107	0xbe75894a	-0.23978153
108	0xbcf01228	-0.029305533
109	0x3d95cc06	0.07314305
110	0xbe816403	-0.25271615
111	0x3da3687d	0.07978914
112	0xbe755ab1	-0.23960377
113	0x3e353b38	0.17698371
114	0x3e018a80	0.1265049
115	0xbdcae57b	-0.09907051
116	0xbe8f6318	-0.2800529
117	0xbe4803bd	-0.19532676
118	0x3daed057	0.085358314
119	0xbe5bd48b	-0.21467797
120	0xbcd396c6	-0.02582873
121	0x3e1da223	0.15393881
122	0xbd841c4d	-0.064507104
123	0x3e7fcc3c	0.24980253
124	0xbd27689a	-0.04087124
125	0x3dde9b2c	0.108694404
126	0xbde57f96	-0.11205976
127	0xbddb51dc	-0.10708973
128	0x3db3cfae	0.08779846
129	0xbe633657	-0.22188698
130	0xbe479222	-0.19489339
131	0x3b66adaf	0.0035198738
132	0xbe40ec3c	-0.18840116
133	0x3e53cb00	0.20682907
134	0xbe24ed6c	-0.16106194
135	0xbb7644dc	-0.0037577664
136	0x3df77b84	0.120841056
137	0x3e1a9426	0.15095577
138	0x3c5b63d4	0.0133905
139	0xbd487f2e	-0.048949413
140	0xbd92ce64	-0.07168272
141	0x3d799251	0.060930554
142	0x3d2ed3f2	0.042682596
143	0x3dee5b66	0.116385266
144	0x3e0c180e	0.13681051
145	0xbd70f4a4	-0.058827057
146	0x3e674388	0.22584355
147	0x3e185763	0.14877085
148	0x3e6e9a47	0.2330104
149	0x3dfbdf13	0.122984074
150	0xbe61c7b1	-0.22048832
151	0x3c146492	0.009057181
152	0xbdfa6fec	-0.12228379
153	0xbd83a5e1	-0.06428123
154	0xbd684dd3	-0.056714844
155	0x3d480a6c	0.048838064
156	0x3dacb8cd	0.084336855
157	0xbe9da420	-0.3078928
158	0xbe44337b	-0.19160263
159	0xbe6b453e	-0.22975633
160	0x3e61451f	0.21999024
161	0x3cb3d51c	0.021952204
162	0xbdd0f586	-0.1020308
163	0x3b6bdaac	0.0035988493
164	0x3d65d420	0.0561105
165	0xbddb38d1	-0.10704196
166	0x3d9f2d6c	0.077723354
167	0xbe36627d	-0.17811008
168	0x3e730e6b	0.23735969
169	0xbe1030f6	-0.14081177
170	0xbe5cd25b	-0.21564619
171	0x3e99b131	0.30018
172	0x3e916af2	0.28401905
173	0xbdcac50d	-0.09900866
174	0x3db98302	0.09058191
175	0xbb77e885	-0.0037827801
176	0xbe503900	-0.20334244
177	0xbe93bee3	-0.28856573
178	0xbc6ea45b	-0.014565553
179	0x3d8ca8f0	0.0686816
180	0x3c3bfe56	0.011474213
181	0x3db2a70a	0.087232664
182	0x3d8b5d49	0.06804902
183	0xbe6ff312	-0.23432568
184	0xbe31b0e5	-0.17352636
185	0xbcdd65b8	-0.027026042
186	0x3dbd6831	0.092483886
187	0x3ddc76a3	0.10764816
188	0x3daa5046	0.08316092
189	0xbe937317	-0.28798744
190	0xbe0a3902	-0.13498309
191	0xbe16388e	-0.14670011
192	0x3d8aefcc	0.06784019
193	0x3d7e92b6	0.062151633
194	0xbd46c0b1	-0.04852361
195	0x3d65d9bf	0.056115862
196	0xbe86d7de	-0.2633657
197	0xbc78f2ed	-0.015194637
198	0x3d0850f8	0.033280343
199	0x3e8f7b76	0.2802388
200	0xbe4d442a	-0.20045534
201	0x3e303ecc	0.17211455
202	0x3e906767	0.2820389
203	0x3c8cc85b	0.01718538
204	0xbdce1a17	-0.1006357
205	0x3e8fe33f	0.28103063
206	0x3e016ecb	0.1263992
207	0x3cd5fd5d	0.02612179
208	0xbe8d0eda	-0.27550393
209	0x3ba28923	0.0049601956
210	0x3dc3c65c	0.095593184
211	0xbec58703	-0.38579568
212	0x3dfb20b9	0.12262101
213	0xbc0d37de	-0.008619277
214	0xbe413aaa	-0.18870035
215	0x3ddfe57b	0.10932442
216	0xbd757557	-0.059926357
217	0xbd0980f6	-0.033570252
218	0x3e1f81aa	0.15576807
219	0xbd1900e4	-0.037354365
220	0x3da1ac11	0.07894147
221	0xbde1bc68	-0.11022264
222	0x3a6aeb3e	0.00089614454
223	0x3e062c01	0.13102724
224	0xbde7561b	-0.1129572
225	0x3e2d195c	0.16904205
226	0xbd9e39e1	-0.07725883
227	0x3cc5c7e0	0.02414316
228	0xbe31ea41	-0.17374517
229	0x3d630d45	0.055432577
230	0xbe149aba	-0.14512148
231	0xbe78856b	-0.24269645
232	0xbcbf6ee2	-0.023368303
233	0x3dd237c2	0.10264541
234	0xbe2c11bf	-0.16803645
235	0x3e2bcd3f	0.16777514
236	0xbd7b5243	-0.061357748
237	0xbe2ce17c	-0.1688289
238	0x3d00c583	0.03143836
239	0x3ddee442	0.108833805
240	0x3e1b928b	0.1519262
241	0xbe407530	-0.18794703
242	0xbd83d8c6	-0.064378306
243	0x3e7dd4a9	0.24788155
244	0xbdc42422	-0.09577204
245	0x3e1b69df	0.15177105
246	0xbdfedfb4	-0.12445012
247	0x3de25d1e	0.11052917
248	0xbe74eeaa	-0.23919168
249	0xbe175114	-0.14777023
250	0xbe10f525	-0.14156015
251	0x3de78d56	0.113062546
252	0xbe5a5c0b	-0.21324174
253	0x3e044492	0.12916782
254	0x3e67d12e	0.2263839
255	0x3de8bf34	0.11364594

layer3.0.bias f4 [32]
0	0x3e3c322a	0.18378511
1	0xbe15828e	-0.14600584
2	0xbd110d07	-0.035412814
3	0x3d80f6e3	0.0629709
4	0xbd83ef95	-0.06442181
5	0x3d3eece1	0.046612624
6	0x3e4544b2	0.19264486
7	0xbcf05bb3	-0.0293406
8	0x3e201b58	0.15635431
9	0xbe5e488e	-0.21707365
10	0xbd2c2f8e	-0.04203754
11	0x3a549719	0.00081096735
12	0x3dba9f7d	0.09112451
13	0x3db970d0	0.090547204
14	0xbb015c1a	-0.0019738735
15	0x3d8dd08b	0.06924542
16	0xbe0f23fc	-0.1397857
17	0xbd04a707	-0.032385852
18	0x3e18d806	0.14926156
19	0x3e58e74e	0.21181986
20	0xbe18b1e6	-0.14911613
21	0xbde31efb	-0.110898934
22	0x3e528c70	0.20561385
23	0xbda31720	-0.07963395
24	0x3d49cc90	0.04926735
25	0x3e99797b	0.29975495
26	0x3dd3cb95	0.103415646
27	0xbcad0edd	-0.021125251
28	0x3d42c5e7	0.047552016
29	0x3e96314e	0.29334491
30	0x3d3fb135	0.046799857
31	0xbe586b62	-0.21134713

layer3.1.weight f4 [32, 32, 3, 3]
0	0x3df7adba	0.120936826
1	0x3e27098b	0.16312234
2	0x3e52c114	0.20581466
3	0x3db03972	0.08604707
4	0x3dcbfcae	0.09960304
5	0x3e196db9	0.14983262
6	0xbe1846b1	-0.14870717
7	0xbd889cbf	-0.06670522
8	0x3ce37a3a	0.027768243
9	0x3e2e8cab	0.17045848
10	0x3e6a1f47	0.22863494
11	0x3e67bd11	0.22630717
12	0x3e11fe55	0.14257176
13	0x3e073fa9	0.13207878
14	0x3e5d3c8e	0.21605131
15	0x3c13a8cb	0.009012411
16	0x3de46655	0.11152331
17	0x3e21106c	0.1572892
18	0x3db35547	0.087565
19	0x3d067d59	0.032834385
20	0xbbadd78b	-0.0053052357
21	0x3d88075e	0.0664203
22	0xbce2512c	-0.027626596
23	0xbd101ef5	-0.035185773
24	0x3d867898	0.0656597
25	0x3c55e988	0.0130561665
26	0x3d5402af	0.05176037
27	0x3a0bde5d	0.0005335564
28	0xbdaccb44	-0.08437207
29	0xbe1508ba	-0.1455411
30	0x3dc2c8be	0.09510945
31	0x3ca66246	0.020310532
32	0xbc789226	-0.015171563
33	0x3e4e3852	0.20138672
34	0x3dd96822	0.10615565
35	0x3ccb7154	0.024834312
36	0x3d5f0c4b	0.054455083
37	0x3dd05c6e	0.101738796
38	0x3e0b926d	0.13630076
39	0x3caba096	0.020950597
40	0x3d37dc0b	0.044887584
41	0x3e062312	0.13099316
42	0x3cf0b8cc	0.029384993
43	0x3d843fac	0.06457457
44	0x3e346317	0.17615925
45	0x3db42b6c	0.087973446
46	0x3c9a903a	0.0188676
47	0xbbf8cb04	-0.0075925607
48	0x3dfe936a	0.12430461
49	0xbc9fa69a	-0.019488622
50	0xbc959fa9	-0.018264608
51	0x3d0c6826	0.03427901
52	0x3d903a9e	0.0704243
53	0x3da16018	0.078796566
54	0x3e13933b	0.14411633
55	0x3d8fa011	0.07012952
56	0x3e182c6d	0.14860697
57	0x3dcad3b8	0.099036634
58	0x3e105114	0.14093429
59	0x3dc5289d	0.09626887
60	0x3cb76317	0.022386117
61	0x3e01b03e	0.12664887
62	0x3dc5e55b	0.09662887
63	0xbd27505a	-0.040848114
64	0x3cb1c032	0.021698091
65	0x3d5fbd39	0.054623816
66	0xbd777081	-0.060410026
67	0x3c1191cd	0.008884859
68	0x3d032cc6	0.03202512
69	0xbd4dd519	-0.050252054
70	0xbc80510f	-0.015663652
71	0xbcbda1de	-0.023148473
72	0x3d424d5c	0.047437057
73	0x3e1b1c86	0.151476
74	0x3e55b28b	0.2086889
75	0x3dcb2300	0.09918785
76	0x3dd23efb	0.10265919
77	0xbbd47c24	-0.0064845253
78	0x3d3330eb	0.043747824
79	0x3da674b7	0.0812773
80	0x3c55730d	0.0130279185
81	0x3d14f80c	0.03636937
82	0xbdd77057	-0.10519474
83	0xbe3b6436	-0.18299946
84	0x3dc5904b	0.09646662
85	0x3d35f9d2	0.0444277
86	0xbd83528e	-0.064122304
87	0x3e218659	0.15773906
88	0x3df63b38	0.12023014
89	0x3d490065	0.049072642
90	0xbd1758bf	-0.03694987
91	0xbd7b6222	-0.061372884
92	0x3d0ab3cc	0.033862874
93	0xbd522ab8	-0.05131027
94	0xbd8417ce	-0.06449853
95	0x3d00400c	0.03131108
96	0xbdff1dd1	-0.12456859
97	0xbd6e1072	-0.058121152
98	0xbd14c8dc	-0.036324367
99	0x3b0c829e	0.0021440159
100	0xbd806fd5	-0.0627133
101	0xbcc2b057	-0.023765726
102	0xbd9fa146	-0.07794432
103	0xbd484b4a	-0.048899926
104	0x3adcc2d2	0.0016842729
105	0xbddee697	-0.10883825
106	0x3c0d72ac	0.008633297
107	0x3e4f0af6	0.20219025
108	0xbd33a669	-0.043859873
109	0xbdf559ed	-0.119800426
110	0xbcb3fbf8	-0.021970734
111	0xbdd28737	-0.102796964
112	0xbe023c51	-0.12718321
113	0xbccfe14d	-0.025375986
114	0xbdcbb5c5	-0.09946779
115	0xbe03f9eb	-0.12888305
116	0xbda9b9b5	-0.08287374
117	0x3d606598	0.054784387
118	0x3dfab65e	0.12241815
119	0x3e24996e	0.16074154
120	0x3da87292	0.082249776
121	0x3cb83b30	0.02248916
122	0x3e22bb82	0.15891841
123	0x3d808188	0.06274706
124	0x3d307bbd	0.043086756
125	0x3da39132	0.07986678
126	0xbc4c9730	-0.012487218
127	0x3ccfcb0c	0.025365375
128	0x3d7af6e9	0.061270628
129	0xbe07e43d	-0.1327066
130	0x3ce01ba7	0.027356936
131	0x3c15cc8c	0.009143006
132	0xbe1a3541	-0.15059377
133	0xbde22aed	-0.11043344
134	0xbcbc0b2d	-0.022954548
135	0xbd619be9	-0.055080328
136	0xbdf1a9d1	-0.11799968
137	0xbe3c2d44	-0.18376642
138	0xbd5b8249	-0.053591046
139	0xbda72081	-0.081604965
140	0xbe4b53fa	-0.19856253
141	0x3c711726	0.014714992
142	0xbe021544	-0.12703425
143	0xbdf436f7	-0.11924546
144	0xbe1c6f2e	-0.15276787
145	0xbe9bcdaf	-0.30430362
146	0xbea9d9b0	-0.33173895
147	0x3e23e1b9	0.16004075
148	0xbe167e7a	-0.14696684
149	0xbce15f09	-0.027511137
150	0x3e298d8a	0.16557899
151	0xbbb9c734	-0.005669499
152	0xbdc5a7fb	-0.0965118
153	0xbd954cea	-0.07290061
154	0xbd5acfba	-0.05342076
155	0xbe33431c	-0.17506069
156	0xbd457121	-0.04820359
157	0xbc8909dc	-0.016728334
158	0xbdaa4934	-0.08314744
159	0xbd9d669f	-0.07685589
160	0xbd835c78	-0.064141214
161	0xbd95bef0	-0.07311809
162	0x3d9893af	0.074500434
163	0x3e4dc513	0.20094709
164	0x3e6c3873	0.23068409
165	0x3c07f603	0.0082984
166	0x3e05a4cc	0.13051146
167	0x3e1907ea	0.14944425
168	0xbc6488e7	-0.013948656
169	0x3d8b0b71	0.06789292
170	0x3d9abd8a	0.07555683
171	0x3d076846	0.033058427
172	0x3d386a8b	0.045023482
173	0x3e1ba651	0.15200163
174	0xbd0b7c7b	-0.03405426
175	0x3c84b2ae	0.016198482
176	0x3d6f7a40	0.058466196
177	0xbe77523b	-0.24152462
178	0xbcfe40e6	-0.031036805
179	0x3dd27534	0.10276261
180	0xbdd422f9	-0.10358233
181	0xbddb3c10	-0.107048154
182	0xbe0bf5c1	-0.13667966
183	0xbda23886	-0.07920937
184	0xbe1e35a9	-0.15450157
185	0xbe308b3a	-0.1724061
186	0xbd624897	-0.05524501
187	0xbdb19d44	-0.08672574
188	0xbdc1f0da	-0.09469767
189	0xbe125966	-0.14291915
190	0xbe8aec46	-0.27133387
191	0xbe71572c	-0.2356841
192	0xbc85d5df	-0.016337333
193	0xbe2a4d37	-0.16631018
194	0xbe30d730	-0.17269588
195	0x3d967c43	0.0734792
196	0x3c2615a9	0.010137
197	0xbe189eaa	-0.14904276
198	0x3dca2ae3	0.09871461
199	0x3de9adfa	0.114101365
200	0x3db32298	0.087468326
201	0x3d74be07	0.059751537
202	0x3e258a2f	0.16165994
203	0x3e561062	0.20904687
204	0x3d991a5e	0.07475732
205	0x3e2e6c7e	0.17033574
206	0x3e12b330	0.14326167
207	0x3d0716bc	0.032980666
208	0x3ea38333	0.31936035
209	0x3dfb9f68	0.12286264
210	0x3d881a57	0.06645649
211	0x3e699bd7	0.22813354
212	0x3e511573	0.20418338
213	0xbde9907a	-0.1140451
214	0x3d89cdf0	0.067287326
215	0x3d8cf0e4	0.06881884
216	0x3ce02bf6	0.027364712
217	0x3d2748b7	0.04084083
218	0xbc833645	-0.016017089
219	0x3df0365d	0.11729119
220	0x3d5c2b84	0.053752437
221	0x3b886ea9	0.0041635823
222	0x3d8035de	0.06260274
223	0x3d2c54e0	0.04207313
224	0x3cf126f5	0.029437521
225	0xbc6c32e6	-0.014416432
226	0x3d8c7afe	0.068593964
227	0x3e1afeb0	0.15136218
228	0xbddb6d40	-0.10714197
229	0x3d7c33a6	0.061572693
230	0x3da23cdc	0.07921764
231	0xbe370d12	-0.1787608
232	0xbd8cf897	-0.06883352
233	0x3d0fc8e1	0.035103682
234	0xbdec2c14	-0.11531845
235	0xbe1e5853	-0.1546338
236	0xbe280261	-0.16407157
237	0xbd11d82d	-0.035606552
238	0xbdeccd00	-0.11562538
239	0xbe41c760	-0.18923712
240	0xbc82505b	-0.015907457
241	0xbe07b4e9	-0.13252605
242	0xbd78ae27	-0.06071296
243	0x3cc01fd8	0.023452684
244	0x3dcdd170	0.10049713
245	0x3e07e443	0.13270669
246	0xbdc03cf0	-0.09386623
247	0x3cfc131b	0.030770829
248	0x3dce178e	0.100630865
249	0xbe7691f8	-0.2407912
250	0x3d5965ae	0.053075485
251	0x3d873bad	0.06603179
252	0xbe16be33	-0.14720993
253	0xbddb98d0	-0.10722506
254	0xbe7b5928	-0.24545729
255	0x3db4f992	0.08836664

layer3.1.bias f4 [32]
0	0xbcc2da9c	-0.023785882
1	0x3c6ae664	0.014337156
2	0x3cbdc9c0	0.023167491
3	0xbd89c8eb	-0.06727775
4	0x3db00437	0.08594554
5	0xbd90f842	-0.070786014
6	0x3de65d1a	0.112482265
7	0xbd589275	-0.052874047
8	0x3c0dd059	0.008655631
9	0xbdd8e4b2	-0.10590495
10	0x3dd716d5	0.10502402
11	0xbdd1fc2b	-0.10253175
12	0x3a918334	0.0011101724
13	0xbd925d33	-0.071466826
14	0xbce8b3c0	-0.028406024
15	0x3dc731b4	0.09726277
16	0x3c9bad23	0.019003456
17	0x3cd986bd	0.026553506
18	0xbdcff46e	-0.10154043
19	0x3d69e15f	0.057099696
20	0x3b8015e2	0.0039088586
21	0x3dfdff81	0.12402249
22	0xbd4eb951	-0.0504697
23	0x3de197aa	0.11015256
24	0xbc85fff1	-0.016357394
25	0x3d25eceb	0.040509146
26	0xbd605be4	-0.054775134
27	0x3ccd3ce5	0.02505345
28	0x3d3129fa	0.043252923
29	0xbc9a2f34	-0.018821336
30	0x3c4ce79d	0.012506393
31	0x3ce86546	0.028368603

layer3.2.weight f4 [32]
0	0x3f8262dc	1.018642
1	0x3f946614	1.1593652
2	0x3f89f6ff	1.0778502
3	0x3f709635	0.939792
4	0x3f7a31a7	0.97732013
5	0x3f791004	0.9729006
6	0x3f87c441	1.0606767
7	0x3f7ab6bb	0.97935075
8	0x3f6e2bdb	0.9303567
9	0x3f97eb5e	1.1868703
10	0x3f82ab38	1.0208502
11	0x3f6c7422	0.92364705
12	0x3f8f21a7	1.1182145
13	0x3f925f86	1.1435401
14	0x3f765d98	0.9623656
15	0x3f6c4b26	0.9230217
16	0x3f4a2758	0.78966284
17	0x3f8d7757	1.1052045
18	0x3f911f92	1.133776
19	0x3f44f2d8	0.7693305
20	0x3f6ef1d1	0.9333773
21	0x3f86fa87	1.0545205
22	0x3f610e3e	0.87912357
23	0x3f889df6	1.0673206
24	0x3f85f72b	1.0466055
25	0x3f8774b9	1.0582496
26	0x3f603011	0.87573344
27	0x3f851f26	1.0400131
28	0x3f81e7d3	1.0148872
29	0x3f826ea7	1.0190018
30	0x3f6c83c0	0.92388535
31	0x3f5b8268	0.8574586

layer3.2.bias f4 [32]
0	0x3cdd8d00	0.027044773
1	0xbcbeb8ec	-0.023281537
2	0xbdbc2d28	-0.091883
3	0xbd76d860	-0.060264945
4	0xbd5376d6	-0.051627003
5	0xbdcec406	-0.10095982
6	0xbd489e69	-0.048979197
7	0xbe2ddfa8	-0.1697985
8	0xbd9d1491	-0.07669938
9	0x3b2e71b1	0.0026618058
10	0xbd39a611	-0.04532439
11	0xbe2435da	-0.16036168
12	0x3dcc71e0	0.099826574
13	0x3dff2cac	0.12459692
14	0xbd8c2161	-0.06842304
15	0xbd02b6e5	-0.031912703
16	0xbdb18d83	-0.08669569
17	0x3d829047	0.06375175
18	0x3db749e3	0.0894964
19	0xbe4f42d0	-0.2024033
20	0xbde703fc	-0.11280057
21	0x3dbb4092	0.09143175
22	0xbde6820b	-0.112552725
23	0x3d89e796	0.06733625
24	0xbc78fe2e	-0.01519732
25	0xbc852f6c	-0.016257964
26	0xbe6aee8c	-0.22942561
27	0x3c189c10	0.009314552
28	0xbe099e72	-0.13439348
29	0xbd5c4bb9	-0.053783152
30	0xbd3cd3ac	-0.046100304
31	0xbdd7139e	-0.105017886

layer3.2.running_mean f4 [32]
0	0xc2e63686	-115.10649
1	0xc2c703a0	-99.50708
2	0x431eee69	158.93129
3	0x43052763	133.15385
4	0x430b5528	139.33264
5	0x4301cc90	129.79907
6	0x43424f28	194.3092
7	0xc34177b5	-193.4676
8	0x435256e5	210.33943
9	0xc2c39166	-97.78398
10	0xc2e7bcb6	-115.868576
11	0x42b795d7	91.792656
12	0xc32b4c57	-171.2982
13	0xc23d388e	-47.30523
14	0x42f1a0b9	120.81391
15	0xc2f3f561	-121.979256
16	0xc2d11736	-104.545334
17	0xc33413f1	-180.0779
18	0xc29cf20c	-78.47275
19	0x430b03e9	139.01527
20	0x4324b399	164.70155
21	0xc2c1e415	-96.94547
22	0xc2b4e80b	-90.45321
23	0xc2dc8d3b	-110.27584
24	0xc2f253ac	-121.16342
25	0xc25a87ff	-54.63281
26	0x42b869df	92.20678
27	0xc297e55d	-75.947975
28	0xc29d71cd	-78.72227
29	0x43206fd5	160.43684
30	0xc303eb15	-131.91829
31	0x42c7c335	99.88126

layer3.2.running_var f4 [32]
0	0x45ab86a4	5488.83
1	0x4537dd1a	2941.8188
2	0x45a8a067	5396.0503
3	0x45562653	3426.3953
4	0x45774548	3956.33
5	0x455fa81d	3578.507
6	0x46037c0f	8415.015
7	0x465fbdd3	14319.456
8	0x4619e0b6	9848.178
9	0x45423607	3107.3767
10	0x457e8de7	4072.869
11	0x44e397a2	1820.7385
12	0x46084c5f	8723.093
13	0x44e8165e	1856.699
14	0x4539f375	2975.216
15	0x457d048c	4048.2842
16	0x4531202e	2834.0112
17	0x4639ca10	11890.516
18	0x451f7837	2551.5134
19	0x45b11064	5666.049
20	0x45bbdc0b	6011.5054
21	0x459bada2	4981.704
22	0x44deab0e	1781.3455
23	0x45626c77	3622.779
24	0x457436db	3907.4285
25	0x44a70a7f	1336.328
26	0x45122fec	2338.995
27	0x44f83c3e	1985.8826
28	0x452d357b	2771.3425
29	0x45a73a75	5351.307
30	0x459c905b	5010.0444
31	0x45030fd4	2096.9893

layer4.0.weight f4 [64, 32, 1, 1]
0	0x3e4d685f	0.20059346
1	0x3e68c873	0.22732715
2	0x3dc4f35f	0.09616732
3	0x3e08a010	0.13342309
4	0x3e7413a7	0.23835622
5	0x3e67b5aa	0.22627893
6	0x3ea389b5	0.31941
7	0x3e9d8611	0.30766347
8	0x3e87e93a	0.26545125
9	0x3d2baa69	0.041910563
10	0x3bea059b	0.0071417815
11	0x3e7f1f0f	0.24914192
12	0x3e54d3e3	0.20783953
13	0x3e385eec	0.1800496
14	0x3c7bfbfe	0.015379904
15	0xbdb0daeb	-0.08635505
16	0x3b219eaf	0.0024661233
17	0x3e6f5a36	0.23374256
18	0x3e6e912e	0.23297569
19	0x3d758b57	0.059947338
20	0x3db08d82	0.086207405
21	0x3d07be93	0.03314073
22	0xbe428dca	-0.189994
23	0x3d06bcf5	0.032895047
24	0x3e101648	0.14071
25	0x3d5774a4	0.05260147
26	0x3c39da43	0.011343542
27	0x3d4fd0b2	0.050736137
28	0xbc1c3464	-0.009533975
29	0x3d8f082d	0.06983981
30	0x3db624b7	0.088937216
31	0xbda5d495	-0.080971874
32	0xbe98e0b6	-0.2985894
33	0xbe59ae4a	-0.21257892
34	0xbe0559f4	-0.13022596
35	0x3d5d8847	0.054085042
36	0xbdd17c63	-0.10228803
37	0xbcc02c5a	-0.023458648
38	0x3d25a87c	0.040443882
39	0xbe520d2d	-0.20512839
40	0xbd16394f	-0.036675747
41	0xbe8a5483	-0.27017602
42	0xbe3ee684	-0.18642622
43	0xbd15eb1b	-0.036601167
44	0xbe150301	-0.14551927
45	0xbe86fb61	-0.26363662
46	0xbd913135	-0.070894636
47	0xbb3fbc62	-0.0029256572
48	0xbde4958b	-0.111613356
49	0xbdd2fed0	-0.10302508
50	0xbcb9c694	-0.022677697
51	0xbe33bc8a	-0.1755239
52	0xbe8b01b8	-0.2714975
53	0xbe25e869	-0.16201939
54	0x3ddb95d7	0.10721939
55	0xbe6d8a7c	-0.23197359
56	0xbe295d90	-0.16539598
57	0xbd08eb40	-0.033427477
58	0xbd94a867	-0.07258683
59	0x3b45450d	0.0030100972
60	0xbe4a5452	-0.19758728
61	0xbead098c	-0.33796346
62	0xbe2a9925	-0.16659983
63	0xbda29db1	-0.079402335
64	0xbd90b2cd	-0.070653535
65	0xbe5dfe6e	-0.21679088
66	0xbe35cab3	-0.17753105
67	0xbe6b2b26	-0.22965679
68	0xbdf21a0e	-0.11821376
69	0xbe23b071	-0.15985276
70	0xbe04d4f2	-0.12971857
71	0xbd18bf1c	-0.03729163
72	0x3cdeed96	0.0272129
73	0x3cb7e893	0.022449767
74	0x3d9afa7f	0.075673096
75	0x3d544fd3	0.05183394
76	0xbeafb2e7	-0.3431618
77	0xbe17375c	-0.14767212
78	0x3c74f750	0.014951542
79	0x3d6ebd13	0.058285784
80	0x3d89ce25	0.06728772
81	0xbe380ae5	-0.17972906
82	0xbd0fe164	-0.03512706
83	0x3e1f6c23	0.15568595
84	0xbe3cbb1d	-0.18430753
85	0xbe4f0e84	-0.20220381
86	0xbd27df64	-0.040984526
87	0xbcf7539b	-0.030191233
88	0x3e09ee51	0.13469817
89	0x3c6ab5f2	0.014325606
90	0xbd973193	-0.073825024
91	0xbe35afa7	-0.17742787
92	0xbd531099	-0.0515295
93	0x3da64ec0	0.08120489
94	0xbe1bbd44	-0.15208918
95	0xbdbc483d	-0.09193466
96	0xbe11f1a3	-0.14252333
97	0xbd09c4b6	-0.033634864
98	0xbdd3836e	-0.103278026
99	0x3d9375b2	0.07200183
100	0xbccd281f	-0.025043545
101	0xbd9cc0b2	-0.07653941
102	0xbe0ee0ed	-0.1395299
103	0xbe8ac6f5	-0.27104917
104	0xbe8d6f17	-0.27623817
105	0xbd0de8b9	-0.03464577
106	0x3e28ab92	0.16471699
107	0xbe4e025b	-0.20118086
108	0x3d5b2f6b	0.05351202
109	0x3c467c0a	0.012114534
110	0xbe92e2db	-0.28688702
111	0x3c83395e	0.016018566
112	0xbda55e6c	-0.0807465
113	0xbdd4c812	-0.10389723
114	0x3e676bbf	0.22599696
115	0xbe01598d	-0.12631817
116	0x3d0fc412	0.035099097
117	0xbe2055da	-0.1565775
118	0x3d914950	0.070940614
119	0xbda0d74c	-0.078535646
120	0x3d8400f6	0.06445496
121	0xbe368756	-0.17825064
122	0xbe0d335e	-0.13789126
123	0xbe3aeb4c	-0.18253821
124	0xbd79dfcd	-0.06100445
125	0xbe0cda1f	-0.13755082
126	0xbe144887	-0.14480792
127	0x3d4235f9	0.047414754
128	0xbd5d8ecd	-0.054091264
129	0xbe1880c0	-0.14892864
130	0xbe1ea7de	-0.15493724
131	0x3b8ac1ba	0.00423452
132	0xbe399454	-0.18122989
133	0xbd10eb32	-0.03538055
134	0xbd559980	-0.052148342
135	0xbc8a34cc	-0.016870879
136	0xbdc1f2a4	-0.09470108
137	0x3c375d8a	0.011191735
138	0x3deac670	0.1146363
139	0x3db66845	0.089066066
140	0xbe6bf3ea	-0.23042265
141	0xbe47619d	-0.1947083
142	0xbd9c4106	-0.0762959
143	0xbddca96b	-0.107745014
144	0x3d7a9ee9	0.061186705
145	0xbe87a79f	-0.26495072
146	0xbdac5ad3	-0.08415761
147	0xbd878815	-0.066177525
148	0xbd7dbd33	-0.061948013
149	0xbe8ce109	-0.27515438
150	0xbe34a4aa	-0.1764094
151	0xbe2bb2fa	-0.16767493
152	0x3df6ebff	0.120567314
153	0xbc97dc6f	-0.018537728
154	0xbe6f0201	-0.23340608
155	0xbdcad745	-0.09904341
156	0xbd298054	-0.04138215
157	0xbe87dd1b	-0.26535878
158	0x3d66a7c7	0.05631235
159	0xbdc8f328	-0.098120034
160	0x3cd158e0	0.025555074
161	0xbe702b43	-0.23454003
162	0xbae4bb53	-0.0017450846
163	0xbe33655f	-0.17519139
164	0xbe1d1a4b	-0.15342061
165	0x3e30b1e4	0.1725536
166	0xbe2e3b58	-0.17014825
167	0xbdd94383	-0.1060858
168	0xbdad9838	-0.08476299
169	0x3df54e19	0.119777866
170	0xbe1d135a	-0.15339413
171	0xbce877ec	-0.028377496
172	0xbe480491	-0.19532992
173	0xbe824cc9	-0.25449207
174	0x3bfa8127	0.0076447907
175	0x3dafd322	0.08585192
176	0x3dcf865d	0.1013305
177	0x3cf8bed8	0.030364439
178	0xbe2205bc	-0.158225
179	0xbd20cf92	-0.039260454
180	0x3e1e8732	0.1548126
181	0x3b15779a	0.0022806884
182	0xbdf2191a	-0.11821194
183	0xbe14c43c	-0.14527982
184	0x3d2efb18	0.04271993
185	0xbe80dcc1	-0.25168422
186	0xbdda944f	-0.10672819
187	0xbcfceaa5	-0.030873606
188	0xbe17edd4	-0.14836818
189	0xbe10c051	-0.14135863
190	0xbe14b49f	-0.14522026
191	0x3d2b56f3	0.041830968
192	0x3e05b6da	0.13058034
193	0xbdb91545	-0.0903726
194	0x3dab39ac	0.083606094
195	0x3d7d4ebc	0.061842665
196	0x3de6020b	0.112308584
197	0xbdb6fb2d	-0.08934627
198	0x3cea714e	0.028618481
199	0x3df8023a	0.121098
200	0x3dd697e9	0.10478193
201	0xbe4a17e1	-0.19735672
202	0xbdb4336d	-0.08798871
203	0x3ccdfb46	0.02514423
204	0x3df6904b	0.120392404
205	0x3de22901	0.11042977
206	0x3e10ac57	0.14128242
207	0xbd4f3015	-0.050582964
208	0xbdf863ad	-0.12128387
209	0x3d6bdec5	0.057585496
210	0xbc112d73	-0.008860934
211	0x3e13fecf	0.1445267
212	0xbe35847b	-0.17726319
213	0x3dbed6af	0.093182914
214	0x3d41242d	0.04715364
215	0x3dbfa77c	0.09358117
216	0xbdf8f934	-0.12156907
217	0x3e0ba297	0.13636242
218	0xbe47ec2f	-0.1952369
219	0xbe33dc51	-0.17564513
220	0x3b9ae406	0.0047268895
221	0x3d37e421	0.044895295
222	0x3dbc47e3	0.09193399
223	0x3e365c4c	0.17808646
224	0x3dc62078	0.09674162
225	0x3e0bb4b7	0.13643156
226	0x3e06465e	0.1311278
227	0x3eae0259	0.33986166
228	0x3e4e3f90	0.20141435
229	0x3d9d7de3	0.076900266
230	0x3ebf3031	0.37341455
231	0x3da1e3ad	0.07904754
232	0x3e8b6714	0.2722708
233	0xbdc133f7	-0.0943374
234	0xbd1a0944	-0.037606493
235	0x3d4cb533	0.049977493
236	0x3e3b55d6	0.18294463
237	0xbde79633	-0.11307945
238	0x3e38de70	0.18053603
239	0xbc445dc6	-0.011985248
240	0x3e0f7bb3	0.14012031
241	0x3e7c836a	0.24659505
242	0xbc595cc4	-0.013266746
243	0x3e02e9f4	0.12784559
244	0xbcf35b9b	-0.029706767
245	0x3e99da59	0.300494
246	0x3da0c559	0.07850141
247	0x3d9b1dcc	0.07574043
248	0xbde020b0	-0.10943735
249	0x3e0f51c7	0.1399604
250	0xbdb1bfc6	-0.08679156
251	0xbd93b7c5	-0.07212786
252	0x3e49f058	0.1972059
253	0x3e1ef966	0.15524825
254	0x3ca525f4	0.020159699
255	0xbd9eb471	-0.0774926

layer4.0.bias f4 [64]
0	0x3cf67b61	0.030088129
1	0xbd0c2310	-0.034213126
2	0x3c8c7b4f	0.017148642
3	0x3dc06fba	0.0939631
4	0xbe2a0b1f	-0.16605805
5	0x3ded2d19	0.11580867
6	0x3e5a5cec	0.2132451
7	0x3e29bfea	0.16577116
8	0xbe02e3ca	-0.12782207
9	0x3c90eaed	0.017690146
10	0xbc5d75be	-0.013516841
11	0xbdb21440	-0.08695269
12	0x3c9595d4	0.01825992
13	0x3e3b9c59	0.1832136
14	0x3d617f98	0.055053324
15	0xba47f148	-0.0007627201
16	0x3d906995	0.07051388
17	0xbd04a3de	-0.03238284
18	0xbcb60479	-0.02221893
19	0x3ce4f3e1	0.027948322
20	0xbe0c334d	-0.13691445
21	0xbe4e098c	-0.2012083
22	0x3b3e870a	0.0029072189
23	0x3d351c48	0.044216424
24	0xbe0aa810	-0.13540673
25	0x3dd0d0a7	0.10196047
26	0x3dfad205	0.12247089
27	0xbe49f661	-0.19722892
28	0xbe2801eb	-0.16406982
29	0xbb431a13	-0.002977018
30	0xbe30cfb6	-0.17266735
31	0x3e0d6ce3	0.13811068
32	0x3e1a666d	0.15078135
33	0xbdfcbe17	-0.12340944
34	0xbda5862d	-0.080822326
35	0x3d61413f	0.054993864
36	0x3dd5a346	0.104315326
37	0xbc7a8f30	-0.015292928
38	0x3c351539	0.011052423
39	0xbe17c938	-0.14822853
40	0x3dbda914	0.09260765
41	0xbe260a44	-0.16214854
42	0xbdb4767d	-0.08811662
43	0xbe0adee7	-0.13561593
44	0x3dbafb4c	0.09129962
45	0x3e47a1d8	0.19495332
46	0x3e32958b	0.17439859
47	0x3da105af	0.07862412
48	0x3e505e1e	0.20348403
49	0xbda3dace	-0.08000718
50	0xbdb7b767	-0.08970528
51	0xbe0f9af7	-0.14023958
52	0xbd116198	-0.035493463
53	0xbe1ee0e1	-0.15515472
54	0xbe0d1d57	-0.13780724
55	0x3dc4f1d4	0.096164376
56	0xbdd61406	-0.10453038
57	0x3e08a2b3	0.13343315
58	0x3cffb924	0.031216212
59	0x3e1ee6d0	0.15517735
60	0x3d51db0a	0.051234283
61	0xbe45922f	-0.19294046
62	0xbe56c7df	-0.20974682
63	0x3e0e715b	0.13910429

layer4.1.weight f4 [64, 64, 3, 3]
0	0x3da281ff	0.07934951
1	0x3d7e0a1e	0.062021367
2	0x3ddea153	0.10870614
3	0x3dbb9b8a	0.09160526
4	0x3daaf802	0.08348085
5	0x3d436659	0.04770503
6	0x3dbcb480	0.09214115
7	0x3d85e338	0.06537479
8	0x3aa020ae	0.001221677
9	0x3e008031	0.12548901
10	0x3e0a4114	0.13501388
11	0xbda829ca	-0.08211096
12	0x3de4d9d6	0.111743614
13	0x3df6e25f	0.120548956
14	0xbc64e4a2	-0.013970526
15	0xbc3f53ef	-0.011677726
16	0x3d07d292	0.0331598
17	0xbd1dd79c	-0.0385357
18	0xbdacbd77	-0.08434575
19	0xbd8e6631	-0.06953085
20	0xbcfa8f5d	-0.030585939
21	0xbdbc60cb	-0.09198149
22	0xbd11bccb	-0.035580438
23	0xbc634abe	-0.0138728
24	0xbd50f9c1	-0.051019434
25	0x3d898f86	0.06716828
26	0x3d8363ff	0.06415557
27	0xbd32fc68	-0.043697745
28	0xbc016ca0	-0.007899433
29	0xbcf19185	-0.029488334
30	0xbdb0271d	-0.0860121
31	0xbdd8a3b9	-0.105781026
32	0xbd8cdced	-0.06878076
33	0xbb5eeb0d	-0.0034014613
34	0xbcaa8f6e	-0.020820346
35	0x3d0f9e2c	0.035062954
36	0xbda91723	-0.08256366
37	0x3d613708	0.054984123
38	0xbd8828bb	-0.06648394
39	0xbda8d1cc	-0.082431406
40	0xbc13b00e	-0.009014143
41	0xbd303c59	-0.043026302
42	0xbde63640	-0.11240816
43	0xbc4495a0	-0.011998564
44	0xbd426b91	-0.047465865
45	0xbd946f8b	-0.07247838
46	0xbd28fe46	-0.04125812
47	0xbd1ecbfd	-0.038768757
48	0x3e363bdd	0.17796274
49	0x3d8a46d5	0.067517914
50	0x3d80f0b6	0.06295912
51	0x3da07439	0.07834668
52	0x3c350834	0.011049319
53	0x3d2e91dc	0.04261957
54	0x3d473071	0.04863018
55	0xbbf6437c	-0.007515369
56	0xbb1aafbd	-0.0023603283
57	0x3cc5e697	0.024157805
58	0xbc4e1585	-0.012578373
59	0xbd893e7c	-0.06701371
60	0x3ce7ae0a	0.02828123
61	0xbd12e8e8	-0.035866648
62	0xbd8d3f1f	-0.06896805
63	0x3dbb5fd6	0.09149139
64	0x3db0c07d	0.08630464
65	0x3d894b07	0.067037635
66	0x3c2a9c1f	0.010413199
67	0x3c89b7fa	0.01681136
68	0xbca2dbb9	-0.019880163
69	0x3d9bb3e2	0.07602669
70	0x3d5c8ea3	0.053846966
71	0xbdba9d7c	-0.09112069
72	0xbd3e9473	-0.04652829
73	0xbd64679e	-0.05576288
74	0x3c3d59d9	0.011557066
75	0x3d07657a	0.03305576
76	0x3d015f40	0.031584978
77	0x3da874e8	0.08225423
78	0xbd0b504d	-0.034012128
79	0xbd25e9c4	-0.04050614
80	0x3d7db6c3	0.061941873
81	0xbe6730d3	-0.22577219
82	0xbe0a80d6	-0.1352571
83	0x3c80b8a9	0.015713053
84	0xbdc0ce02	-0.09414293
85	0xbe07f2a0	-0.13276148
86	0xbdcd5c2f	-0.10027348
87	0xbe63d758	-0.22250116
88	0xbe4afdf2	-0.19823435
89	0xbd3d7ae9	-0.046259794
90	0x3d840ae4	0.0644739
91	0x3da21831	0.079147704
92	0x3cd4887e	0.02594399
93	0xbb53e797	-0.0032334083
94	0x3b976d2d	0.004621169
95	0xbd8f1ac6	-0.069875285
96	0x3daab8cb	0.08336028
97	0x3de9a6a5	0.11408738
98	0x3dcb0c7e	0.09914492
99	0x3cfb2876	0.030658942
100	0x3d2d3757	0.042289104
101	0x3d7b78f8	0.06139466
102	0x3dcb76a4	0.09934738
103	0x3dcc441f	0.099739306
104	0x3c9a5df4	0.018843628
105	0x3baaea69	0.005215932
106	0xbd367065	-0.04454078
107	0xbdb4c4f4	-0.08826628
108	0x3dc1a677	0.09455579
109	0x3cbe3cec	0.02322241
110	0xbc56ca17	-0.013109705
111	0x3e06026f	0.13086866
112	0x3daa647e	0.083199486
113	0x3a78cefb	0.0009491292
114	0x3dbbccec	0.09169945
115	0xbc7d9d76	-0.015479436
116	0xbd375e1f	-0.044767495
117	0x3d3bf3ca	0.045886792
118	0x3c86c8c0	0.016453147
119	0xbcb8ee44	-0.022574551
120	0xbda417e7	-0.080123715
121	0xbd942cdb	-0.07235118
122	0xbcaaf499	-0.020868586
123	0x3d8168f6	0.06318848
124	0x3c6f5f20	0.014610082
125	0x3c618f17	0.013767025
126	0x3d60854f	0.054814633
127	0x3dc4ff72	0.09619035
128	0x3da558b0	0.080735564
129	0xbbda1f7e	-0.006656586
130	0x3cea27c0	0.028583407
131	0x3cff625c	0.031174831
132	0xbc33b1ab	-0.010967652
133	0x3b715751	0.0036825726
134	0x3c701db7	0.014655522
135	0x3c78f803	0.015195849
136	0xbd8d4e1d	-0.068996646
137	0xbb9fa276	-0.004871662
138	0x3ccf7a0b	0.02532675
139	0xbd9f197c	-0.07768533
140	0xbba98fbf	-0.0051746066
141	0x3cacd08f	0.021095542
142	0xbd0567b4	-0.032569602
143	0xbd073f82	-0.03301955
144	0x3bd41c02	0.0064730654
145	0xbd136bcd	-0.03599148
146	0xbc74e639	-0.0149474675
147	0x3d888668	0.06666261
148	0x3d3fcf93	0.046828818
149	0x3dbcc2b4	0.09216824
150	0xbc6a0d33	-0.0142853735
151	0xbd2b1683	-0.041769516
152	0x3cb6461a	0.022250224
153	0xbda503e8	-0.08057386
154	0xbdb4ce12	-0.08828367
155	0xbd8c34ff	-0.06846046
156	0xbd8558f1	-0.06511105
157	0x3d28167a	0.04103706
158	0x3b0df78c	0.0021662442
159	0xbca539d8	-0.020169184
160	0xbc968f48	-0.018378869
161	0xbcc3ccb1	-0.023901315
162	0x3dd1fe3f	0.10253572
163	0x3e01be10	0.1267016
164	0x3d0bf16f	0.034165796
165	0x3e2a1c50	0.16612363
166	0x3e1960e6	0.1497837
167	0x3d768ef0	0.06019491
168	0x3e2abbb2	0.16673163
169	0x3d1a5fe6	0.037689112
170	0xbdb763db	-0.08954593
171	0xbe460247	-0.19336806
172	0xbcc408c9	-0.02392997
173	0xbcded9c9	-0.027203457
174	0xbe92c397	-0.28664848
175	0xbdaf6af5	-0.08565322
176	0xbda1a6f3	-0.07893171
177	0xbe7917c8	-0.24325478
178	0xbd1f504f	-0.038894948
179	0xbdb1f866	-0.08689956
180	0x3d9e180f	0.077194326
181	0x3d2cb888	0.04216817
182	0xbcb83c55	-0.022489706
183	0x3e2eec0b	0.17082231
184	0x3e094516	0.1340526
185	0x3d97d423	0.07413509
186	0x3d97e14c	0.07416019
187	0x3d08eadf	0.033427116
188	0xbd850b2b	-0.06496271
189	0xbd849546	-0.06473784
190	0x3dea148d	0.11429701
191	0x3e27de4a	0.1639339
192	0xbd9abb6c	-0.07555279
193	0xbcaf7f1e	-0.021422919
194	0x3ce54719	0.027988004
195	0x3df40dca	0.119166926
196	0x3de1802b	0.11010774
197	0x3e3e08ab	0.18557994
198	0xbcc3381f	-0.023830472
199	0xbcffee72	-0.03124163
200	0xbb149f01	-0.0022677782
201	0xbd684436	-0.056705676
202	0xbd37a54e	-0.04483538
203	0x3b9ad339	0.0047248867
204	0xbcf6c1d0	-0.030121714
205	0xba212b70	-0.0006148135
206	0x3d697fd7	0.057006683
207	0xbd6816cb	-0.056662362
208	0xbc4babcb	-0.012431095
209	0xbc18141d	-0.009282139
210	0xbc93d422	-0.018045489
211	0xbc1d1d3b	-0.009589489
212	0xbd40a049	-0.04702786
213	0xbd497b6a	-0.049189962
214	0xbd484eee	-0.0489034
215	0x3cfed88e	0.03110912
216	0xbe431d8d	-0.19054241
217	0xbdf3158a	-0.118693426
218	0x3cd34319	0.02578883
219	0xbe623a84	-0.22092634
220	0xbe305914	-0.1722148
221	0xbd740406	-0.05957415
222	0xbd9ae2ff	-0.07562827
223	0xbe863066	-0.262088
224	0xbcac341e	-0.021020945
225	0x3c4b4e18	0.012408756
226	0x3d3490c0	0.044083357
227	0xbcd7c56f	-0.02633926
228	0xbcf5e5ec	-0.030016862
229	0x3ca863eb	0.020555457
230	0xbd0105c7	-0.03149965
231	0x3da1d06b	0.07901081
232	0x3da849b6	0.08217184
233	0xbd38035b	-0.044925075
234	0xbd5f1f3b	-0.054473143
235	0xbcd49324	-0.025949068
236	0xbd0bbbe3	-0.03411473
237	0xbdb13b3d	-0.08653877
238	0xbd64f61a	-0.055898763
239	0xbdae8d76	-0.08523075
240	0xbe022dbd	-0.1271276
241	0x3d5777a6	0.05260434
242	0x3d6e797a	0.058221318
243	0x3d29ce52	0.041456528
244	0x3d2371b8	0.039903373
245	0x3db3657b	0.0875959
246	0x3d4957df	0.049156066
247	0xbd2c1957	-0.042016353
248	0x3d9ed035	0.07754556
249	0x3d9f2f25	0.07772664
250	0xbbf76fd1	-0.0075511714
251	0x3d33445d	0.04376637
252	0x3dadc0bb	0.08484026
253	0x3d4fbffa	0.050720192
254	0x3d789084	0.060684696
255	0x3cad28e2	0.021137659

layer4.1.bias f4 [64]
0	0xbc8d7bb2	-0.017270897
1	0xbd51b921	-0.051201943
2	0x3ba9a00a	0.005176549
3	0x3b9768c6	0.0046206443
4	0x3d195314	0.037432745
5	0xbcc9be2e	-0.024626818
6	0xbd78f161	-0.060777072
7	0xbd49f034	-0.04930134
8	0x3bffb5ef	0.0078036706
9	0x3d1ba829	0.038002167
10	0xbd2974d0	-0.041371167
11	0xbcf2cf66	-0.02963991
12	0x3cbf11f4	0.02332399
13	0x3cec6c78	0.028860316
14	0x3b22bd89	0.002483221
15	0x3c85eef0	0.016349286
16	0xbd129d3f	-0.035794493
17	0x3c9da071	0.019241543
18	0xbb0edf35	-0.0021800522
19	0xbb751e92	-0.0037402255
20	0x3d323bec	0.043514177
21	0xbd304104	-0.043030754
22	0x3b23003c	0.0024871966
23	0xbd813eea	-0.06310828
24	0xbcf688e8	-0.030094579
25	0x3cc5a21a	0.024125148
26	0x3bb66aee	0.005566946
27	0x3cf2def8	0.029647335
28	0x3d7ac3a8	0.06122175
29	0xbd47c48c	-0.048771426
30	0xbd914cb2	-0.070947066
31	0x3c734ed8	0.014850341
32	0x3ce50e2b	0.027960857
33	0x3c97d9bc	0.018536441
34	0x3d9eec28	0.07759887
35	0xbc977bf8	-0.01849173
36	0xbc8ddb2f	-0.017316429
37	0xbd3d663f	-0.046240088
38	0x3d660e7c	0.056166157
39	0xbce61244	-0.028084882
40	0xbd190c91	-0.0373655
41	0x3d556c6b	0.05210535
42	0xbbfd1adb	-0.0077241487
43	0xbac8b352	-0.0015312231
44	0x3caf96d2	0.021434221
45	0xbb7396a6	-0.003716865
46	0x3ca160d2	0.019699488
47	0xbd1e7bbe	-0.03869223
48	0xbca8eb0f	-0.020619897
49	0x3d765322	0.060137875
50	0x3d407895	0.046989996
51	0xbd4be866	-0.04978218
52	0x3bae5c09	0.00532103
53	0x3c746195	0.0149158435
54	0xbb929fc1	-0.0044746106
55	0xba6db0b1	-0.00090671616
56	0xbb4d9fdc	-0.0031375801
57	0x3c3902ec	0.011292201
58	0xbcad9eee	-0.021193948
59	0x3c7da57c	0.015481349
60	0x3d693b9d	0.056941617
61	0xbd277bb9	-0.040889475
62	0x3d4acb06	0.049510024
63	0x3cd2f07a	0.025749434
