MultLabel_model/MyModel_Remove5x5_v3.pt (torch_old, 124340 bytes, 44 tensors)

layer1.0.weight f4 [8, 3, 3, 3]
-0.17135078 0.13922973 -0.11897585 -0.13242607 -0.011286747 -0.08011448 0.14037386 0.0771323
0.20141627 -0.05132878 -0.19845471 -0.15805757 -0.008505029 -0.09825828 0.19078426 0.08357707
-0.14365143 -0.114047155 -0.092993565 -0.09928854 -0.0605735 0.021468647 0.16612625 0.017855624
-0.09826874 0.02410709 0.11748621 -0.0782044 -0.15623005 -0.20815115 -0.11251844 0.18067959
0.104627915 0.02442161 0.107217975 -0.037176866 0.10944132 -0.05884363 0.04785807 0.0058764988
0.0069845705 -0.090669565 0.17135291 0.11737405 -0.08098375 -0.019511594 0.17293999 0.04933721
-0.107321545 -0.15412854 -0.18370855 0.09794624 0.18407752 0.10438216 -0.11512966 -0.13462067
-0.04555708 0.17685035 -0.06867966 0.18397734 0.2060904 0.123195335 0.12059843 -0.14367191
-0.14023623 -0.16844548 0.12724176 -0.08043567 -0.050556295 -0.0217988 0.097077556 -0.11154324
-0.1255369 0.10065586 -0.10971835 0.11254763 -0.12998728 0.07942098 0.18245412 -0.115896866
0.10392284 -0.00847781 -0.2173975 0.1121701 -0.065229 -0.13090356 -0.09052639 0.028189288
0.16547443 0.06700265 -0.16584079 -0.14667462 0.0073879487 -0.18295309 -0.09647299 -0.005571578
-0.09957486 0.15335254 0.05264891 -0.14093255 -0.09542099 -0.009429569 -0.10943869 -0.04745187
0.1376388 0.10269445 -0.047673758 -0.10638114 0.122373976 0.12329757 0.123885185 0.05342248
0.003293594 0.060096905 0.046849754 -0.007770854 0.008404834 0.086698405 -0.14359774 0.07613911
-0.13835427 -0.009686228 -0.09371337 0.14484431 -0.17936957 0.15978414 0.035621073 0.04474198
-0.0048391563 0.035622913 -0.05880212 -0.02718602 -0.06732899 0.044881403 -0.06599124 0.17758973
0.09234255 -0.10099055 0.11654417 -0.20982201 0.15632759 0.081405856 0.08701979 0.10223516
-0.09625376 0.026647458 -0.14744209 0.044010542 -0.15679066 -0.18785919 0.09240053 0.05713847
-0.11141871 -0.07376553 0.16135639 -0.121467754 -0.1632908 -0.102189966 0.1679154 -0.0036222253
0.103833556 0.1843866 -0.15004483 -0.011544361 -0.17821112 -0.040443 -0.08847438 -0.05956061
-0.1604311 0.006927129 0.025504658 0.14943317 0.16269965 -0.029249296 -0.12570329 -0.07952528
-0.18466803 -0.15353169 -0.0010427502 0.15649489 0.16757493 0.18803096 -0.19063482 0.13489355
0.015735906 0.17721649 -0.13986252 -0.12336879 0.1972268 -0.18757801 0.15771855 -0.039659973
-0.017961549 -0.08879907 -0.07083184 -0.074434415 -0.047409426 -0.018283634 -0.0012116246 0.20597918
0.1459466 -0.04253456 0.013183692 -0.18852279 0.074052446 -0.008045085 -0.013188044 -0.02679102
0.20172529 -0.15717377 -0.08005302 0.15303107 -0.13921152 -0.1664794 -0.07040585 0.17880754
00000000: 9476 2fbe 3d92 0e3e 9ca9 f3bd b39a 07be
00000010: 0cec 38bc 0f13 a4bd 2abe 0f3e 8af7 9d3d
00000020: 1140 4e3e 203e 52bd b637 4bbe d8d9 21be
00000030: ad58 0bbc a33b c9bd f35c 433e 742a ab3d
00000040: 5c19 13be 8e91 e9bd 6973 bebd ca57 cbbd
00000050: eb1b 78bd 04df af3c 001d 2a3e f545 923c
00000060: 1f41 c9bd 3b7c c53c 9c9c f03d a129 a0bd
00000070: c5fa 1fbe 9325 55be 1170 e6bd 1204 393e
00000080: 2947 d63d d40f c83c 1995 db3d c546 18bd
00000090: c522 e03d 0506 71bd d306 443d a58f c03b
000000a0: d3de e43b f7b0 b9bd 2377 2f3e ce61 f03d
000000b0: cfda a5bd c7d6 9fbc 2e17 313e d015 4a3d
000000c0: 66cb dbbd dfd3 1dbe 181e 3cbe 0a98 c83d
000000d0: d17e 3c3e 50c6 d53d 19c9 ebbd 00da 09be
000000e0: 109a 3abd 4218 353e eca7 8cbd 8e64 3c3e
000000f0: 5d09 533e d64d fc3d 4ffc f63d bb1e 13be
00000100: 169a 0fbe f97c 2cbe aa4b 023e 75bb a4bd
00000110: 1e14 4fbd 6693 b2bc 99d0 c63d c870 e4bd
00000120: bf8c 00be a924 ce3d 04b4 e0bd 5f7f e63d
00000130: 631b 05be 77a7 a23d 41d5 3a3e 565b edbd
00000140: 7fd5 d43d 83e6 0abc 739d 5ebe 70b9 e53d
00000150: c896 85bd 950b 06be e665 b9bd 39ed e63c
00000160: 2172 293e af38 893d 2bd2 29be df31 16be
00000170: 9b16 f23b 0e58 3bbe a293 c5bd c991 b6bb
00000180: e7ed cbbd 7308 1d3e 62a6 573d 9f50 10be
00000190: 146c c3bd 7b7e 1abc 6421 e0bd e45c 42bd
000001a0: 30f1 0c3e 7851 d23d 8f45 43bd 5bde d9bd
000001b0: 359f fa3d 7083 fc3d 84b7 fd3d 88d1 5a3d
000001c0: 57d9 573b 2c28 763d 87e5 3f3d a6a2 febb
000001d0: 6eb4 093c ef8e b13d 490b 13be d2ee 9b3d
000001e0: beac 0dbe fcb2 1ebc ccec bfbd 1152 143e
000001f0: a8ac 37be 749e 233e 67e7 113d 5e43 373d
00000200: c991 9ebb 55e9 113d 7eda 70bd 37b5 debc
00000210: c8e3 89bd 90d5 373d 6a26 87bd 15da 353e
00000220: 171e bd3d 22d4 cebd b6ae ee3d 95db 56be
00000230: 5714 203e 1db8 a63d 6f37 b23d ab60 d13d
00000240: b120 c5bd c54b da3c 0ffb 16be 6644 343d
00000250: bb8d 20be 295e 40be 7d3c bd3d 070a 6a3d
00000260: 7e2f e4bd 6212 97bd 9c3a 253e 16c4 f8bd
00000270: b435 27be f948 d1bd 04f2 2b3e db62 6dbb
00000280: b0a6 d43d d7cf 3c3e 5aa5 19be 8f24 3dbc
00000290: fa7c 36be 8fa7 25bd 0e32 b5bd d4f5 73bd
000002a0: 0d48 24be f8fc e23b 25ef d03c 0205 193e
000002b0: bd9a 263e 389c efbc 5db8 00be 26de a2bd
000002c0: 9e19 3dbe 6937 1dbe e4ac 88ba 3240 203e
000002d0: c398 2b3e 308b 403e c635 43be 8921 0a3e
000002e0: 96e8 803c 3d78 353e 1f38 0fbe c7a8 fcbd
000002f0: d2f5 493e 7314 40be f980 213e 7f72 22bd
00000300: 1924 93bc 49dc b5bd 4910 91bd 1271 98bd
00000310: 6330 42bd 8fc7 95bc 60cf 9eba 35ec 523e
00000320: 0773 153e b838 2ebd 6900 583c 1e0c 41be
00000330: cfa8 973d 88cf 03bc aa12 58bc d778 dbbc
00000340: 1391 4e3e 29f2 20be d6f2 a3bd 2db4 1c3e
00000350: 778d 0ebe 9379 2abe f130 90bd 5319 373e

layer1.0.bias f4 [8]
0.1838846 0.08009551 0.10521628 0.040856525 0.028775351 0.14065067 -0.101537906 0.09924378
00000000: 3f4c 3c3e 1d09 a43d a27b d73d 2c59 273d
00000010: 49ba eb3c bb06 103e 1bf3 cfbd 5340 cb3d

layer1.2.weight f4 [8, 8, 3, 3]
-0.008845076 -0.11474572 0.11095963 0.032505356 0.1170383 -0.0012650266 -0.11458031 -0.025256895
0.020434268 -0.07642293 -0.09803638 -0.055093184 -0.011106916 0.07645089 0.11092002 -0.108135864
-0.094218776 -0.044588245 0.047642924 -0.08329545 0.07303142 -0.011020124 -0.06590636 -0.06934197
-0.059044294 0.11121724 0.0056236237 -0.05452569 0.02808579 0.07812033 0.09577807 0.085047506
-0.10035649 0.024266265 -0.061513495 -0.08772906 -0.035400964 -0.0659982 -0.0055008084 0.054129772
-0.09060932 0.06430646 -0.09483103 0.06513948 0.10887035 0.11068996 -0.08395174 -0.010187678
0.008824013 0.068043284 -0.06499405 0.1092535 -0.11525035 -0.08917388 0.007921241 -0.028995596
-0.04118003 0.069749124 0.086737566 -0.106894106 -0.026112936 0.010875858 0.024388231 0.016071923
-0.08218454 0.03164854 -0.0010516793 -0.06697574 0.004713379 0.06599819 0.020963527 -0.091638334
-0.0811256 0.091241546 -0.080215245 -0.055862572 -0.020545885 -0.04358855 0.04675921 0.075383194
-0.08111687 -0.043452278 -0.07248599 0.0418588 -0.09466403 0.019261338 -0.02645982 0.10959103
-0.08739577 -0.088225454 -0.10095652 0.045519598 -0.028887153 -0.019160785 0.03837403 -0.0327684
-0.014912128 -0.016800731 -0.012628898 0.031607278 0.05070164 -0.06287278 0.09985233 -0.08493744
-0.09251381 -0.006797068 0.073487975 -0.08388817 -0.072048396 0.005688615 -0.0105515495 -0.051732965
-0.06745611 -0.0887467 -0.11052057 -0.06579858 -0.025364928 -0.00014921278 -0.03957686 0.08534259
-0.08554143 -0.017189294 -0.07987408 -0.093553945 0.092082866 -0.08508344 -0.09624161 0.04445366
0.05157814 -0.040518545 -0.09844768 0.045839243 -0.091053516 -0.111513086 0.008651383 0.008887596
0.07727031 -0.09654358 0.048198886 0.09052079 0.037921764 0.040217616 0.03937716 0.09443461
0.060081586 -0.106541835 -0.0786965 0.015821153 -0.097496 -0.031291366 -0.028607396 -0.11246265
-0.104480594 0.10453013 -0.08634743 0.010181086 0.13158292 0.0144064985 -0.029691044 0.05339017
-0.054091893 -0.05699064 -0.027512403 0.079897285 -0.10492123 0.07977235 -0.04759145 0.11199751
-0.03435502 0.09074679 0.024042446 -0.042192757 -0.06815162 0.011825063 9.694828e-05 -0.044586793
-0.03181498 0.0052539804 -0.12154031 -0.012777669 -0.121037304 -0.021353401 -0.05968867 0.03792981
-0.10520268 0.01065137 -0.0036451996 -0.02843758 -0.0069529903 -0.029112617 0.05859626 0.10512912
0.03914607 -0.0030191876 0.0013711172 0.015613607 -0.06965619 0.015786003 0.16345127 0.10822487
0.070566475 0.019132052 0.012772881 -0.06542133 -0.0143808685 0.024628697 -0.07482729 0.051933628
-0.06221577 0.07846518 -0.008562678 -0.026901193 -0.101555735 0.1099792 0.07939373 -0.040343527
-0.017574955 0.105807185 0.051034972 0.08511041 0.069075294 -0.094354875 -0.0034926694 -0.034576442
0.0136928465 0.08123984 0.00864958 0.005925224 0.12917316 0.004891884 -0.052218102 -0.063156895
0.11793239 -0.04417738 -0.067533575 0.101114914 -0.07941768 0.032347333 0.09706669 -0.044697717
0.043788385 -0.096280254 -0.050135024 -0.06754879 0.09201432 0.09356949 -0.0433416 -0.021896591
0.11199218 -0.08182835 0.050897542 0.031021608 0.06796264 -0.020695072 -0.045333516 -0.08328384
00000000: f0ea 10bc ceff eabd cd3e e33d 5624 053d
00000010: c7b1 ef3d 40cf a5ba 15a9 eabd 8ce7 cebc
00000020: c465 a73c a083 9cbd 4cc7 c8bd 64a9 61bd
00000030: c8f9 35bc 4992 9c3d 092a e33d 5676 ddbd
00000040: c6f5 c0bd 2aa2 36bd 3a25 433d ce96 aabd
00000050: 7f91 953d c08d 34bc eaf9 86bd 2a03 8ebd
00000060: 6ed8 71bd ddc5 e33d 6046 b83b 5456 5fbd
00000070: 2c14 e63c 8dfd 9f3d 4b27 c43d 632d ae3d
00000080: b487 cdbd 0cca c63c 93f5 7bbd 4bab b3bd
00000090: 9a00 11bd 102a 87bd 2040 b4bb 2eb7 5d3d
000000a0: 6191 b9bd 1bb3 833d c536 c2bd d967 853d
000000b0: 6bf7 de3d 6bb1 e23d e4ee abbd 38ea 26bc
000000c0: 9892 103c 475a 8b3d 9a1b 85bd 4dc0 df3d
000000d0: 6008 ecbd cca0 b6bd 18c8 013c 2c88 edbc
000000e0: 64ac 28bd a1d8 8e3d 77a3 b13d 4ceb dabd
000000f0: ccea d5bc a830 323c d4c9 c73c 44a9 833c
00000100: 5e50 a8bd e6a1 013d 80d8 89ba 942a 89bd
00000110: b072 9a3b 0f2a 873d b4bb ab3c e1ac bbbd
00000120: 2e25 a6bd d9dc ba3d e447 a4bd 27d0 64bd
00000130: d84f a8bc e889 32bd 9686 3f3d 8162 9a3d
00000140: 9a20 a6bd 04fb 31bd 8973 94bd 2274 2b3d
00000150: 37df c1bd f4c9 9d3c 44c2 d8bc 4371 e03d
00000160: 8efc b2bd 8caf b4bd 4bc2 cebd c272 3a3d
00000170: c0a4 ecbc 14f7 9cbc 162e 1d3d 2838 06bd
00000180: 0052 74bc b0a1 89bc 70e9 4ebc a276 013d
00000190: 86ac 4f3d 72c3 80bd 617f cc3d aef3 adbd
000001a0: e177 bdbd f0b9 debb dd80 963d 90cd abbd
000001b0: 1c8e 93bd 9067 ba3b 68e0 2cbc f2e5 53bd
000001c0: 6e26 8abd d4c0 b5bd 9c58 e2bd 68c1 86bd
000001d0: 1cca cfbc 0076 1cb9 581b 22bd 19c8 ae3d
000001e0: 5830 afbd 90d0 8cbc 0695 a3bd 3699 bfbd
000001f0: f195 bc3d 3a40 aebd 521a c5bd 0a15 363d
00000200: 9a43 533d c6f6 25bd f09e c9bd eec1 3b3d
00000210: 447a babd f960 e4bd 88be 0d3c 489d 113c
00000220: e53f 9e3d a4b8 c5bd 326c 453d f762 b93d
00000230: da53 1b3d 3abb 243d f249 213d ef66 c13d
00000240: 1c18 763d 9b32 dabd a12b a1bd 5d9b 813c
00000250: fcab c7bd 602b 00bd 0f5a eabc d152 e6bd
00000260: ecf9 d5bd e513 d63d ecd6 b0bd 92ce 263c
00000270: acbd 063e 3c09 6c3c a23a f3bc a7af 5a3d
00000280: 768f 5dbd 046f 69bd b161 e1bc 30a1 a33d
00000290: f1e0 d6bd b05f a33d 41ef 42bd f35e e53d
000002a0: d9b7 0cbd 74d9 b93d aaf4 c43c 50d2 2cbd
000002b0: 1493 8bbd e9bd 413c b650 cb38 a4a0 36bd
000002c0: 6d50 02bd 9529 ac3b 20ea f8bd 6e59 51bc
000002d0: 68e2 f7bd 54ed aebc 1b7c 74bd 4a5c 1b3d
000002e0: 8174 d7bd 1583 2e3c 4de4 6ebb eef5 e8bc
000002f0: e9d5 e3bb 957d eebc a202 703d f04d d73d
00000300: a157 203d 90dd 45bb 0fb7 b33a 37d0 7f3c
00000310: e8a7 8ebd a651 813c c55f 273e 00a5 dd3d
00000320: 2885 903d d2ba 9c3c 5945 513c 9efb 85bd
00000330: bc9d 6bbc 1fc2 c93c 0d3f 99bd 5bb8 543d
00000340: f7d5 7ebd 5ab2 a03d 794a 0cbc e45f dcbc
00000350: 74fc cfbd c63c e13d 2e99 a23d 413f 25bd
00000360: 5af9 8fbc 70b1 d83d 0c0a 513d 5e4e ae3d
00000370: 5977 8d3d 213d c1bd 45e5 64bb 07a0 0dbd
00000380: f657 603c 1361 a63d f8b6 0d3c 6228 c23b
00000390: f845 043e 194c a03b a6e2 55bd 6758 81bd
000003a0: 8986 f13d 57f3 34bd 0b4f 8abd 5615 cf3d
000003b0: bda5 a2bd a37e 043d e7ca c63d f414 37bd
000003c0: 735b 333d 952e c5bd 625a 4dbd 0557 8abd
000003d0: 0172 bc3d 5ca1 bf3d f686 31bd 7b60 b3bc
000003e0: 285c e53d 9f95 a7bd f179 503d 0721 fe3c
000003f0: ff2f 8b3d b688 a9bc a3af 39bd b890 aabd

layer1.2.bias f4 [8]
-0.117409505 -0.028749138 0.12319871 -0.09807008 0.100057796 0.10768724 0.0036218215 -0.02281744
00000000: 6574 f0bd 5083 ebbc 9b4f fc3d f7d8 c8bd
00000010: 1aeb cc3d 218b dc3d 155c 6d3b a4eb babc

layer1.4.weight f4 [8]
1.0 1.0 0.97588015 1.0235254 1.0288801 0.9839217 0.99362665 0.98776543
00000000: 0000 803f 0000 803f 48d3 793f e102 833f
00000010: 58b2 833f 4be2 7b3f 515e 7e3f 32de 7c3f

layer1.4.bias f4 [8]
-0.0019941533 -0.020624328 0.009941615 -0.0010048022 -0.005316053 0.005151407 0.0026352874 0.010463976
00000000: 57b0 02bb 5af4 a8bc 28e2 223c 91b3 83ba
00000010: 4932 aebb 22cd a83b c9b4 2c3b 1971 2b3c

layer1.4.running_mean f4 [8]
0.0 0.0 0.118446276 0.0020350942 0.115929484 0.17420162 0.0032376656 0.03679382
00000000: 0000 0000 0000 0000 f693 f23d 375f 053b
00000010: 706c ed3d e961 323e 042f 543b 1eb5 163d

layer1.4.running_var f4 [8]
2.6102788e-13 2.6102788e-13 0.0010294693 0.00025946804 0.0018466623 0.002814676 0.0001488964 0.00091877126
00000000: 15f2 922a 15f2 922a 42ef 863a 3609 8839
00000010: b40b f23a 6d76 383b 1321 1c39 b2d9 703a

layer2.0.weight f4 [14, 8, 1, 1]
-0.10425572 0.23033254 0.015513477 -0.012934823 -0.1666611 -0.28885493 -0.14007324 -0.31002563
0.28414166 -0.14152823 0.040212285 -0.32616276 -0.15384907 -0.20417988 0.3374718 0.027003473
-0.18655454 -0.32117596 -0.29787087 0.22564083 0.16484077 0.11971735 -0.067420416 0.12860906
-0.08397262 0.031926423 -0.09218291 0.31094489 -0.23103258 -0.21477813 0.066137 -0.022633148
0.040465247 -0.14409107 -0.32534757 0.1213574 -0.09367098 -0.31785125 -0.039901186 -0.041514326
0.23248869 -0.105616994 -0.16021153 -0.14128284 -0.3115588 -0.03286319 -0.09024868 0.046143435
0.072047845 0.22310652 0.050277513 -0.15303871 0.23418617 0.3400087 -0.087239556 0.09612053
-0.07381365 -0.2566873 -0.31839478 -0.2807587 0.25218263 0.046281505 -0.14390929 -0.028751444
0.13940458 0.35584348 -0.094966166 -0.15546958 -0.20141362 0.23320661 -0.13097163 -0.1608184
-0.3015406 -0.1846138 0.34475338 -0.13305578 0.015233984 -0.20694907 0.106008194 0.18304437
-0.34460452 -0.041275654 -0.16804211 0.2520987 0.065221004 -0.013042998 -0.11525002 -0.28400862
-0.20485452 -0.07434303 -0.057639584 0.0057994165 -0.243391 -0.21419832 0.26150912 -0.16827257
0.24009424 -0.117651835 -0.2779062 0.38113847 0.066141665 -0.18318036 0.16862436 0.29899967
-0.08378588 -0.109484226 -0.33242375 0.21232913 0.23508921 0.3058239 -0.3210975 0.30908445
00000000: 0684 d5bd 4bdc 6b3e 3d2c 7e3c 94ec 53bc
00000010: 35a9 2abe cbe4 93be 5c6f 0fbe aebb 9ebe
00000020: 047b 913e c7ec 10be a3b5 243d cefe a6be
00000030: 9c8a 1dbe 8814 51be 1bc9 ac3e 6336 dd3c
00000040: 2708 3fbe 2d71 a4be 8882 98be 640e 673e
00000050: 05cc 283e 5f2e f53d b713 8abd 18b2 033e
00000060: d6f9 abbd 48c5 023d 65ca bcbd 2b34 9f3e
00000070: ce93 6cbe ccee 5bbe d672 873d 2769 b9bc
00000080: e3be 253d 9c8c 13be f593 a6be 3b8a f83d
00000090: 92d6 bfbd 66bd a2be 6d6f 23bd ed0a 2abd
000000a0: 8411 6e3e b94d d8bd 7e0e 24be 73ac 10be
000000b0: a384 9fbe 8d9b 06bd 4dd4 b8bd e600 3d3d
000000c0: d28d 933d 0976 643e cbef 4d3d 2eb6 1cbe
000000d0: 80ce 6f3e 9f15 ae3e a7aa b2bd d7da c43d
000000e0: 9c2b 97bd 856c 83be a404 a3be 9bbf 8fbe
000000f0: 151e 813e ad91 3d3d f55c 13be 2688 ebbc
00000100: 13c0 0e3e 1e31 b63e 9f7d c2bd 6b33 1fbe
00000110: 5f3f 4ebe b7cd 6e3e 6d1d 06be 94ad 24be
00000120: 8863 9abe 660b 3dbe 8483 b03e c63f 08be
00000130: f697 793c 75ea 53be d31a d93d fc6f 3b3e
00000140: 0170 b0be a910 29bd 3b13 2cbe 1513 813e
00000150: 9792 853d 4cb2 55bc 3408 ecbd 9469 91be
00000160: 62c5 51be 2941 98bd 7c17 6cbd 0809 be3b
00000170: 7e3b 79be ce56 5bbe 86e4 853e a54f 2cbe
00000180: 44db 753e 72f3 f0bd b949 8ebe 9524 c33e
00000190: 4875 873d a293 3bbe ddab 2c3e 7c16 993e
000001a0: ee97 abbd 4439 e0bd 7233 aabe cf6c 593e
000001b0: 3abb 703e f394 9c3e e466 a4be 5140 9e3e

layer2.0.bias f4 [14]
0.21240874 0.07837769 0.27328435 -0.3380146 -0.32281855 0.09655453 0.018863417 0.08449162
-0.1910166 0.08058604 0.088214666 0.06956168 -0.35247964 -0.2456638
00000000: ad81 593e 7b84 a03d edeb 8b3e 4010 adbe
00000010: 7948 a5be 62be c53d 7487 9a3c f109 ad3d
00000020: db99 43be 4b0a a53d e4a9 b43d 5b76 8e3d
00000030: 3678 b4be 4b8f 7bbe

layer2.2.weight f4 [14, 14, 3, 3]
-0.041784093 -0.05484127 -0.0060834046 0.0424642 -0.046783496 0.06326096 0.06787689 0.008839138
0.03767766 -0.06284163 -0.09275376 -0.08529337 -0.116368495 -0.0322943 -0.085446365 -0.06951681
0.0063598356 -0.04880089 -0.020705987 0.0051296186 -0.08956309 -0.10781407 -0.039333228 -0.016323455
-0.04220461 -0.053794753 -0.021681385 0.039576486 -0.070382774 -0.096061155 0.05143765 -0.05184379
-0.08769483 0.0026835564 -0.08105767 0.08499918 0.034836233 0.042296335 -0.057271525 0.015021915
-0.028735328 0.026578806 -0.035539538 0.053805124 -0.03068984 -0.049439438 -0.054997407 0.008142557
-0.0028406992 -0.070743375 0.020024091 -0.10058218 0.049617246 -0.09811902 0.06247579 -0.0662433
-0.0108163385 -0.072453514 0.04996747 0.09531327 0.040256117 0.0030626263 -0.077437885 0.034369208
0.048375856 0.017691258 -0.0049382057 0.02149828 -0.004644558 -0.068515405 0.029323952 -0.08774861
0.03247148 0.0031414363 -0.0470883 -0.036073234 -0.03370392 0.09452493 0.04525722 -0.06049327
-0.010585499 -0.09011128 -0.05788979 -0.00049222057 -0.057734493 -0.06647521 0.051499467 -0.081577316
0.07052242 0.052821953 -0.010354441 0.104754314 0.01899907 -0.050027143 0.0028347075 0.03226804
-0.058801178 -0.07676136 -0.03041395 -0.008456016 -0.027362408 -0.08211553 -0.06798175 0.0141370585
0.011253083 -0.037015144 -0.09220306 0.0046950732 -0.016336387 0.079934895 -0.090919815 -0.08563896
-0.0056969677 0.065938 -0.038941484 0.0031651112 0.07322564 0.044540253 0.068311274 0.07766527
-0.06838618 -0.0987001 -0.03521666 0.07089959 0.023321861 0.058918267 0.017121114 -0.05304447
0.07527308 -0.03580799 -0.034021735 -0.080718085 -0.037473977 -0.032199405 0.051499646 -0.029045405
0.037959136 0.025578236 0.016146285 -0.023953179 -0.072974615 0.0553526 -0.065029465 0.014572929
0.07168274 -0.0705224 -0.05140375 -0.04069278 0.024896802 0.0068333014 0.047279287 -0.059888963
-0.054104503 0.057203803 0.02422397 0.08522352 -0.07262798 -0.06804149 0.005097791 0.061578095
-0.009312856 0.051480938 0.032109708 -0.06070716 -0.044396132 0.049903132 0.05718084 0.0220638
-0.008429021 0.087481216 0.02294819 -0.05705592 -0.076931775 0.07244531 0.023587625 -0.06644087
0.03639949 0.003704892 0.088324815 0.015796866 -0.022109186 0.009951805 -0.048129037 0.0053981976
-0.0069489013 -0.05391764 0.101443715 0.09910991 0.09238774 0.015805615 -0.040016595 0.023061415
0.058400966 -0.090581425 -0.067728 -0.07053983 -0.027618058 -0.013789664 -0.068910636 -9.2148635e-05
0.083500825 0.00030997695 -0.06668902 -0.07497021 0.053151578 0.037092783 0.09261536 -0.05738918
-0.02403947 0.08765052 -0.06525377 0.077593714 -0.042137157 -0.066184446 -0.090645805 -0.046296503
0.010733846 -0.017431268 -0.018082703 -0.03889381 -0.050575852 -0.08667859 0.020790754 0.07741384
-0.08131151 0.02187609 0.087940775 0.068017766 0.046537086 -0.072661124 0.041505538 0.074866325
0.024874663 -0.0008089998 -0.027653998 -0.05765538 0.08079835 0.09146495 0.017049277 0.06800463
-0.07675358 0.03814633 -0.018134868 0.035902217 -0.12085377 -0.034634393 -0.005218401 0.04996194
0.054731965 -0.02466083 -0.08908514 0.024647623 -0.0514168 0.100575544 0.024365902 0.05294472
00000000: cc25 2bbd 3da1 60bd 4c57 c7bb f1ee 2d3d
00000010: 0da0 3fbd f68e 813d 0a03 8b3d 08d2 103c
00000020: e453 1a3d 1db3 80bd aff5 bdbd 4aae aebd
00000030: 9b52 eebd 0747 04bd 81fe aebd d45e 8ebd
00000040: 2b66 d03b 71e3 47bd 9a9f a9bc 5c16 a83b
00000050: da6c b7bd a0cd dcbd e11b 21bd c4b8 85bc
00000060: bede 2cbd e357 5cbd 299d b1bc f41a 223d
00000070: d824 90bd b6bb c4bd 49b0 523d 275a 54bd
00000080: 5999 b3bd 9bde 2f3b 9001 a6bd 0d14 ae3d
00000090: 70b0 0e3d ec3e 2d3d 8c95 6abd 7a1e 763c
000000a0: 5a66 ebbc ccbb d93c e891 11bd c362 5c3d
000000b0: 4269 fbbc 0281 4abd f644 61bd 5c68 053c
000000c0: 062b 3abb e7e1 90bd 9009 a43c 08fe cdbd
000000d0: 743b 4b3d a0f2 c8bd 9de6 7f3d 91aa 87bd
000000e0: 0337 31bc 8262 94bd b1aa 4c3d 9b33 c33d
000000f0: 99e3 243d 58b6 483b c197 9ebd bac6 0c3d
00000100: c325 463d 42ed 903c acd0 a1bb 291d b03c
00000110: 6031 98bb ce51 8cbd c938 f03c 8bb5 b3bd
00000120: d100 053d 8ee0 4d3b a9df 40bd 87c1 13bd
00000130: 1f0d 0abd 4996 c13d a25f 393d cbc7 77bd
00000140: cd6e 2dbc 438c b8bd d81d 6dbd 5d08 01ba
00000150: 017b 6cbd 2824 88bd 1bf1 523d 0212 a7bd
00000160: 0f6e 903d d55b 583d aca5 29bc 6e89 d63d
00000170: f0a3 9b3c 43e9 4cbd 80c6 393b 7e2b 043d
00000180: 81d9 70bd 0f35 9dbd ad26 f9bc 1a8b 0abc
00000190: 2127 e0bc 302c a8bd 043a 8bbd 1f9f 673c
000001a0: da5e 383c 319d 17bd f5d4 bcbd 21d9 993b
000001b0: e3d3 85bc e8b4 a33d 2b34 babd 7b63 afbd
000001c0: a1ad babb 810a 873d 1b81 1fbd c16d 4f3b
000001d0: 53f7 953d d76f 363d c8e6 8b3d f80e 9f3d
000001e0: 0e0e 8cbd 4723 cabd 583f 10bd ce33 913d
000001f0: 7d0d bf3c 4854 713d 9441 8c3c 2845 59bd
00000200: c628 9a3d 66ab 12bd 605a 0bbd 864f a5bd
00000210: 507e 19bd 86e3 03bd 4bf1 523d a1f0 edbc
00000220: 0a7b 1b3d 7389 d13c 3745 843c 7539 c4bc
00000230: b773 95bd 68b9 623d 2b2e 85bd 4bc3 6e3c
00000240: 66ce 923d 0c6e 90bd bd8c 52bd 79ad 26bd
00000250: 61f4 cb3c e3e9 df3b eda7 413d 214e 75bd
00000260: af9c 5dbd 894e 6a3d 5971 c63c ab89 ae3d
00000270: fabd 94bd 5659 8bbd 5f0b a73b 5039 7c3d
00000280: f394 18bc addd 523d 7885 033d 12a8 78bd
00000290: b8d8 35bd 3a67 4c3d 7536 6a3d 24bf b43c
000002a0: e019 0abc 5a29 b33d d8fd bb3c 78b3 69bd
000002b0: 688e 9dbd 355e 943d d63a c13c 2712 88bd
000002c0: a217 153d c6cd 723b a4e3 b43d 6e68 813c
000002d0: 531e b5bc e50c 233c f422 45bd 5de3 b03b
000002e0: 9cb3 e3bb bed8 5cbd b9c1 cf3d 23fa ca3d
000002f0: c935 bd3d c77a 813c 71e8 23bd 4beb bc3c
00000300: da35 6f3d c182 b9bd fab4 8abd 3077 90bd
00000310: 443f e2bc 0bee 61bc 0521 8dbd ec3f c1b8
00000320: 7b02 ab3d 6784 a239 4194 88bd fb89 99bd
00000330: 78b5 593d 9aee 173d 1fad bd3d eb10 6bbd
00000340: 6cee c4bc 1e82 b33d c5a3 85bd 74e9 9e3d
00000350: 0398 2cbd b68b 87bd 82a4 b9bd 67a1 3dbd
00000360: 03dd 2f3c 05cc 8ebc 2d22 94bc 1e4f 1fbd
00000370: a028 4fbd 8b84 b1bd 5f51 aa3c 268b 9e3d
00000380: a686 a6bd 7c35 b33c 4b1a b43d e64c 8b3d
00000390: ac9d 3e3d 5bcf 94bd b601 2a3d 8453 993d
000003a0: f3c5 cb3c 0f13 54ba a38a e2bc 0c28 6cbd
000003b0: 9b79 a53d fa51 bb3d edaa 8b3c 0346 8b3d
000003c0: fb30 9dbd 533f 1c3d 938f 94bc 340e 133d
000003d0: 2e82 f7bd cbdc 0dbd 1fff aabb e4a4 4c3d
000003e0: a02e 603d 8205 cabc 4572 b6bd d0e9 c93c
000003f0: 6c9a 52bd 8dfa cd3d 009b c73c 90dc 583d

layer2.2.bias f4 [14]
0.028251475 -0.052471615 -0.04191743 0.058908947 -0.059021533 0.048970852 0.0016659831 0.072411016
0.05328337 0.06005554 -0.05837857 -0.0013657192 0.051269017 0.0074274596
00000000: a36f e73c 7aec 56bd 9cb1 2bbd 824a 713d
00000010: 90c0 71bd a995 483d 1e5d da3a 3a4c 943d
00000020: aa3f 5a3d ccfc 753d 5e1e 6fbd ef01 b3ba
00000030: 76ff 513d 0c62 f33b

layer2.4.weight f4 [14]
1.0032684 1.0102855 0.9804736 1.0160635 0.9921359 0.98275524 1.0391238 0.93507284
0.95658547 0.99661475 0.9991165 1.0282588 0.9679967 1.0364287
00000000: 196b 803f 0951 813f 5100 7b3f 5e0e 823f
00000010: 9efc 7d3f d995 7b3f 0202 853f ef60 6f3f
00000020: c9e2 743f 2522 7f3f 19c6 7f3f fc9d 833f
00000030: a2ce 773f b2a9 843f

layer2.4.bias f4 [14]
-0.0180304 -0.012631906 -0.009586349 -0.015957529 0.013051036 -0.0135740945 -0.03225686 -0.0055042934
-0.020131687 -0.011160737 -0.011354484 -0.021260893 0.0061870036 0.020886453
00000000: 7db4 93bc 0ef6 4ebc 1010 1dbc 5db9 82bc
00000010: 03d4 553c e165 5ebc c51f 04bd 5c5d b4bb
00000020: 35eb a4bc 86db 36bc 2808 3abc 532b aebc
00000030: 59bc ca3b 111a ab3c

layer2.4.running_mean f4 [14]
0.00522744 0.026593903 0.15049453 0.007520203 0.02136358 0.00946053 0.021757346 0.6203025
0.27427176 0.15001063 0.11947514 0.24543282 0.28611425 0.20217773
00000000: f24a ab3b 75db d93c 3d1b 1a3e 096c f63b
00000010: ad02 af3c 5700 1b3c 763c b23c 25cc 1e3f
00000020: 596d 8c3e 639c 193e 62af f43d be52 7b3e
00000030: 917d 923e ae07 4f3e

layer2.4.running_var f4 [14]
0.0029281895 0.019558154 0.04313456 0.0075447373 0.018807584 0.0051036472 0.0063983803 0.34319884
0.11686353 0.06725629 0.050325915 0.0733245 0.09400928 0.056968458
00000000: dee6 3f3b 6c38 a03c ddad 303d d839 f73b
00000010: 5d12 9a3c 7f3c a73b 81a9 d13b c2b7 af3e
00000020: 2556 ef3d aabd 893d 8c22 4e3d 282b 963d
00000030: f087 c03d c257 693d

layer3.0.weight f4 [44, 14, 1, 1]
-0.13178673 -0.25574705 0.1060315 -0.15807675 0.051535614 0.18701658 -0.13280655 -0.20849557
0.07238216 0.13196595 0.15081336 0.023860263 0.15107581 -0.11415257 -0.12539816 -0.11864532
-0.06582883 -0.20735201 0.05866909 0.066360034 0.07929768 0.015880574 0.20133859 0.11837957
0.008604475 0.13878405 -0.1544747 -0.21131422 -0.15512778 0.099693246 0.06580307 -0.0670919
-0.009128463 0.15651242 -0.12475612 0.17576267 0.1303461 -0.06506364 -0.2735451 0.2306735
-0.1236619 -0.19520995 0.05395029 -0.008873283 -0.121641114 -0.060503725 0.18890059 -0.0017977321
0.04066683 -0.097242184 -0.12214191 0.03078895 0.016577946 0.17452925 -0.003829147 -0.09052652
-0.13893339 0.15945165 0.25336212 0.054289386 0.07789537 -0.118340164 0.1279704 0.2355061
-0.07724393 0.12223865 0.013077116 -0.14536229 0.13988881 -0.18943444 -0.027168343 -0.09076496
-0.028769033 -0.21450377 0.022799209 0.19764318 0.15808609 0.057996426 0.11320366 -0.2011173
-0.041860558 0.22458681 0.16792724 0.14693227 0.07832816 -0.01257187 0.10063349 -0.11264028
-0.16791001 0.25332192 -0.06800384 0.2019374 0.089737855 -0.1500412 -0.22619168 0.012205933
0.16546898 0.018712474 -0.2773551 -0.2122596 -0.19068962 -0.2565848 -0.121417664 0.18723574
-0.24956204 -0.017215203 0.05964588 0.066937625 -0.102858685 -0.056967497 0.050654504 -0.10649824
-0.10606274 0.15897836 0.21682611 -0.041525427 0.06708255 -0.15024057 -0.12275066 0.22892271
0.19614646 0.25550503 -0.060897034 0.16413303 -0.24146518 0.24140127 -0.15976256 0.21666902
-0.28624988 -0.24386987 -0.14102307 0.058096953 0.090804294 -0.21392865 -0.11502795 -0.23794447
-0.1468878 -0.29060957 -0.18360022 0.13463235 0.11868728 -0.23884723 0.18290153 0.26423708
-0.07935111 0.17890051 -0.12882157 0.11719379 -0.25987446 -0.20347284 -0.04245373 -0.19431408
-0.05151911 0.25549743 -0.11931283 -0.18824753 0.11435714 0.018674294 0.05713329 0.2180981
0.058355667 0.24657944 -0.027357213 -0.15654105 0.19956385 -0.017844673 0.2440582 -0.0806993
0.2734918 0.017029682 0.034521647 0.20913774 -0.011527069 0.06689298 -0.21273395 0.19515063
0.14294438 -0.032528903 0.09254637 -0.19191684 0.059761103 -0.204712 0.26268867 -0.024008937
-0.24054047 0.20309518 0.03327528 -0.18245682 0.102861 -0.051190875 -0.13011919 0.17924055
-0.14124228 0.16675724 0.26418293 0.03267143 -0.22026613 0.22621141 0.016367162 -0.15410526
0.054920137 -0.13831796 -0.20116794 -0.074422285 -0.08392048 0.043257546 -0.22608119 0.13977484
-0.03948264 0.2853965 0.08644271 -0.012193957 0.0006934248 0.2461409 -0.12270076 -0.15042521
-0.25828195 -0.19290268 -0.072429724 0.0065577677 0.18193865 0.06923331 -0.13679776 -0.0329281
-0.17752875 0.1376214 0.16196208 0.26926005 -0.08119502 -0.21214469 -0.2180123 -0.17275624
0.19932489 0.18031816 0.22292334 0.081582576 0.187076 -0.12151641 0.24935664 0.023175022
0.17756648 0.1874239 0.07247831 0.12087214 0.06839382 -0.05798346 -0.08793942 0.09180276
0.14965147 0.0044642864 0.11271875 0.011166566 -0.19268982 -0.1265742 -0.07544697 0.23432565
00000000: 1af3 06be 47f1 82be 0b27 d93d dfde 21be
00000010: 0217 533d 4681 3f3e 71fe 07be dd7f 55be
00000020: 193d 943d 1522 073e d16e 1a3e 9976 c33c
00000030: 9eb3 1a3e d3c8 e9bd 6068 00be 51fc f2bd
00000040: 44d1 86bd 1654 54be 004f 703d c5e7 873d
00000050: d266 a23d fa17 823c b42b 4e3e fd70 f23d
00000060: c9f9 0c3c 681d 0e3e 9e2e 1ebe c162 58be
00000070: d1d9 1ebe f92b cc3d c3c3 863d 7a67 89bd
00000080: 8d8f 15bc cb44 203e 2380 ffbd 21fb 333e
00000090: 7379 053e 1640 85bd 1a0e 8cbe ad35 6c3e
000000a0: 7342 fdbd 1ee5 47be fbfa 5c3d 3f61 11bc
000000b0: fa1e f9bd c1d2 77bd 286f 413e e1a1 ebba
000000c0: 4392 263d e926 c7bd 8a25 fabd 1c39 fc3c
000000d0: 79ce 873c ccb7 323e 6df2 7abb f865 b9bd
000000e0: 8e44 0ebe 4b47 233e aeb8 813e 8c5e 5e3d
000000f0: 9c87 9f3d 545c f2bd ac0a 033e 8328 713e
00000100: 1132 9ebd 4258 fa3d 6641 563c dad9 14be
00000110: 033f 0f3e 1afb 41be 2590 debc fbe2 b9bd
00000120: 09ad ebbc e0a6 5bbe 68c5 ba3c f962 4a3e
00000130: 52e1 213e a98d 6d3d 52d7 e73d b2f1 4dbe
00000140: fa75 2bbd 16fa 653e 1ef5 2b3e 6a75 163e
00000150: 846a a03d 3ffa 4dbc ee18 ce3d f2af e6bd
00000160: 9af0 2bbe 69b3 813e 9945 8bbd aec8 4e3e
00000170: 7bc8 b73d 66a4 19be cb9e 67be 65fb 473c
00000180: b370 293e e74a 993c 7d01 8ebe 955a 59be
00000190: 2444 43be 155f 83be d3a9 f8bd baba 3f3e
000001a0: 318d 7fbe e606 8dbc 3d4f 743d 9816 893d
000001b0: 93a7 d2bd c056 69bd 197b 4f3d c01b dabd
000001c0: 6c37 d9bd 39cb 223e aa07 5e3e 9116 2abd
000001d0: 9362 893d aad8 19be b364 fbbd b76a 6a3e
000001e0: 9eda 483e 8ed1 823e 2b6f 79bd 7d12 283e
000001f0: a642 77be e531 773e cc98 23be 7cde 5d3e
00000200: 588f 92be 06b9 79be 5a68 10be 12f7 6d3d
00000210: 9af7 b93d 1d10 5bbe c693 ebbd b7a7 73be
00000220: c169 16be c7ca 94be b201 3cbe 10dd 093e
00000230: 5112 f33d 5e94 74be 8a4a 3b3e 154a 873e
00000240: d682 a2bd b231 373e cde9 03be 4c03 f03d
00000250: 440e 85be 2f5b 50be f6e3 2dbd 45fa 46be
00000260: b405 53bd 8fd0 823e 495a f4bd f6c3 40be
00000270: 1434 ea3d d5fa 983c 9904 6a3d 1c55 5f3e
00000280: 5a06 6f3d 527f 7c3e 3c1c e0bc 4c4c 20be
00000290: 775a 4c3e fe2e 92bc 65ea 793e ad45 a5bd
000002a0: 1e07 8c3e d581 8b3c 9266 0d3d 3428 563e
000002b0: 08dc 3cbc 30ff 883d eed6 59be 91d5 473e
000002c0: 0360 123e 073d 05bd f488 bd3d d985 44be
000002d0: 0fc8 743d 06a0 51be 217f 863e 64ae c4bc
000002e0: 3e50 76be 2ff8 4f3e a94b 083d f6d5 3abe
000002f0: caa8 d23d 86ad 51bd f73d 05be d68a 373e
00000300: d1a1 10be 69c2 2a3e fc42 873e 7ad2 053d
00000310: 728d 61be f7a3 673e 6d14 863c c5cd 1dbe
00000320: f0f3 603d 39a3 0dbe f8fe 4dbe b66a 98bd
00000330: 80de abbd d32e 313d d481 67be 2321 0f3e
00000340: 8cb8 21bd 7d1f 923e e008 b13d 2ac9 47bc
00000350: f3c6 353a 5c0c 7c3e 894a fbbd 1109 1abe
00000360: 883d 84be 4888 45be 0956 94bd 8be2 d63b
00000370: 204e 3a3e 32ca 8d3d b614 0cbe 9edf 06bd
00000380: 19ca 35be a0ec 0c3e 63d9 253e 74dc 893e
00000390: 9349 a6bd 753c 59be 9e3e 5fbe 03e7 30be
000003a0: d31b 4c3e 53a5 383e 0446 643e c414 a73d
000003b0: da90 3f3e 98dd f8bd 5957 7f3e 8bd9 bd3c
000003c0: fdd3 353e 0dec 3f3e 826f 943d d08b f73d
000003d0: 0f12 8c3d 1180 6dbd 9519 b4bd 1603 bc3d
000003e0: 3c3e 193e 2649 923b 17d9 e63d f9f3 363c
000003f0: 7b50 45be ab9c 01be f183 9abd 10f3 6f3e

layer3.0.bias f4 [44]
0.1168963 0.20091002 -0.20797914 0.08000902 -0.17375162 -0.18281196 0.10467856 -0.2243489
0.22354586 0.181556 0.26771003 0.096885264 -0.13692991 0.02638467 0.1932017 0.015605354
-0.15811495 -0.13690837 -0.015260128 -0.23328018 -0.010724253 0.09647373 0.057387196 -0.16884999
0.07491229 0.24489546 -0.18073125 0.23767683 0.014496058 0.12558803 0.20579891 0.19516696
-0.21605808 -0.2751274 -0.013926507 -0.20415002 0.19514357 -0.027584089 0.025492879 0.15378603
-0.0025074494 -0.0485734 0.22054015 -0.257488
00000000: 5467 ef3d 5bbb 4d3e 7cf8 54be c5db a33d
00000010: f2eb 31be 0f33 3bbe b661 d63d b8bb 65be
00000020: 35e9 643e d1e9 393e 4a11 893e c86b c63d
00000030: 5b37 0cbe aa24 d83c abd6 453e 99ad 7f3c
00000040: e3e8 21be b531 0cbe 9e05 7abc 00e1 6ebe
00000050: c7b4 2fbc 0594 c53d d60e 6b3d 03e7 2cbe
00000060: 9d6b 993d e0c5 7a3e 9d11 39be 8e61 733e
00000070: e080 6d3c 269a 003e f3bc 523e d9d9 473e
00000080: 543e 5dbe 80dd 8cbe 012c 64bc b40c 51be
00000090: b7d3 473e 07f8 e1bc 71d6 d03c 167a 1d3e
000000a0: 0554 24bb e7f4 46bd 47d5 613e 78d5 83be

layer3.2.weight f4 [44, 44, 3, 3]
0.015890937 -0.006591655 -0.030481495 0.029787483 -0.011753611 -0.007139934 0.05483373 0.004871177
0.036954194 0.05930192 0.016832853 0.00031357302 0.029608037 -0.023027187 -0.013679453 0.05722701
0.035944514 -0.039082997 0.03235837 -0.040498964 -0.025742328 -0.017575132 0.055256907 0.04831713
0.010644948 -0.018147368 0.047919016 -0.05233094 -0.03513244 -0.0154158175 0.03649102 -0.02069021
0.0115552815 0.027676752 0.0011411022 0.023890086 -0.03708147 0.020827577 -0.06863432 -0.01535171
-0.040862467 0.0029731458 0.07622722 0.013841876 -0.050228093 0.0075804847 0.0075535025 -0.02760322
-0.020284725 -0.010776988 0.019492868 0.057040162 -0.029799439 -0.036655214 0.033216212 0.048968
0.038335867 -0.007869537 0.02280246 -0.02279418 0.030788388 -0.037327353 -0.014579086 0.035110753
0.06392408 0.047322094 0.011842322 0.002372087 0.067160204 -0.017319499 -0.04318042 -0.053853415
0.012746103 0.014715736 -0.014353237 0.006081561 0.012643884 0.027409263 0.02406213 0.059440684
-0.034341477 -0.010984818 -0.0111644985 0.0020347084 -0.024265083 0.0015603873 -0.025130777 -0.009389664
-0.062148653 -0.049203794 0.020791868 -0.00879843 0.020283125 0.02168398 0.016803462 0.014497563
0.05580031 0.01603956 0.009373526 0.04901167 -0.017176054 -0.020820228 0.036316145 0.01746173
0.030659497 0.0019528072 -0.00912447 0.031668015 0.053260047 0.03171663 0.0060774726 0.06265183
0.012769367 0.047334757 0.04782923 0.05829526 -0.046265557 0.017658383 -0.039146975 -0.009432093
-0.029311426 -0.010384436 0.01104201 0.072602496 0.05177834 0.014958358 0.024720427 0.042493872
-0.017425291 0.025047606 0.034000304 0.014737362 -0.04882556 -0.039587405 0.03664496 -0.005329869
-0.015077296 0.05448294 0.018165808 -0.031798705 -0.04179544 -0.008410114 -0.007332792 -0.057394274
0.015064189 -0.007116875 -0.027091285 0.019833708 0.0085256705 -0.035177864 -0.03029581 0.033051085
-0.043169178 -0.006273373 -0.038997497 -0.06688858 0.009040143 -0.008788761 0.016828416 0.061680984
0.05912326 -0.005728023 0.022804007 0.052786525 0.032949172 0.025193837 0.032101914 -0.006477525
0.021544429 0.0040258705 0.010365311 0.009194839 -0.05552738 -0.085526906 -0.045351617 -0.03065596
0.05435485 0.01777848 0.0020099015 0.022738922 -0.008406818 -0.020352863 -0.044054806 -0.02528121
-0.02966703 -0.00139403 -0.028831827 -0.02090062 0.035645735 -0.074529625 0.04374319 -0.06552737
0.029714392 -0.034102734 -0.024611557 0.037975866 -0.037207067 -0.008744991 -0.021139985 0.0060753217
0.045477167 0.05361722 -0.044898503 -0.050673407 -0.0024437997 0.0765054 -0.035507075 0.018935615
-0.03194496 0.042961963 0.009701889 0.03998886 0.012835234 0.03814575 0.05844347 0.035935186
0.02905477 -0.025375497 -0.0089920955 0.03766366 0.0564507 0.036931638 0.030279977 -0.005836265
0.037479952 -0.0059876423 0.0350176 0.024704982 -0.0036371404 0.049373984 -0.015243097 0.057568245
0.06402461 0.01009443 0.027070066 0.043588944 0.02552654 -0.01618761 -0.01728001 0.03048974
0.06023817 0.011156717 0.051787563 0.029538224 0.025261872 -0.027619604 0.05070737 0.05081512
0.05913041 0.0010043595 -0.0057611517 0.03393914 -0.024614144 0.0053908993 -0.009846944 0.018655416
00000000: b62d 823c cffe d7bb 54b4 f9bc e104 f43c
00000010: 3892 40bc 1cf6 e9bb 5599 603d 659e 9f3b
00000020: 485d 173d 92e6 723d 0de5 893c 0f67 a439
00000030: 8e8c f23c 83a3 bcbc c91f 60bc df66 6a3d
00000040: 8e3a 133d 7e15 20bd 368a 043d 3ee2 25bd
00000050: 93e1 d2bc b9f9 8fbc 1155 623d 2fe8 453d
00000060: 2668 2e3c caa9 94bc bb46 443d f858 56bd
00000070: 09e7 0fbd a092 7cbc 9c77 153d 847e a9bc
00000080: 5d52 3d3c 5bba e23c 0991 953a 24b5 c33c
00000090: bde2 17bd 989e aa3c 2690 8cbd bd85 7bbc
000000a0: 675f 27bd 1cd9 423b 041d 9c3d 09c9 623c
000000b0: f9bb 4dbd b765 f83b 5f83 f73b 2620 e2bc
000000c0: 272c a6bc f791 30bc 82af 9f3c f2a2 693d
000000d0: f41d f4bc c723 16bd b90d 083d ab92 483d
000000e0: 1206 1d3d 3bef 00bc 39cc ba3c dcba babc
000000f0: ee37 fc3c 91e4 18bd 1edd 6ebc 4bd0 0f3d
00000100: a1ea 823d d0d4 413d 4c06 423c 0475 1b3b
00000110: 4a8b 893d 9fe1 8dbc f4dd 30bd 6695 5cbd
00000120: 08d5 503c 451a 713c d729 6bbc d547 c73b
00000130: 4b28 4f3c 6489 e03c f21d c53c 1378 733d
00000140: a6a9 0cbd abf9 33bc 4deb 36bc be58 053b
00000150: 91c7 c6bc e985 cc3a 0fdf cdbc 1bd7 19bc
00000160: 968f 7ebd eb89 49bd b553 aa3c 4a27 10bc
00000170: cc28 a63c 9aa2 b13c 6aa7 893c 3087 6d3c
00000180: de8e 643d 6565 833c 6b93 193c 76c0 483d
00000190: ccb4 8cbc 2f8f aabc 3dc0 143d e70b 8f3c
000001a0: a029 fb3c 56f5 ff3a cd7e 15bc 52b6 013d
000001b0: 3527 5a3d 4ce9 013d 8925 c73b 9a4f 803d
000001c0: 9b36 513c 17e2 413d 95e8 433d 03c7 6e3d
000001d0: f480 3dbd 50a8 903c 9458 20bd 1189 1abc
000001e0: 841e f0bc 7b23 2abc 8ce9 343c 9eb0 943d
000001f0: 8615 543d e713 753c 7e82 ca3c 0e0e 2e3d
00000200: 7cbf 8ebc a330 cd3c e743 0b3d fa74 713c
00000210: 4ffd 47bd 6726 22bd 0719 163d 2fa6 aebb
00000220: c306 77bc 8129 5f3d 76d0 943c 5c3f 02bd
00000230: b231 2bbd 93ca 09bc eb47 f0bb 4216 6bbd
00000240: cacf 763c ad34 e9bb 8bee ddbc 4d7a a23c
00000250: 41af 0b3c aa16 10bd eb2e f8bc 9360 073d
00000260: 2ad2 30bd de90 cdbb d7bb 1fbd e1fc 88bd
00000270: 1c1d 143c bcfe 0fbc bfdb 893c 33a5 7c3d
00000280: 3b2b 723d 24b2 bbbb 78cf ba3c af36 583d
00000290: b6f5 063d 4e63 ce3c 4c7d 033d 6b41 d4bb
000002a0: f17d b03c 73eb 833b 44d3 293c f3a5 163c
000002b0: ae70 63bd bb28 afbd 9ec2 39bd 3522 fbbc
000002c0: 31a3 5e3d 2da4 913c 8db8 033b fa46 ba3c
000002d0: c0bc 09bc 0cbb a6bc d072 34bd 8a1a cfbc
000002e0: 4508 f3bc e3b7 b6ba b930 ecbc c737 abbc
000002f0: 4301 123d fda2 98bd 0f2c 333d 3733 86bd
00000300: 996b f33c 4faf 0bbd 2d9e c9bc 958c 1b3d
00000310: 7066 18bd 2747 0fbc c32d adbc 7e13 c73b
00000320: 4446 3a3d bb9d 5b3d 7ee7 37bd eb8e 4fbd
00000330: 2828 20bb ddae 9c3d de6f 11bd dd1e 9b3c
00000340: b8d8 02bd e2f8 2f3d acf4 1e3c 5ccb 233d
00000350: e04a 523c b83e 1c3d 6c62 6f3d c630 133d
00000360: 4504 ee3c 46e0 cfbc 9553 13bc 3645 1a3d
00000370: d938 673d a145 173d b70d f83c 243e bfbb
00000380: 9484 193d fc33 c4bb 9d6e 0f3d 1a62 ca3c
00000390: 175d 6ebb 603c 4a3d 2fbe 79bc aecc 6b3d
000003a0: 561f 833d 1c63 253c 0bc2 dd3c 528a 323d
000003b0: 091d d13c e19b 84bc cf8e 8dbc 9fc5 f93c
000003c0: 4dbc 763d aaca 363c 321f 543d 25fa f13c
000003d0: fcf1 ce3c 8242 e2bc 88b2 4f3d 8423 503d
000003e0: bb32 723d b6a4 833a 0bc8 bcbb c503 0b3d
000003f0: 9aa3 c9bc 24a6 b03b 1455 21bc 3ed3 983c

layer3.2.bias f4 [44]
0.06864144 0.05448885 0.028671436 0.029677851 0.02971531 -0.07088126 -0.058246583 0.021858778
-0.028607141 0.02159506 0.038984064 0.027932402 -0.06262358 -0.03379681 -0.0008629967 -0.0100663
0.07433187 -0.039076395 -0.056908425 -0.00064802176 -0.052049104 0.017264996 -0.0036917513 -0.0080595575
-0.040188834 0.0072391303 0.03530397 0.047955535 0.0013495038 0.028580628 0.013065621 0.024783205
-0.017727695 -0.03230242 -0.012556189 0.025738047 0.034472138 -0.011163554 -0.022916723 -0.03937064
-0.0314041 -0.010804179 0.015600179 -0.04101707
00000000: e293 8c3d b32f 5f3d 5ce0 ea3c f71e f33c
00000010: 866d f33c 322a 91bd f893 6ebd 2e11 b33c
00000020: 8659 eabc 20e8 b03c c1ad 1f3d 7ed2 e43c
00000030: cb40 80bd 866e 0abd ba3a 62ba 1fed 24bc
00000040: 4f3b 983d 920e 20bd cf18 69bd 01e0 29ba
00000050: 7131 55bd 526f 8d3c 4ff1 71bb 3c0c 04bc
00000060: 0c9d 24bd 3a36 ed3b e59a 103d 066d 443d
00000070: d5e1 b03a ec21 ea3c 3011 563c 2606 cb3c
00000080: ac39 91bc 8b4f 04bd 79b8 4dbc 99d8 d23c
00000090: a832 0d3d 57e7 36bc dabb bbbc 1c43 21bd
000000a0: 96a1 00bd 0304 31bc e597 7f3c 8401 28bd

layer3.4.weight f4 [44]
0.99483347 0.9685473 0.9549138 0.9905738 1.0059649 1.0074459 0.9702843 0.97552097
0.96952045 1.0013475 1.03472 0.9701673 0.9794621 1.0124035 1.0109816 0.99302524
0.9839764 0.9703211 1.0483139 0.97596174 0.9930859 1.0141189 1.0279161 1.0128119
1.021828 1.0077772 1.0053105 1.0082291 1.0007042 0.99205965 0.98282105 0.99637413
1.0337769 1.0084183 0.989496 1.0346732 1.0386194 1.01958 0.96124053 0.98721915
0.9904388 0.9950045 1.0066035 0.99590814
00000000: 68ad 7e3f b7f2 773f 3b75 743f 3f96 7d3f
00000010: 75c3 803f fdf3 803f 8d64 783f bebb 793f
00000020: 7e32 783f 282c 803f b471 843f e25c 783f
00000030: 07be 7a3f 7096 813f d867 813f e736 7e3f
00000040: e1e5 7b3f f766 783f 262f 863f a1d8 793f
00000050: e13a 7e3f a6ce 813f c192 833f d2a3 813f
00000060: 43cb 823f d8fe 803f 04ae 803f a70d 813f
00000070: 1317 803f 9ff7 7d3f 299a 7b3f 6012 7f3f
00000080: cd52 843f da13 813f 9c4f 7d3f 2c70 843f
00000090: 7bf1 843f 9981 823f dc13 763f 65ba 7c3f
000000a0: 668d 7d3f 9db8 7e3f 62d8 803f d6f3 7e3f

layer3.4.bias f4 [44]
-0.017644282 0.022429775 0.038132302 -0.023344832 -0.023706598 -0.0005553654 -0.019916603 0.008400315
0.006678351 -0.019090405 0.024782082 0.025209012 0.036501884 -0.029687082 0.03193057 -0.023512287
5.2030256e-05 0.02083585 -0.00396951 0.008980619 -0.02187693 -0.027521485 -0.025184808 0.005121725
0.0033721493 -0.00033725132 -0.025623458 0.015432476 0.03157883 0.02555872 0.033995807 0.0058026477
0.0034595537 0.013842686 -0.011380091 -0.023881597 -0.0069465395 0.024767939 0.022154523 0.016460765
-0.007334084 0.011269774 0.0031430684 0.025926972
00000000: be8a 90bc a6be b73c 9e30 1c3d a93d bfbc
00000010: 5734 c2bc f195 11ba 2528 a3bc 7aa1 093c
00000020: 12d6 da3b 7b63 9cbc cb03 cb3c 2183 ce3c
00000030: 0083 153d 5332 f3bc a1c9 023d d79c c0bc
00000040: 103b 5a38 f2af aa3c aa12 82bb 7223 133c
00000050: 3f37 b3bc bd74 e1bc 5f50 cebc 25d4 a73b
00000060: 47ff 5c3b 1bd1 b0b9 49e8 d1bc 7fd8 7c3c
00000070: ce58 013d 8560 d13c 303f 0b3d 2324 be3b
00000080: aeb9 623b 6fcc 623c 9073 3abc 57a3 c3bc
00000090: cc9f e3bb 22e6 ca3c 677d b53c bad8 863c
000000a0: c152 f0bb dca4 383c f0fb 4d3b cd64 d43c

layer3.4.running_mean f4 [44]
0.5326827 0.4283956 0.40230176 0.13344307 0.055032417 0.35967997 0.010710858 1.1241098e-13
0.28004137 0.35646924 0.63335365 0.31103423 0.0048142243 2.1625975e-15 0.40302467 1.7848494e-15
0.50648487 0.241827 0.014568409 0.029005066 0.047917224 0.77095795 0.10745795 0.005888225
0.07458406 0.07461435 0.24330151 0.4843244 0.41180307 0.076301314 0.22261605 0.5624906
0.1068198 0.42109174 0.052110393 0.032630164 0.03940975 0.52398694 0.29972377 0.2481822
0.094020106 0.5907956 0.47754157 0.106259674
00000000: e55d 083f ab56 db3e 7ffa cd3e 4da5 083e
00000010: ac69 613d f927 b83e 987c 2f3c 8520 fd29
00000020: 9561 8f3e 2383 b63e 7723 223f e13f 9f3e
00000030: a4c0 9d3b e2d4 1b27 4059 ce3e a99c 0027
00000040: fea8 013f 7fa1 773e 56b0 6e3c 089c ed3c
00000050: da44 443d 805d 453f ea12 dc3d 03f2 c03b
00000060: 87bf 983d 69cf 983d 0824 793e 5ef9 f73e
00000070: dad7 d23e dd43 9c3d 76f5 633e 62ff 0f3f
00000080: 57c4 da3d 5699 d73e b571 553d 35a7 053d
00000090: 1e6c 213d 0224 063f 6575 993e 7a23 7e3e
000000a0: 9d8d c03d 613e 173f 5480 f43e ac9e d93d

layer3.4.running_var f4 [44]
0.5661832 0.15581441 0.34672335 0.11951346 0.09100406 0.96000993 0.016769381 2.7479324e-13
0.7106618 0.20941305 0.30801404 0.24690117 0.010030778 2.6221438e-13 0.19085898 2.6164555e-13
0.42127272 0.4067262 0.017151743 0.036542725 0.09114876 0.57245255 0.24314632 0.00938459
0.12701789 0.089642994 0.31644875 0.2668 0.17797191 0.04924758 0.11973346 0.79751796
0.031458836 0.58755237 0.08928778 0.05499535 0.06525682 0.33893338 0.63657236 0.37726766
0.14204593 0.48888236 0.28584516 0.2171816
00000000: 62f1 103f d08d 1f3e b985 b13e 79c3 f43d
00000010: 5660 ba3d 36c3 753f f15f 893c e1b1 9a2a
00000020: efed 353f 6070 563e 04b4 9d3e a9d3 7c3e
00000030: 2258 243c 139d 932a 8970 433e 194b 932a
00000040: 0fb1 d73e 6b3e d03e d081 8c3c d3ad 153d
00000050: 33ac ba3d 408c 123f 59fb 783e d3c1 193c
00000060: fa10 023e bf96 b73d 9205 a23e 029a 883e
00000070: 453e 363e d5b7 493d d136 f53d 232a 4c3f
00000080: fbda 003d d569 163f 83dc b63d ce42 613d
00000090: 5ea5 853d ad88 ad3e 68f6 223f 3a29 c13e
000000a0: 7d74 113e ca4e fa3e 4c5a 923e da64 5e3e

layer4.0.weight f4 [20, 44, 1, 1]
0.041267436 -0.097757936 -0.12387541 0.124112174 0.12325979 -0.1246698 -0.059177443 -0.15418683
-0.015029155 0.100765504 -0.10170647 -0.036891032 0.028333351 -0.10539706 -0.09168142 0.10915408
0.01601146 0.003687535 -0.08436815 -0.08130599 0.08814906 -0.035046704 -0.027345276 0.111583985
-0.045979045 -0.07884524 0.029417707 0.046859704 -0.14079064 0.001080786 -0.06726497 0.07917918
-0.044469938 -0.124498494 0.07026413 0.0050459984 -0.16177925 -0.13532351 -0.017243719 -0.123561144
-0.052322097 -0.120506234 -0.068195544 -0.12988412 0.10607226 0.044168774 0.013248359 -0.011302758
0.09783763 0.042034008 0.0053749573 -0.08609183 0.12070964 -0.075328395 -0.15858625 0.026015984
-0.15157218 0.040696118 -0.13719718 -0.07110918 -0.18865366 0.093661375 -0.0082929535 0.019328685
-0.0048465286 0.1350236 -0.054399587 0.10644913 0.093593515 -0.00875314 -0.0021693513 0.01785694
-0.061017673 0.018146727 0.07061647 -0.04666968 -0.13045178 -0.079786405 0.13315341 0.0760298
-0.06892015 0.046157572 0.028108245 -0.13646269 0.07708388 -0.08129111 0.018120006 -0.08402832
-0.12567246 -0.0038431098 -0.11274053 0.065898 0.01505261 -0.033969287 0.056780394 0.028553834
0.12122326 0.08373235 0.011988008 -0.04227053 0.0067930156 0.031956427 -0.063580714 -0.109449744
-0.048763573 0.046622638 0.08227431 0.13620195 0.006824716 -0.15926416 0.08968605 0.12918626
0.10054115 -0.12582184 -0.12000808 -0.11791926 0.051975146 -0.072275735 0.08098033 0.04355127
0.05028405 -0.1716293 -0.13909933 -0.025864247 -0.0791808 0.049606167 0.1546013 0.11711841
-0.11095475 -0.02801031 0.079811 0.035967357 -0.0017938993 -0.087033324 0.08207298 0.140793
-0.110575326 0.13521218 0.00027781853 -0.015397554 -0.022496803 -0.028758638 0.14844982 0.108794466
-0.04440769 -0.09964939 -0.043168448 0.10789957 -0.049264424 0.094689645 -0.14189099 0.0062636216
-0.09204313 -0.0044357185 -0.09047501 0.077056095 0.003469904 0.018718455 0.08657073 -0.08332494
0.04728688 -0.014784583 0.09946897 0.09464111 -0.13723452 -0.12600681 0.12510383 0.0012674605
0.062433973 0.07331981 0.15111738 -0.024684064 -0.004566206 -0.0012116784 -0.011417778 0.022127701
0.023397926 0.052752852 0.043742537 -0.10075931 0.10704644 0.01990397 0.08812916 -0.1166078
-0.01958644 -0.020470416 -0.024655707 0.093767986 -0.03340504 0.13514817 -0.058198527 -0.08862026
-0.0075388383 0.12403183 0.13265988 0.098735414 -0.115490705 -0.124611385 0.01995369 0.119084544
-0.10960229 0.019139627 0.09611539 0.05754815 -0.11972651 0.12539901 -0.01105455 0.03640379
-0.032823462 0.13588409 -0.04134125 0.0902942 -0.057056855 -0.0826866 -0.0077907224 0.08084848
-0.020552466 0.014936291 0.11569168 -0.030747553 -0.0042293384 -0.06912413 -0.113294624 -0.11229588
-0.057893455 0.09886127 -0.066311024 -0.0052762134 -0.11215446 0.07011188 -0.11115949 -0.116204284
-0.00538045 -0.08078339 0.068032876 0.0061429245 0.09160523 -0.06109492 -0.03198456 0.016325476
0.11553886 0.059752617 -0.08001906 0.16697578 -0.060940005 -0.093169235 0.057362743 -0.10424211
-0.080142975 0.107728116 0.0152712185 0.07037546 0.07946442 0.04609586 0.035554893 -0.014527577
00000000: 0b08 293d 5035 c8bd 64b2 fdbd 862e fe3d
00000010: a16f fc3d e152 ffbd 0c64 72bd 27e3 1dbe
00000020: d83c 76bc 255e ce3d 7b4b d0bd 0d1b 17bd
00000030: 581b e83c 6ada d7bd 78c3 bbbd 2d8c df3d
00000040: 772a 833c 92aa 713b 35c9 acbd c183 a6bd
00000050: 7f87 b43d 228d 0fbd 3303 e0bc 2586 e43d
00000060: 8654 3cbd 9d79 a1bd 67fd f03c f6ef 3f3d
00000070: 6c2b 10be 29a9 8d3a 37c2 89bd b228 a23d
00000080: 1c26 36bd 11f9 febd a4e6 8f3d e758 a53b
00000090: 76a9 25be 3f92 0abe b342 8dbc a00d fdbd
000000a0: b24f 56bd f9cb f6bd 1baa 8bbd 5800 05be
000000b0: 6a3c d93d 51ea 343d a50f 593c 342f 39bc
000000c0: 185f c83d da2b 2c3d 6920 b03b ea50 b0bd
000000d0: 9e36 f73d c645 9abd 6f64 22be 791f d53c
000000e0: bd35 1bbe f9b0 263d 6b7d 0cbe b1a1 91bd
000000f0: 6d2e 41be 89d1 bf3d 2bdf 07bc 3157 9e3c
00000100: a1cf 9ebb a043 0a3e 1ad2 5ebd 0002 da3d
00000110: f5ad bf3d 5569 0fbc ad2b 0ebb b848 923c
00000120: abed 79bd 72a8 943c 5e9f 903d b528 3fbd
00000130: 2795 05be 0e67 a3bd 5e59 083e 83b5 9b3d
00000140: 0226 8dbd b90f 3d3d 4343 e63c e0bc 0bbe
00000150: 27de 9d3d f47b a6bd 6870 943c 0a17 acbd
00000160: 48b0 00be afdc 7bbb 82e4 e6bd 88f5 863d
00000170: 399f 763c 6123 0bbd 8f92 683d bbe9 e93c
00000180: e743 f83d de7b ab3d 5a69 443c dd23 2dbd
00000190: f297 de3b bee4 023d 9b36 82bd 3027 e0bd
000001a0: 50bc 47bd 61f7 3e3d 6f7f a83d 8678 0b3e
000001b0: dea1 df3b 2516 23be 52ad b73d 6749 043e
000001c0: 85e8 cd3d 71d7 00be ccc6 f5bd a77f f1bd
000001d0: e4e3 543d 4d05 94bd 04d9 a53d d162 323d
000001e0: a6f6 4d3d 97bf 2fbe 0e70 0ebe 42e1 d3bc
000001f0: 8b29 a2bd d62f 4b3d ce4f 1e3e c7db ef3d
00000200: 3e3c e3bd e175 e5bc f373 a33d 8252 133d
00000210: 4621 ebba 873e b2bd e115 a83d 0a2c 103e
00000220: 5175 e2bd 1075 0a3e 2ca8 9139 0646 7cbc
00000230: 374b b8bc 3c97 ebbc 3b03 183e a2cf de3d
00000240: d7e4 35bd fb14 ccbd 66d1 30bd 73fa dc3d
00000250: 7ec9 49bd a5ec c13d df4b 11be 113f cd3b
00000260: 1c81 bcbd 8159 91bb f64a b9bd 96cf 9d3d
00000270: 5467 633b 7257 993c ff4b b13d 44a6 aabd
00000280: e3af 413d 093b 72bc 63b6 cb3d 33d3 c13d
00000290: 3587 0cbe ee07 01be 381b 003e eb20 a63a
000002a0: c4ba 7f3d b228 963d 84be 1a3e 3c36 cabc
000002b0: 1da0 95bb 2ed1 9eba a211 3bbc 2745 b53c
000002c0: 02ad bf3c 6013 583d 602b 333d e65a cebd
000002d0: 2a3b db3d a70d a33c 107d b43d 12d0 eebd
000002e0: be73 a0bc 93b1 a7bc c4fa c9bc 6e09 c03d
000002f0: b9d3 08bd 4864 0a3e 9461 6ebd 8a7e b5bd
00000300: 5c08 f7bb 6604 fe3d fed7 073e cb35 ca3d
00000310: 6486 ecbd 4134 ffbd ec75 a33c 99e2 f33d
00000320: 2a77 e0bd b5ca 9c3c 25d8 c43d 9cb7 6b3d
00000330: 2c33 f5bd 9968 003e 251e 35bc 241c 153d
00000340: e571 06bd 3325 0b3e 7155 29bd 2aec b83d
00000350: 73b4 69bd 9857 a9bd 5149 ffbb e393 a53d
00000360: a55d a8bc 58b7 743c c2ef ec3d 4be2 fbbc
00000370: 4396 8abb f490 8dbd 0307 e8bd 62fb e5bd
00000380: b021 6dbd c777 ca3d 13ce 87bd 16e4 acbb
00000390: 3db1 e5bd d196 8f3d 96a7 e3bd 83fc edbd
000003a0: 7c4e b0bb c371 a5bd d254 8b3d 964a c93b
000003b0: 869b bb3d ab3e 7abd 3e02 03bd 01bd 853c
000003c0: a39f ec3d 29bf 743d 08e1 a3bd b3fb 2a3e
000003d0: 3a9c 79bd 83cf bebd 32f5 6a3d e37c d5bd
000003e0: 0022 a4bd 8fa0 dc3d 2234 7a3c 0221 903d
000003f0: 3ebe a23d 03cf 3c3d 02a2 113d 1305 6ebc

layer4.0.bias f4 [20]
0.11301741 -0.061498053 0.007992748 -0.025869114 0.11564899 -0.16839911 0.12392887 0.10442863
-0.08226684 0.12878008 -0.02527446 -0.06909957 -0.08342194 -0.013189383 -0.13314825 -0.0660773
-0.14023271 -0.1233855 -0.072023585 0.07375387
00000000: ac75 e73d 62e5 7bbd 04f4 023c 77eb d3bc
00000010: 61d9 ec3d d170 2cbe 6bce fd3d adde d53d
00000020: 847b a8bd edde 033e 620c cfbc 1384 8dbd
00000030: 1fd9 aabd 4818 58bc 0458 08be 8953 87bd
00000040: 2a99 0fbe 89b1 fcbd 1a81 93bd 450c 973d
